project_2_task_1_ph/data/model_MNIST_LDA.pth (torch, 7312 bytes, 4 tensors)

linear_1.weight f4 [100, 2]
0.38540125 -0.055181555 0.6064276 -0.1143873 0.26579776 -0.60195106 -0.017169986 -0.5611613
-0.03886198 -0.6312921 0.7227353 -0.14777169 -0.17549072 0.15669036 -0.35878938 -0.4336858
0.0127543565 -0.5585432 -0.037893817 0.20930521 -0.60426694 0.08721985 0.36011365 -0.20958729
-0.41701156 0.67233104 -0.29967588 -0.62938946 -0.5935921 -0.5837246 0.34541515 -0.3772641
0.46783042 0.65978456 -0.59640926 -0.6522456 0.49506974 0.48847324 0.07879078 0.5788093
-0.77796835 0.3306828 -0.29196942 -0.0123254545 -0.11937761 0.15476438 -0.58767 -0.025971057
-0.44318536 0.35304803 0.3119507 0.63202584 -0.56735104 0.15543841 -0.082154885 -0.682702
0.16365445 -0.7216621 0.023515888 -0.640583 0.0994921 0.2833589 -0.23016906 0.34860957
-0.5228658 -0.36042148 0.5668475 0.057406034 0.30288318 0.7071331 0.56889176 -0.012197804
0.12120432 -0.026322823 0.012006201 -0.75172275 -0.4286121 0.0007444762 0.55857706 -0.69437677
0.63526267 -0.18609862 0.43269032 0.26280004 -0.36086187 -0.5315004 -0.62721956 0.068814166
0.18376504 -0.11082422 -0.7022015 0.0744739 0.5661098 0.30342934 -0.57813185 0.113022424
0.16831614 0.5275178 -0.25609165 -0.30349147 0.63879323 -0.287715 -0.17441371 0.3928412
0.12071302 0.6395477 -0.08059383 -0.57309544 -0.3303261 -0.42158857 0.07079141 0.74577576
0.6061522 -0.16135566 0.52852595 0.6416229 0.5460726 -0.037480466 -0.013178393 0.41640836
-0.2575328 0.49239928 -0.0476456 0.12588869 0.32244363 -0.36690712 0.75334007 0.4761427
-0.49904904 -0.20203021 -0.09598909 0.29481402 -0.7135718 -0.07142514 -0.35476887 0.24139614
-0.06728831 0.25633276 0.6180379 0.09838362 0.12839448 0.52058256 -0.29762498 -0.15966573
-0.16481926 0.41301903 0.65774894 -0.14774635 -0.33683136 0.58399945 0.71249527 -0.13662234
-0.61598694 0.3063212 0.6602932 0.40974554 -0.08335717 0.31995475 -0.2855853 0.35809338
-0.42874077 0.7095752 0.012566816 0.18232948 -0.07680686 -0.0395538 0.09399146 -0.3112894
-0.08789811 0.030012421 -0.16095206 0.012621613 0.64364254 0.13121322 -0.07693007 -0.54394764
0.7340477 0.40422806 -0.22885603 -0.5630669 0.39785656 0.46350053 0.60739547 -0.05088822
-0.39879796 -0.40540975 0.08426641 0.11372141 0.0048412574 0.27100882 0.37796786 0.33989367
0.6967091 0.51151836 -0.6777971 0.13148516 -0.25679085 0.24275751 0.58261174 0.3544876
00000000: 5053 c53e 0e06 62bd d73e 1b3f e443 eabd
00000010: a516 883e 7719 1abf 12a8 8cbc 44a8 0fbf
00000020: bd2d 1fbd 5c9c 21bf 2e05 393f 7651 17be
00000030: d7b3 33be 7073 203e 3eb3 b7be 110c debe
00000040: a6f7 503c b0fc 0ebf 8c36 1bbd 1b54 563e
00000050: 3db1 1abf 52a0 b23d d160 b83e 0d9e 56be
00000060: 8a82 d5be e31d 2c3f 1e6f 99be ab1f 21bf
00000070: a7f5 17bf fa6e 15bf 41da b03e c328 c1be
00000080: 7887 ef3e a4e7 283f 47ae 18bf 91f9 26bf
00000090: c879 fd3e 2a19 fa3e 0f5d a13d d92c 143f
000000a0: ef28 47bf 424f a93e 047d 95be b4f0 49bc
000000b0: 407c f4bd 8e7a 1e3e 8b71 16bf 41c1 d4bc
000000c0: 31e9 e2be b6c2 b43e 01b8 9f3e 72cc 213f
000000d0: eb3d 11bf 3f2b 1f3e d240 a8bd 8fc5 2ebf
000000e0: 0895 273e d9be 38bf 64a4 c03c 3ffd 23bf
000000f0: 84c2 cb3d 6b14 913e 70b1 6bbe f47c b23e
00000100: 88da 05bf 2a89 b8be eb1c 113f 9722 6b3d
00000110: 8113 9b3e ad06 353f e4a2 113f 4cd9 47bc
00000120: f839 f83d f6a2 d7bc a8b5 443c e770 40bf
00000130: 0c73 dbbe f428 433a e8fe 0e3f adc2 31bf
00000140: 93a0 223f a390 3ebe 9689 dd3e ba8d 863e
00000150: e3c2 b8be 6910 08bf 7691 20bf 71ee 8c3d
00000160: e72c 3c3e cff7 e2bd 7ac3 33bf c685 983d
00000170: 92ec 103f 175b 9b3e 7300 14bf 4d78 e73d
00000180: 115b 2c3e 680b 073f 721e 83be 3c63 9bbe
00000190: f487 233f 614f 93be 8299 32be 7b22 c93e
000001a0: 6338 f73d 66b9 233f 610e a5bd 62b6 12bf
000001b0: 8120 a9be 75da d7be 16fb 903d 29eb 3e3f
000001c0: ca2c 1b3f 6b3a 25be 7a4d 073f 6641 243f
000001d0: 6acb 0b3f 1e85 19bd 30ea 57bc 7a33 d53e
000001e0: 57db 83be c21b fc3e 0828 43bd f7e8 003e
000001f0: 5517 a53e 40db bbbe e5da 403f fac8 f33e
00000200: 5b83 ffbe 02e1 4ebe ee95 c4bd ddf1 963e
00000210: a4ac 36bf 5847 92bd 44a4 b5be 8d30 773e
00000220: 74ce 89bd 0c3e 833e bb37 1e3f 5a7d c93d
00000230: d879 033e e644 053f 4d62 98be 6a7f 23be
00000240: 61c6 28be 3b77 d33e 3c62 283f d24a 17be
00000250: 2975 acbe fd80 153f 1766 363f bae6 0bbe
00000260: 52b1 1dbf 22d6 9c3e fa08 293f 2bca d13e
00000270: 2ab7 aabd 1cd1 a33e 3d38 92be 0458 b73e
00000280: e983 dbbe b8a6 353f 0ce5 4d3c 94b4 3a3e
00000290: ea4c 9dbd 2a03 22bd 987e c03d 5361 9fbe
000002a0: ed03 b4bd 9cdc f53c 9ed0 24be e2ca 4e3c
000002b0: c2c5 243f c25c 063e 838d 9dbd 2740 0bbf
000002c0: 8dea 3b3f fbf6 ce3e 3c59 6abe 2725 10bf
000002d0: dbb3 cb3e f14f ed3e 457e 1b3f 2b70 50bd
000002e0: 3f2f ccbe de91 cfbe de93 ac3d c5e6 e83d
000002f0: 69a3 9e3b abc1 8a3e 0185 c13e 8b06 ae3e
00000300: 875b 323f def2 023f 1c84 2dbf 0ca4 063e
00000310: 177a 83be 6d95 783e 0b26 153f 667f b53e

linear_1.bias f4 [100]
0.039122727 -0.0008895279 -0.95985603 -0.5372692 -0.039724384 0.08906333 -0.60921216 -0.39812747
-0.65333945 -0.1859574 0.022747928 0.83147657 0.24689488 0.25633126 0.035346992 -0.62094337
0.39875275 -0.7407567 -0.06106961 0.57805824 -0.93164223 0.45922953 -0.62691087 0.62512076
-0.38580158 0.6055035 0.5829856 -0.62698483 -0.45232898 0.43618256 0.15486047 -0.032754432
0.3743685 0.20733558 -0.62188965 -0.49599028 0.2670556 -0.015931778 0.37624243 0.3592107
0.21638891 -0.2844109 0.009926741 0.23264754 -0.56252396 0.52471966 -0.51824987 0.29854962
-0.33810306 -0.4647209 0.84190655 0.46079898 -0.21004426 0.5414541 -0.3915326 -0.69585377
0.18353343 0.071862325 -0.6089237 -0.6214013 0.3516536 0.28251332 0.7449774 -0.5346792
0.40662137 0.38749847 0.025562048 -0.716203 -0.5794431 -0.2834597 -0.51753044 0.69085217
0.7480467 0.75041896 -0.7962078 -0.21616416 0.7055525 0.3614944 0.58830947 -0.4200182
0.92659634 -0.19480728 -0.46944097 0.50426614 0.7108802 -0.083380535 -0.4734091 0.48931754
-0.09243842 -0.1258764 0.32468408 -0.87453175 -0.61871 0.14975393 0.8863134 0.57395065
-0.08112274 -0.19682612 -0.026305763 -0.3847113
00000000: 273f 203d 352f 69ba 20b9 75bf 798a 09bf
00000010: 09b6 22bd d666 b63d 54f5 1bbf 5dd7 cbbe
00000020: 4141 27bf 9e6b 3ebe dd59 ba3c a6db 543f
00000030: 03d2 7c3e da3d 833e 02c8 103d 25f6 1ebf
00000040: 5229 cc3e 3ba2 3dbf 2124 7abd a0fb 133f
00000050: 1b80 6ebf 2220 eb3e 3b7d 20bf ea07 203f
00000060: c987 c5be 4702 1b3f 8b3e 153f 1482 20bf
00000070: aa97 e7be 5253 df3e be93 1e3e 8329 06bd
00000080: 3aad bf3e c74f 543e 2934 1fbf 70f2 fdbe
00000090: 83bb 883e 5c83 82bc d9a2 c03e 77ea b73e
000000a0: 0e95 5d3e 4e9e 91be c5a3 223c 283b 6e3e
000000b0: 9201 10bf 0754 063f 06ac 04bf 7fdb 983e
000000c0: d81b adbe e6ef edbe 3087 573f d8ed eb3e
000000d0: d815 57be bc9c 0a3f f676 c8be 7923 32bf
000000e0: 30f0 3b3e 8e2c 933d 6ce2 1bbf 2814 1fbf
000000f0: f10b b43e 96a5 903e d7b6 3e3f bce0 08bf
00000100: ad30 d03e 3366 c63e 8067 d13c 1459 37bf
00000110: 6256 14bf a121 91be e07c 04bf b0db 303f
00000120: fd7f 3f3f 751b 403f 46d4 4bbf 235a 5dbe
00000130: 179f 343f cb15 b93e 739b 163f a00c d7be
00000140: 6b35 6d3f 8f7b 47be 915a f0be 9617 013f
00000150: 3ffc 353f 6ac3 aabd ad62 f2be d487 fa3e
00000160: 5b50 bdbd bee5 00be fe3c a63e 50e1 5fbf
00000170: c763 1ebf 1859 193e 6fe5 623f 6eee 123f
00000180: ae23 a6bd c98c 49be 2f7f d7bc e1f8 c4be

linear_2.weight f4 [10, 100]
-0.0050787814 -0.13378823 -0.16838175 0.2184995 0.20049854 -0.13755022 -0.08398835 0.22598475
0.23927538 0.0448274 0.05646938 -0.29157087 -0.24367714 0.20370014 0.30105683 -0.12611045
-0.06225719 0.35701454 0.03225891 0.032668542 0.009906275 -0.047161322 0.04687228 0.06296358
0.00669832 -0.063498095 -0.11236981 0.20090815 -0.008927425 -0.03610389 -0.017149286 -0.09203178
0.0451176 -0.054933857 0.08624354 -0.0780766 -0.011870936 0.22003113 0.09116557 -0.29852968
-0.05050955 -0.0519644 0.28878954 0.1333844 0.09138667 -0.04591873 0.04440492 0.015922373
0.03635731 0.15919171 -0.27968293 -0.29080555 -0.030336095 -0.006108178 0.28297874 -0.021507127
-0.118256286 -0.011376421 0.023033546 0.055270687 -0.16263834 -0.06722113 -0.13506949 -0.044991136
0.13754846 -0.11034271 0.1235841 0.081062354 0.100140765 -0.12707871 -0.050053082 -0.0913055
-0.25527772 -0.05854508 -0.05172205 -0.011154518 -0.058983814 -0.080869034 -0.25719485 -0.028853975
-0.2870776 -0.042188555 -0.052404515 -0.06999615 -0.16916376 0.027341105 -0.092575654 -0.113019496
-0.10881228 0.19710472 -0.04509216 -0.060265645 0.32501915 -0.021007162 -0.26243174 -0.123928495
0.011186138 0.19328694 -0.07242724 -0.108552136 -0.10655784 -0.22255749 0.020508543 -0.045367375
-0.022382846 -0.23180492 -0.001277766 -0.028529229 0.10457055 0.04896929 -0.20856291 -0.27405128
0.24661216 0.027067466 -0.07865351 -0.09537322 0.100316875 0.007556839 0.060605373 0.09002365
0.19015354 -0.0928272 0.06815752 -0.2906935 0.15028696 0.12134883 -0.13911669 0.0066370904
0.04456813 -0.019803094 -0.013114667 0.20053202 -0.1157591 0.029357359 0.2556486 -0.0929068
0.021872224 -0.025761738 -0.27070153 -0.048146334 -0.2500833 0.079492174 -0.0655302 -0.2803493
-0.018419223 -0.18950264 0.21519549 -0.13639733 0.17158572 0.05686371 -0.24540931 0.014302139
0.17662567 -0.037496846 -0.08908682 0.40577388 -0.2084331 0.15024987 -0.019737734 0.11669173
0.15051076 -0.029051602 -0.056078725 0.2863054 -0.021216173 0.033815164 -0.12654892 0.1967974
0.099855445 0.008974354 0.19194485 -0.08523766 -0.07601951 -0.15290199 0.3339469 -0.22438955
-0.10417591 -0.054051436 -0.035162237 0.11081338 0.05087702 0.033293717 0.09247061 -0.04233585
-0.25791833 0.057059426 -0.016666755 -0.12977445 0.14734735 0.0041132662 0.16624525 -0.031080842
0.0033421793 -0.06664729 -0.091405116 0.046014328 0.056334637 -0.16589369 -0.008421738 0.10268591
-0.08906526 0.016520305 -0.062808976 0.05289439 -0.124673285 0.03103173 0.09391342 0.13554889
0.039697044 -0.045863718 0.08706567 0.20775187 0.13166825 -0.24734816 -0.08405768 -0.12852438
-0.04098349 0.06393487 -0.17101783 0.2048027 0.6281573 0.0020286725 0.0401296 0.030943045
0.2215695 0.22732191 0.081102036 0.03903574 -0.106613025 -0.17199232 0.10064378 0.06277758
-0.12024079 0.00915962 -0.20586452 -0.089534104 0.11718619 -0.27491105 0.15692326 -0.12421163
0.0351438 -0.02694809 -0.14493206 0.072232425 -0.063214876 0.051818896 -0.038561385 0.030931147
-0.116935 0.020833073 0.22635557 0.05793715 -0.1738403 -0.2589928 0.039271984 -0.20433573
00000000: e86b a6bb c8ff 08be 446c 2cbe 55be 5f3e
00000010: 7d4f 4d3e f7d9 0cbe 1602 acbd 8c68 673e
00000020: 9b04 753e f09c 373d 704c 673d c748 95be
00000030: 8086 79be c596 503e 1f24 9a3e 1923 01be
00000040: 6501 7fbd 9cca b63e eb21 043d 73cf 053d
00000050: ee4d 223c 3b2c 41bd 26fd 3f3d 0df3 803d
00000060: 957d db3b 4a0b 82bd 2522 e6bd deba 4d3e
00000070: 5644 12bc ace1 13bd a97c 8cbc 287b bcbd
00000080: 3ccd 383d 5302 61bd 74a0 b03d a0e6 9fbd
00000090: 507e 42bc d74f 613e 04b5 ba3d e2d8 98be
000000a0: 1ae3 4ebd 9fd8 54bd 39dc 933e ec95 083e
000000b0: ef28 bb3d 4715 3cbd efe1 353d a36f 823c
000000c0: 67eb 143d 2703 233e 9a32 8fbe 77e4 94be
000000d0: 6783 f8bc 1c27 c8bb 97e2 903e b72f b0bc
000000e0: 5a30 f2bd 2b64 3abc d9b0 bc3c 8463 623d
000000f0: aa8a 26be 3bab 89bd a84f 0abe a048 38bd
00000100: 81d9 0c3e 5cfb e1bd a919 fd3d 0504 a63d
00000110: 9a16 cd3d ec20 02be 7604 4dbd 61fe babd
00000120: c3b3 82be f7cc 6fbd 80da 53bd 71c1 36bc
00000130: 0399 71bd aa9e a5bd 0baf 83be 2c5f ecbc
00000140: d6fb 92be e8cd 2cbd 1ea6 56bd 245a 8fbd
00000150: 4439 2dbe 74fa df3c 4e98 bdbd c476 e7bd
00000160: f9d8 debd d2d5 493e 8fb2 38bd 1cd9 76bd
00000170: e968 a63e 3617 acbc 745d 86be 39ce fdbd
00000180: 1046 373c 03ed 453e bc54 94bd 9550 debd
00000190: ff3a dabd 1ce6 63be 8801 a83c 24d3 39bd
000001a0: 3b5c b7bc 455e 6dbe b67a a7ba 21b6 e9bc
000001b0: 1629 d63d 0694 483d 8491 55be 7350 8cbe
000001c0: e687 7c3e 97bc dd3c 1715 a1bd 0953 c3bd
000001d0: ef72 cd3d 5c9f f73b 573d 783d 525e b83d
000001e0: 9cb7 423e 301c bebd 2b96 8b3d c7d5 94be
000001f0: d3e4 193e bc85 f83d 9b74 0ebe f37b d93b
00000200: 128d 363d 193a a2bc e6de 56bc 4458 4d3e
00000210: 1b13 edbd d87e f03c 60e4 823e ec45 bebd
00000220: 612d b33c 480a d3bc 6499 8abe 1735 45bd
00000230: eb0a 80be cbcc a23d b334 86bd f289 8fbe
00000240: e9e3 96bc fb0c 42be 355c 5c3e beab 0bbe
00000250: 2bb4 2f3e ece9 683d 944c 7bbe 8553 6a3c
00000260: 5cdd 343e 4b96 19bd 2773 b6bd 98c1 cf3e
00000270: 7d6f 55be 1adb 193e 07b1 a1bc 13fc ee3d
00000280: 7e1f 1a3e a0fd edbc ceb2 65bd 9f96 923e
00000290: 8acd adbc c581 0a3d 0a96 01be 4285 493e
000002a0: 0381 cc3d 2b09 133c 318d 443e 1591 aebd
000002b0: 1eb0 9bbd 5792 1cbe 17fb aa3e 60c6 65be
000002c0: 2e5a d5bd 0a65 5dbd 4706 10bd 20f2 e23d
000002d0: 6c64 503d fe5e 083d 3b61 bd3d 5b68 2dbd
000002e0: df0d 84be 25b7 693d b888 88bc 98e3 04be
000002f0: 39e2 163e 94c8 863b 323c 2a3e 409d febc
00000300: 7708 5b3b 607e 88bd 9b32 bbbd 8579 3c3d
00000310: 26bf 663d 09e0 29be 54fb 09bc fe4c d23d
00000320: d967 b6bd 9755 873c fea1 80bd caa7 583d
00000330: b554 ffbd 4136 fe3c ae55 c03d 54cd 0a3e
00000340: 5e99 223d 98db 3bbd 7c4f b23d e8bc 543e
00000350: 0bd4 063e d648 7dbe 6f26 acbd e59b 03be
00000360: 4ede 27bd 49f0 823d 4c1f 2fbe cdb7 513e
00000370: ebce 203f 7af3 043b ef5e 243d 457c fd3c
00000380: 1de3 623e 13c7 683e d318 a63d f1e3 1f3d
00000390: ee57 dabd c11e 30be 531e ce3d 8891 803d
000003a0: ce40 f6bd 3b12 163c 26ce 52be a85d b7bd
000003b0: 50ff ef3d 24c1 8cbe 7eb0 203e ab62 febd
000003c0: f2f2 0f3d 3ec2 dcbc 1269 14be 98ee 933d
000003d0: cd76 81bd 0d40 543d 8bf2 1dbd 5163 fd3c
000003e0: 9e7b efbd 1faa aa3c c1c9 673e 814f 6d3d
000003f0: 3103 32be b49a 84be a9db 203d 633d 51be

linear_2.bias f4 [10]
-0.22184502 -0.28039736 -0.017946217 0.21755534 0.18248501 0.31234986 -0.13753858 -0.3928438
0.35251656 -0.06703766
00000000: 572b 63be 3e90 8fbe f203 93bc d4c6 5e3e
00000010: 5add 3a3e 52ec 9f3e ead6 0cbe d322 c9be
00000020: 0d7d b43e 0a4b 89bd
