project_2_task_1_ph/data/model_Iris_FLATTEN.pth (torch, 5352 bytes, 4 tensors)

linear_1.weight f4 [100, 4]
00000000: 7182 c83d 8119 9dbd 8cf0 803e d097 52be
00000010: 42dc 05be cd30 013e 0d20 ca3e 59bc 6e3e
00000020: e918 0e3e b7b3 fcbe d3d7 bb3d dd41 a3be
00000030: e966 873e 5967 c33d 326e de3e 1c82 833e
00000040: 80fa d4be 300a 7dbd 805b ca3b e8d8 9b3e
00000050: 30f4 d93e af7d c2be dad0 e43e d15c a1be
00000060: 9523 9b3d 07e1 fb3e d4ae 893e e30a 4c3e
00000070: 0027 4fbd b80c 793e 5ecd 99be 1056 203d
00000080: 8ae4 d33e 04a7 d93d 6503 f0be ee30 d9bd
00000090: 132b f73e d5ba c8bb 64a1 1abe 2bc9 22be
000000a0: 54af fabe 36d2 913e ea0f b13e 1abc b3be
000000b0: d8a5 cfbe e2ce d5be 10ce 07be 720f ddbe
000000c0: 26a0 293e 434f 353d d126 d23d f19e 933e
000000d0: e701 93bc d18f 1c3e aa55 2cbe c2a1 743e
000000e0: 9a71 c6be 90c8 efbe 602d 49be 941a b63e
000000f0: 0c38 26be 988e abbd 8470 87be 0056 923d
00000100: 502a a2bd 8cb3 e3be 5066 993d 6036 c3bd
00000110: 7eab e1be c285 9ebe 9c12 e4be 3087 febe
00000120: 4420 97be 9008 953e 000e f0be 16e1 98be
00000130: c877 e7be e4b7 d1be 583c dd3d 8065 123e
00000140: 14c1 18be 503c 543d 0428 44be 70c8 033d
00000150: a457 003d f4d2 153e b2bf a4be e40c aabe
00000160: 37cb cdbd 1954 8bbd b872 d43c 624d c53e
00000170: bc9f 35be 1880 29be ec59 6bbe 38a9 a83e
00000180: 51e5 223d 0e35 de3d 3844 cc3e 31f3 313c
00000190: 3732 bd3e dc33 dcbe d0d7 18be 02f7 b13e
000001a0: 7cf6 28be 904e 553e 3e3d efbe 3488 c6be
000001b0: dc14 c93e 7237 6cbe 7a7a 063c 92a4 16bd
000001c0: 5855 d7be 50d2 f63e b888 a8bd 4a5c f9be
000001d0: 9e43 b83e 2826 cd3e 5de2 cebc 07a2 e83e
000001e0: 0b7e 623e 6ba2 7f3e 1f3b c2be 60c3 903d
000001f0: 4679 b23c a4aa b93e 6f62 b1be 91fc d4be
00000200: 70a8 7d3d 2075 b2be 301d 42be d0b1 f83d
00000210: 812d 243c 4058 f2be 20e1 593e be02 643e
00000220: 5911 a83e 8f33 c2be d204 ca3d ddc0 7e3e
00000230: 4183 6bbe 0524 613d 3b9c bd3e 434e 413e
00000240: 03b8 073e 4e75 c33e 6089 093e 4e93 653e
00000250: 5802 843d 80a9 09bd b897 88be 547e aa3e
00000260: 9817 e7be c011 c23c e0ce 9ebc 7a88 d23e
00000270: 8c38 13be c222 d7be 70cd 10be 00f6 fa3a
00000280: 201e ccbd 80bd 1a3d 7eb8 a6be 601e cd3c
00000290: fc32 173e 8438 b7be 4060 4abd c61d c6be
000002a0: d065 2cbe ebfb ac3e 6bcc 21be d533 bbbe
000002b0: adf2 753d e423 023c d4d0 c93d f6ee a23e
000002c0: 30f5 323e 8c9d d9be c09f 123d 78db 9abe
000002d0: 54c7 cb3e 709e 583e d933 04be b36c 093d
000002e0: 9bc6 8c3e 0d4e 723e 3084 afbe ca4e a2be
000002f0: 016e be3e f2bd 52be ee59 843e ef85 d23e
00000300: aa60 d03e 5071 e53e 42a2 24be a4cb 793e
00000310: c96c 71be 53b8 e53e 524c febe 2148 de3e
00000320: fa71 fb3e adf8 fbbe a15c a0bc cd43 cfbe
00000330: 11b9 84be 480b ab3e 5235 b13d d069 5a3e
00000340: bd5e 7d3e ec66 1f3e 48fe c63e 3b3e dfbe
00000350: e622 e63e b7a9 89bd d464 01bd 8d60 debe
00000360: d0d1 20bb 18e8 cdbd 24c5 993e dcb0 dfbe
00000370: 50ab 623d b8bb 78be c00f e9bd 0892 333e
00000380: c89a 45be a4ea b83e 5213 bebe 9caf 0dbe
00000390: 7e30 bbbe 5a59 d4be 2c3e 323e 868b e8be
000003a0: 20fc d13e f021 47bd 14d8 883e 2639 353d
000003b0: c77b 993e 9fec 863e ae60 0f3d e2e4 f9bd
000003c0: b183 ad3d b5e4 10be 89a7 313d 0ad1 e63e
000003d0: 7876 dabe 58fd 653e f0b2 923e 358c 0c3e
000003e0: e519 5c3e 2339 413e ae01 343e 1a5c 7c3e
000003f0: 020e 793d b869 d83e af10 053e 3544 6e3e
0.09790505 -0.0767088 0.25183523 -0.20565724 -0.13072303 0.12616272 0.39477578 0.23314036
0.1387669 -0.49355862 0.091720246 -0.31886187 0.26445702 0.095411964 0.43443447 0.25685203
-0.41597366 -0.061777294 0.0061754584 0.30438924 0.42569113 -0.37986514 0.4469059 -0.31516126
0.07575146 0.4919512 0.26891196 0.19926028 -0.050574303 0.24321258 -0.30039495 0.039144576
0.413853 0.10627559 -0.4687759 -0.10605036 0.4827505 -0.0061257877 -0.15100628 -0.15897052
-0.4896189 0.2848069 0.34582454 -0.35104448 -0.40556216 -0.41759402 -0.132622 -0.43175846
0.16564998 0.044265043 0.1026131 0.288322 -0.017945243 0.15289237 -0.16829553 0.2388983
-0.38758546 -0.46832705 -0.19646215 0.35567153 -0.16232318 -0.08376807 -0.2645303 0.071453094
-0.07918227 -0.4447292 0.07490218 -0.095318556 -0.4407615 -0.30961424 -0.44545448 -0.49712515
-0.29516804 0.29108095 -0.4688568 -0.29859227 -0.45208573 -0.4096061 0.10802525 0.14296532
-0.14917403 0.05181533 -0.1915589 0.032173574 0.03133358 0.14631253 -0.32177502 -0.3321296
-0.10048526 -0.0680315 0.025933608 0.385356 -0.17736715 -0.1655277 -0.22983521 0.32941604
0.039769474 0.10849963 0.39895797 0.010861204 0.36952373 -0.43008316 -0.14926076 0.34758765
-0.16500276 0.2083075 -0.46726412 -0.3877579 0.39273727 -0.23068026 0.008207912 -0.03677804
-0.420573 0.4820733 -0.08229202 -0.48703223 0.35989088 0.40068173 -0.025254423 0.45436117
0.22118394 0.24964301 -0.3793573 0.07068515 0.021786343 0.36263 -0.3464541 -0.41598943
0.061928213 -0.34854984 -0.18956447 0.1214329 0.010020615 -0.47332954 0.21277285 0.22266671
0.32825735 -0.3792996 0.09864201 0.24878259 -0.22999288 0.05496599 0.37033257 0.1887751
0.13253789 0.38175434 0.1343131 0.22419474 0.064457595 -0.033608913 -0.26678252 0.33299506
-0.45135188 0.023690104 -0.019385755 0.41119748 -0.1437704 -0.42018706 -0.14140868 0.00191468
-0.099666834 0.037778378 -0.3256263 0.025038898 0.14765543 -0.35785306 -0.049408197 -0.3869459
-0.16835713 0.33785948 -0.15800636 -0.36562982 0.060045887 0.007943127 0.09854284 0.31822938
0.17476344 -0.4250301 0.03579688 -0.30245566 0.39800513 0.21154189 -0.12910403 0.03355093
0.27495274 0.23662587 -0.3428054 -0.31700736 0.371933 -0.20580271 0.2584986 0.41117808
0.4069875 0.44813013 -0.16077521 0.24394089 -0.23576654 0.4486719 -0.49667603 0.43414405
0.49110395 -0.49213162 -0.019575419 -0.40481415 -0.25922444 0.33407044 0.08652748 0.21329427
0.24743171 0.15566605 0.38865876 -0.43602166 0.449485 -0.06721824 -0.031590298 -0.43433037
-0.002453912 -0.10054034 0.3003322 -0.4368962 0.055339158 -0.24290359 -0.11379957 0.17536175
-0.19297326 0.36116517 -0.37124115 -0.13836521 -0.36560434 -0.4147442 0.17406529 -0.45418948
0.4101267 -0.04861635 0.26727355 0.044243954 0.29977247 0.26352403 0.03500431 -0.12201859
0.08472384 -0.14149745 0.043372665 0.4508136 -0.4266851 0.22459924 0.28652143 0.1372536
0.21494253 0.18869452 0.17578766 0.24644509 0.060804375 0.42268157 0.12994646 0.23268206

linear_1.bias f4 [100]
00000000: fe29 fcbe ebaf 9dbe bdb5 c63e 6cd4 ffbe
00000010: 00aa c8bb 67f8 983e f79d c9be c0ad dabe
00000020: 982d b6bc 5372 65be 80e1 0c3c d884 2fbe
00000030: 7eab 43be b35c 863e 9868 873e f09a 1a3e
00000040: 50a8 153d c81c 0cbe 389c 303e f45b 93be
00000050: 0ac2 e3be cba0 b3bd 1315 e33e c4c9 56be
00000060: 9821 b3be eb38 af3e acfb 01be fb45 b93d
00000070: c424 f7be a351 0abe c8c3 d6be d63e f3be
00000080: b8c5 af3d 15e4 393e 7fe4 cd3e 20b7 eb3e
00000090: 66c8 aebd 9094 72bd beaa ed3e 2455 c8be
000000a0: b4ba 81be 7812 933e 641f b9bc ffd4 1f3e
000000b0: 00c8 543c da93 e13e 713b 1a3e 08a4 593e
000000c0: 0722 983e b2d4 a73e 11cb cf3d ae6b c2be
000000d0: ebaa f83e d0e5 f83e 1d36 cebe 5e2d af3e
000000e0: d8ab 923d 886b de3e 64ff cd3e 6358 dbbe
000000f0: d169 cf3e f311 a53d 4c5e cf3e a2ad 6ebe
00000100: 67c8 ee3e 2044 55bd b755 403e 70dc 883d
00000110: 3eca c83e 65ad ff3d 2bbd 8abd 54eb c3be
00000120: 9fc2 f63e 82b1 0a3e 906e b83d f51f 903e
00000130: 5ada e4be c9b6 37be c029 9d3d a41a c23e
00000140: c2cf 9fbe ccea 553e 18d7 9d3e 8017 e83e
00000150: 6077 fe3d cd92 f8bd d6c3 babc f9de 48be
00000160: 2055 4ebd be7c bebe c003 61be 707c 303d
00000170: e8af e13e cd83 f6be c867 ec3e a9b7 d8be
00000180: 1030 b4bd 365e f5be 7436 ca3e 0049 95be
-0.49250787 -0.30798277 0.3881053 -0.49966753 -0.006123781 0.29877016 -0.3937833 -0.42710686
-0.022238538 -0.22406892 0.008598685 -0.1714052 -0.19108388 0.262426 0.26446986 0.15098166
0.03653747 -0.13682854 0.17247093 -0.28781092 -0.44483978 -0.08770903 0.44352016 -0.20975405
-0.34986567 0.34223112 -0.12693661 0.09046551 -0.48270237 -0.13507704 -0.41946244 -0.47508878
0.08582634 0.18153413 0.4021339 0.4603815 -0.08534317 -0.05922371 0.46419328 -0.39127457
-0.25337756 0.28725028 -0.022597976 0.15608595 0.012987137 0.44058114 0.15061738 0.21253979
0.2971346 0.3277946 0.10146154 -0.37972778 0.485679 0.48612833 -0.4027566 0.342143
0.07161683 0.43441415 0.4023391 -0.4284087 0.4051042 0.08060064 0.4050163 -0.23308423
0.4663727 -0.052066922 0.18782698 0.0668267 0.392168 0.12484244 -0.06774362 -0.3826548
0.4819536 0.13544276 0.09005463 0.2814938 -0.4469784 -0.17940821 0.07673979 0.3791095
-0.31213194 0.20890349 0.30828166 0.4533043 0.12425113 -0.12137375 -0.02279846 -0.19616307
-0.05037415 -0.37204546 -0.21974087 0.043087423 0.44079518 -0.4814743 0.4617293 -0.42327622
-0.0879823 -0.4792344 0.3949467 -0.29157257

linear_2.weight f4 [3, 100]
00000000: 1900 acbc 699b f2bd 26c1 26bd f698 fcbd
00000010: fbaa c43d 658c a3bc 806d 8a3d a9d0 a93d
00000020: 21ce 083e 8590 0d3e ff05 b23d 4a82 003d
00000030: c5fa ebbd 8040 2c3c 4090 133b 070d 893d
00000040: d432 933c 5f27 873d 2cf5 f63c 051d 853d
00000050: a8e3 5f3c a8e5 a4bc fb3d 3abd 8c8c 84bc
00000060: b4d7 653c bbcc 4dbb 6263 293d babe 4bbd
00000070: d083 f6bb 3c3b 893c 30df c63d ec2a 503d
00000080: fee3 2b3d a56e 3a3c 46e4 b7bd af46 2dbc
00000090: 84a8 a43d 045b e23c fb5c bb3d fa76 2e3d
000000a0: 00f6 9339 3c93 df3c b856 b1bc 715b c83c
000000b0: 5877 cabc 6bb0 c93d 6143 4c3e 68b6 c2bd
000000c0: 5855 473e 76c9 4bbd 6361 b2bc aea7 433d
000000d0: da6e e73d 1e93 933d 143d 303c 32b1 1a3d
000000e0: 5091 123c 983e 0cbc 3d75 38bd cf17 bf3c
000000f0: 8c2a 39bd 6c31 3d3d 9e55 03bc bd74 9d3d
00000100: 4bf6 93bd 3c92 f33c b1a8 c9bd 4f71 a33d
00000110: 7c63 b93d ee8b 413d 42ec 84bc 344e e93c
00000120: 3149 493e b045 2fbe bd7c 6cbd 6a43 5dba
00000130: 699a ad3d 6a5a ae3c e848 333c 40e7 063b
00000140: 2ce9 b6bc 4780 4fbd 130c 033c 93ae d83c
00000150: 3da2 2ebd 1ed1 afbc 243b b4bc d508 b83d
00000160: 3982 8a3d 6a21 543c d4e5 a73c 6671 583d
00000170: 5709 c43d 73d1 4cbe 78d9 953c 7af4 83bd
00000180: f2f3 acbd 5651 323d 8c5e 39bd 90e1 283c
00000190: d762 763c bf7d 233d 4752 a03d 4034 a33b
000001a0: 3a7e 51bd d810 cd3d c35a cabc 00bf c2bd
000001b0: 5e11 8d3d 5cde 70bd d12c 8c3d 800b 9dbb
000001c0: 9876 74bd d389 573d 541a e33c a1ac 963d
000001d0: eb6a ab3d a209 183d 0080 893c c01a 73bd
000001e0: 506b 7e3c 4597 aa3b 4d15 ddba 6ed5 2d3d
000001f0: 9279 853d 273e 32bd 2752 77bd 8fd6 0f3d
00000200: 1354 a1bd cbc9 14bd d8d0 0abd bb49 8b3d
00000210: 7d03 a1bd c5e9 f9bd d3de bfbc 243f 763d
00000220: 2202 babd 0050 6739 2862 3cbc cb70 8f3d
00000230: 55a6 8e3d 4c62 8dbc fc95 f23c e75c e5bc
00000240: 6a58 43bd 1415 00bd 2cca d0bd 089c 16bd
00000250: 4ec1 d4bb da88 873b d680 d73d 4e08 1d3d
00000260: 7c82 123c 50c5 1fbd c413 cabd e748 843d
00000270: 009f 3eba 688e bbbd 087b 9f3d a43d 443d
00000280: 0214 863d ec61 3e3d 627b 0fbd 5443 47bb
00000290: e4d3 b73c e0d0 e2bb 658f 7b3c 7070 16bd
000002a0: efde 4ebc 9038 a23a 8404 2f3d b6a5 113d
000002b0: d76a cebb 442b a1bd e804 f5bc e6ef de3d
000002c0: 82d7 353d ca7e b83d b0be 7ebc b86e 9ebc
000002d0: 8032 3c3c 5414 04bd 560f 09be a759 283c
000002e0: b054 da3b d788 a13d 6e59 84bd cc14 d7ba
000002f0: a306 6cbd 3afc 563d aa0b 37bd 7023 573c
00000300: c2e5 3d3d 5261 ad3c 983c 0f3c 5f34 c53c
00000310: 2a13 323d da39 33bd d5b3 093d 3803 b93c
00000320: bd28 bf3d 9c8a 1a3e 051d 443d f778 9d3d
00000330: 60df d7bb c842 83bd 1715 92bd 6016 ac3b
00000340: 4001 2bbe 8e7b 71bd cb36 9d3d b3db 5cbd
00000350: 6355 853c a647 3e3c ea43 303d 8c54 85bc
00000360: 80c7 9fbc 2c81 8cbc a9c7 9b3d 8d41 72bd
00000370: f990 983d c75f 573d e74e 073d 68e0 4d3c
00000380: 14f5 773d ad86 d13c 0e01 243d 6429 8dbd
00000390: e66e 3e3d 2991 07bc ef19 b7bd bca3 2fbd
000003a0: f165 c73d 566e cb3d b4c1 65bc 015a a33d
000003b0: 1ef1 10bd 40ff 603b a8ea 4dbc 9a66 60bd
000003c0: 8c51 d0bc 8230 323d 98a4 b03d 3562 943d
000003d0: f093 8bbd e9c6 1ebd 50fd 43be 54db 023e
000003e0: 6ae4 65bd 91d4 af3a 3d5a 06bd 068f 503c
000003f0: 1c21 6d3b 52c3 173c 464f 993d 5e1f 89bd
-0.02099614 -0.118460484 -0.040711544 -0.123338625 0.096029244 -0.019964406 0.06759167 0.08291752
0.13359882 0.13824661 0.0869255 0.031374253 -0.1152244 0.010513425 0.00225164 0.06691938
0.017968573 0.06599306 0.030146204 0.06499676 0.013665117 -0.02012904 -0.045469265 -0.0161803
0.014028478 -0.0031402546 0.041354544 -0.049742438 -0.0075230375 0.016751878 0.097105384 0.050822183
0.041965477 0.011378919 -0.089790866 -0.010575934 0.08039954 0.02763129 0.09148594 0.042593934
0.0002822131 0.027291887 -0.021647796 0.024457665 -0.02471511 0.09848102 0.19947578 -0.095074475
0.1946615 -0.049752675 -0.021774953 0.047767334 0.1130044 0.07205795 0.01075675 0.037766643
0.008945778 -0.008559845 -0.045033682 0.023326783 -0.04520659 0.04618971 -0.008016018 0.07688282
-0.07224711 0.029732816 -0.098466285 0.07980596 0.09052178 0.047252588 -0.016225938 0.028479673
0.19656827 -0.17116427 -0.057736147 -0.00084405264 0.08476717 0.021283347 0.010942675 0.0020584613
-0.022327982 -0.050659444 0.007998484 0.026450431 -0.04263519 -0.02146202 -0.022000857 0.089860596
0.06763119 0.01294742 0.020495333 0.05284252 0.09572094 -0.20001774 0.018292174 -0.064431146
-0.084449664 0.0435346 -0.045256183 0.010307685 0.015038214 0.039914843 0.07828193 0.004980594
-0.05114577 0.10012978 -0.024701482 -0.095090866 0.06888078 -0.05880581 0.068444856 -0.0047926307
-0.059683412 0.052621674 0.027722515 0.07357145 0.08370002 0.03711856 0.016784668 -0.059351683
0.015528515 0.005206021 -0.001686731 0.04243987 0.06517328 -0.043516304 -0.06038108 0.03511673
-0.07877364 -0.036325257 -0.033890575 0.06801172 -0.078619935 -0.12202791 -0.02342168 0.06011881
-0.09082438 0.00022059679 -0.011498012 0.070039354 0.06965319 -0.017258786 0.029612534 -0.0279984
-0.04769174 -0.0312701 -0.10194811 -0.036769897 -0.0064927703 0.004136187 0.105226204 0.038337998
0.008942243 -0.03900653 -0.09867051 0.064592175 -0.00072716177 -0.09158021 0.07787138 0.047910348
0.06546785 0.046480104 -0.035029776 -0.003040512 0.022439905 -0.0069218725 0.015354012 -0.036728323
-0.012626394 0.0012376476 0.042728916 0.035558425 -0.0062993574 -0.078695804 -0.029909566 0.10885601
0.044394977 0.09008558 -0.015548393 -0.019339904 0.0114866495 -0.03224595 -0.13384756 0.010275281
0.0066629276 0.07887428 -0.0646237 -0.0016409396 -0.057623517 0.052486636 -0.044688858 0.013131008
0.046361692 0.02116457 0.008742474 0.024072824 0.043475308 -0.043756343 0.033618767 0.022584543
0.09333942 0.15091938 0.047879238 0.07689088 -0.0065879077 -0.06409222 -0.07132929 0.0052516907
-0.16699696 -0.05895572 0.076764666 -0.05392046 0.016276067 0.011613762 0.043033518 -0.016275667
-0.019504309 -0.017151438 0.076064415 -0.059144545 0.07449526 0.052581575 0.03303423 0.01256571
0.06053646 0.025576914 0.04004007 -0.0689266 0.04649248 -0.008274355 -0.08940493 -0.04288076
0.09736241 0.09933154 -0.014023233 0.07976151 -0.035386197 0.0034331828 -0.012568153 -0.05478535
-0.02542951 0.043503292 0.08625144 0.07245294 -0.06815326 -0.038763914 -0.191396 0.1277898
-0.056126036 0.001341479 -0.0328009 0.012729412 0.0036183065 0.009262877 0.07485823 -0.06695436

linear_2.bias f4 [3]
00000000: b04b 993c d519 bcbd 4606 9c3c
0.018712848 -0.091846146 0.01904596
