project_2_task_1_ph/data/model_MNIST_HOG.pth (torch, 524944 bytes, 4 tensors)

linear_1.weight f4 [100, 1296]
000000 01 5d 3b 3c 00 cc 28 bc 9b da cf bb 1a 4e 29 3c
       0.011435748 -0.010302544 -0.0063431985 0.010333562
000010 98 6f 3b bc 12 ee 6c 3c 2f 72 1e ba 59 69 5f bc
       -0.01144018 0.014461057 -0.00060442364 -0.013635957
000020 a4 ba 2e bc 47 c3 3b 3c 2a b8 0e 3b 6a 6f a6 3c
       -0.010664616 0.011460132 0.002177725 0.020316798
000030 12 d6 b8 ba 9b c6 67 3b 15 06 d9 3c ed 78 b8 3c
       -0.0014101884 0.003536618 0.026492158 0.0225186
000040 b1 d0 cb 3c a4 0b 3e bc d5 81 af bc 57 4d d2 bc
       0.024879785 -0.011599455 -0.021424213 -0.025671644
000050 fb 3f 8a bc 3b 7e 7a 3c 04 f2 a7 bc 87 2d 97 3c
       -0.016876211 0.015288885 -0.020501144 0.018454326
000060 c3 20 4f 3c 7f b1 96 bc df 71 46 3c 32 33 cf bc
       0.012642088 -0.018395184 0.01211211 -0.025292967
000070 93 b9 c5 3a 91 b9 1d 3d e1 14 99 bc ce b5 37 3d
       0.0015085213 0.038507048 -0.018686714 0.044851117
000080 fc bd 37 bb 6c 3f 8a bc 58 4e 79 bb 23 b9 d8 3a
       -0.0028036823 -0.016875945 -0.0038041081 0.0016534667
000090 6f 72 71 bc 42 83 91 3c 4a b7 82 bc a8 f3 fa 3b
       -0.014736756 0.017762784 -0.01595654 0.0076584406
0000a0 b2 01 f4 3b ec b0 7a bc 46 da e0 3c 0e e4 18 3c
       0.007446491 -0.0153009705 0.02744783 0.009331716
0000b0 f6 7c 96 3b 6a 07 78 bc f1 63 a2 3c 05 1b b8 3a
       0.004592533 -0.015138486 0.019823046 0.0014046138
0000c0 6b 1d f8 3b ae 23 7a bc 6c b2 eb bb ed 2a 84 3c
       0.0075718663 -0.015267296 -0.0071929004 0.01613375
0000d0 e1 54 bc bb e7 5e ab bc 18 12 12 bd af 1b ac 3a
       -0.005747423 -0.020919276 -0.035661787 0.0013130809
0000e0 6f 65 e4 bc be 43 6e 3c 63 e1 05 3d 9c c1 a8 bc
       -0.027880399 0.014542518 0.03268565 -0.020600133
0000f0 33 e1 9a 3a 4b ca bc 3c 02 d3 18 3c c5 2e cb bb
       0.0011816382 0.02304568 0.009327652 -0.0062006437
000100 20 72 27 3c c6 eb b5 3b 8b ac 0a 3b 6b 7b 38 3d
       0.010220081 0.005551788 0.0021159973 0.045039576
000110 e5 47 4a bb 66 1b 4b 3c 3a f9 4e bc 7e af 0e bd
       -0.0030865606 0.012396669 -0.012632662 -0.03483533
000120 08 84 49 bb 1a 32 ae bc 53 34 d8 bc c6 89 c5 3c
       -0.0030748863 -0.021264125 -0.026392138 0.024113547
000130 9b 89 40 3c e6 a0 02 3c c0 e3 63 3c fa 90 76 3c
       0.011751558 0.0079729315 0.01390928 0.015049214
000140 e5 64 c8 bc ff 91 b5 3c 94 25 67 bc af cc 14 bd
       -0.024462173 0.022164343 -0.01410808 -0.036328014
000150 bf 9b 8f bc 7b 44 d4 bc 3d 45 8b bc bb 01 b0 3c
       -0.01753032 -0.02591156 -0.017000789 0.0214852
000160 20 b3 dc bc 15 11 e2 bc ca ef 5e bd ec 37 49 ba
       -0.026940882 -0.027596036 -0.0544279 -0.00076758745
000170 5d 1f d1 3b b5 16 a8 3c 68 0a 87 3c ba f9 95 b9
       0.0063819126 0.02051864 0.016484454 -0.00028605555
000180 0a ed e0 3b 3c 2d ab 3b 60 0b 82 bc 25 60 ae bd
       0.0068641948 0.005223898 -0.015874565 -0.08514432
000190 a5 0b 33 bd a7 6c 65 3d 77 f0 68 3d 03 f4 c8 3d
       -0.043712277 0.056011822 0.05686995 0.098121665
0001a0 bc 79 ed 3c e6 64 06 3d 96 6d a5 3c 67 28 22 bd
       0.028988712 0.032811068 0.020193856 -0.039589312
0001b0 33 c3 c8 bc 4e 67 41 bc 18 c3 6b 3b d2 f1 a8 bc
       -0.02450714 -0.011804415 0.003597444 -0.020623121
0001c0 9d 3b 9b bc 20 75 d4 bb f4 d0 65 3c da 0b cb 3c
       -0.018949324 -0.006483689 0.014026869 0.024785925
0001d0 6c f9 9a 3c 08 8a c4 bc 9f 7f 1b b8 41 e2 83 bc
       0.018917762 -0.0239916 -3.7073736e-05 -0.016099097
0001e0 07 9b 66 3c eb 38 52 bc 34 ef 53 3c be b1 17 bc
       0.014075047 -0.012830953 0.012935448 -0.009258686
0001f0 f5 3c c3 ba d4 9c ba 3c e6 ca 64 bd 3a 18 05 3a
       -0.0014895486 0.02277986 -0.05585756 0.00050771574
000200 5d 93 38 3d c7 e3 81 3c 27 f3 5c 3d 36 07 5c 3c
       0.04506241 0.015855683 0.053942826 0.013429454
000210 47 a6 37 3d 13 5e 97 3c 10 39 1e bd 4e 06 f5 bc
       0.04483631 0.018477475 -0.038628638 -0.029910233
000220 cf e5 3c bd 5c a0 8e bc 9a 78 86 3b 73 d0 57 3d
       -0.0461176 -0.01741045 0.0041037323 0.052689027
000230 c0 47 0b 3d b5 bd 9e 3c 5f dd aa bb ad ec 23 3c
       0.034003973 0.019377569 -0.005214378 0.010005158
000240 96 dc 34 3c fb 31 26 3c 01 b6 42 bb 94 c2 8f 3b
       0.01103892 0.010143752 -0.0029710534 0.004387209
000250 7e 4e 38 bb 5f 68 22 3c f8 11 64 bb 20 b0 55 bc
       -0.0028122957 0.009912579 -0.003480075 -0.01304248
000260 8a d6 67 3c 45 5f c0 bc 91 26 4d 3c 57 d5 27 3c
       0.014150271 -0.023482928 0.012521402 0.010243735
000270 83 f6 20 bc 9a 0a eb bc 76 a4 6c 3c b6 6d a0 3c
       -0.009824398 -0.028691579 0.014443507 0.019583564
000280 d7 72 c6 3c 34 ed 9a bb 3b 53 ff bc b8 b6 14 bc
       0.024224682 -0.004727984 -0.031167617 -0.009076767
000290 52 d4 cc bb a7 03 c4 3b 99 98 8f 3d f5 4d 81 3d
       -0.0062508965 0.0059818807 0.070115276 0.06313697
0002a0 f2 bc 19 3d fe 1b de 3b 97 88 93 bc fd 3b d5 bc
       0.037533708 0.0067782393 -0.018009467 -0.026029581
0002b0 79 10 45 bd db a9 39 bc 45 ba 76 bc fc 61 2a bc
       -0.048111413 -0.011332001 -0.015059059 -0.010399338
0002c0 f9 e1 54 bc bb 7e 13 3d eb ec aa 3c d1 be e2 bc
       -0.012993329 0.03600953 0.020864924 -0.027678879
0002d0 70 a7 a9 bc 0a b6 c9 3a 18 b5 9b bc b7 b9 f3 bc
       -0.020709723 0.0015389335 -0.01900725 -0.029751642
0002e0 de 24 9a 3b 8e 17 50 3c a3 2c fb bc c7 b9 99 3c
       0.004704102 0.012700928 -0.030660933 0.018765343
0002f0 91 0f 9d 3a 56 3b ea 3b fd 29 9e bc 20 66 e9 bb
       0.0011982789 0.0071481867 -0.019307131 -0.00712277
000300 ab 0c 70 bb ac 0e 10 3c c9 89 40 3b bf 4c a8 3c
       -0.0036628644 0.008792561 0.0029379001 0.020544408
000310 37 34 72 3c 96 c4 78 bc 65 ce 17 bc 34 ab 85 bc
       0.014782957 -0.0151835885 -0.009265517 -0.016316988
000320 b5 70 05 bb 64 5b da bb dc 50 a4 3a c0 d7 09 3d
       -0.0020361368 -0.0066637266 0.0012536305 0.03365302
000330 30 e7 22 3d 54 f1 c0 3c 7f 44 d2 b9 3f 43 0a 3c
       0.03977126 0.023552574 -0.00040105355 0.008438884
000340 df 3e c3 bc 82 fa 63 bc 64 e4 75 3c e7 54 d1 bc
       -0.02383369 -0.013914706 0.015008066 -0.02555318
000350 0c db e1 bc d6 09 7c 3c e5 6f a1 bc 1c 85 96 3c
       -0.02757027 0.015383204 -0.019706676 0.018374018
000360 b8 13 10 bc fd e2 a5 bc cc a1 7f 3c f6 c0 22 bc
       -0.008793764 -0.020249838 0.01560254 -0.009933701
000370 61 3a 4f 3c 09 72 0b 3b fe 3d c5 39 73 dc d2 bc
       0.012648196 0.0021277687 0.00037620956 -0.025739884
000380 53 ea f8 3b 00 4d 25 ba 93 c4 83 bb fd 06 5c bc
       0.007596293 -0.00063057244 -0.004021236 -0.0134294005
000390 4b 16 b3 3b ae 1f 9a bc 59 50 91 3c 17 b3 25 bc
       0.005465304 -0.018813934 0.017738508 -0.010113499
0003a0 94 4c ab bc 3c e4 ab bc c7 d6 8f 3b e5 19 68 bc
       -0.020910539 -0.020982854 0.004389617 -0.01416633
0003b0 f1 35 98 3c e6 e0 87 bc bb 4a a9 bc 79 58 e7 3c
       0.018580409 -0.016586732 -0.020665517 0.02824043
0003c0 10 91 b4 3b 0a 9b 10 bc 33 03 85 bc 74 b5 ef 3c
       0.005510457 -0.008826027 -0.016236877 0.029261328
0003d0 ab c2 db 3c 83 fa 2e 3d 15 ca 62 3c 1a ea 0c 3a
       0.026826223 0.042719375 0.013842125 0.000537546
0003e0 c3 7d 55 bb b9 4b c8 bc 47 c8 31 bc 14 1b bc bc
       -0.003257618 -0.02445017 -0.0108509725 -0.02296213
0003f0 6b 32 97 bc ff 32 58 bc 1b e7 ef 38 45 cd d1 bc
       -0.018456658 -0.013195752 0.00011439455 -0.025610575

linear_1.bias f4 [100]
000000 6d ca 1b 3d 5a d8 7b 3d a0 37 9f 3d b7 f9 79 3d
       0.038034845 0.061485626 0.077742815 0.061029162
000010 c0 cc 85 3d c1 72 23 bc 12 36 a5 3d 29 96 0c 3e
       0.065331936 -0.00997609 0.08066954 0.13729157
000020 5c 2f 03 3e 1c 84 4b bb ee 76 96 3d 4b 5f 9b bc
       0.12811035 -0.0031054085 0.07346903 -0.018966338
000030 e6 b6 2a 3d 5e 00 be 3d 40 15 68 3d 21 06 d8 3b
       0.04167833 0.09277414 0.05666089 0.0065925275
000040 90 a5 0f bc 81 46 84 3d 10 9b c1 3d 48 b5 4f 3d
       -0.0087675005 0.0645876 0.09453404 0.050709993
000050 ab a2 c1 3d 3c 0c ff bc 3e 87 18 3d 84 8e ca 3c
       0.094548546 -0.031133763 0.037238352 0.02472616
000060 1a d2 aa 3d 44 33 96 bc 0b a0 b3 bb 5f d1 6b 3d
       0.08340855 -0.018334992 -0.005481725 0.05757272
000070 44 36 0f 3d df 28 ee 3c ee 64 25 3d a1 87 bf 3c
       0.03496386 0.029072223 0.040379457 0.023380103
000080 0d 98 9e 3b 55 c9 51 3c 09 1c ce 3c 88 89 68 bd
       0.004839903 0.012804349 0.025159853 -0.056771785
000090 0a 34 02 bd 8c 4b b7 3d 83 9d 77 3c 4f 4f 00 3d
       -0.03178791 0.08949956 0.015113237 0.031325635
0000a0 64 6b bf 3a b2 78 cd 3d b6 5a a3 3d 54 a7 4e bb
       0.0014604148 0.100327864 0.07976286 -0.003153284
0000b0 23 ae f9 3c 97 12 94 3d 80 06 9b 3c 32 d0 27 3e
       0.030478543 0.07230108 0.018923998 0.16388014
0000c0 ac 76 35 3d 29 92 24 3e 96 d7 cb 3b e6 06 57 3d
       0.044302627 0.1607138 0.006220768 0.052496813
0000d0 98 3e 5a 3d fb f7 9f 3d 8f e4 03 3d ca 42 c7 3b
       0.05328235 0.078109704 0.032200392 0.00608096
0000e0 58 96 da bc 22 04 71 3d 16 51 9a 3d fc 48 2d 3e
       -0.026683018 0.058841832 0.07534997 0.16922373
0000f0 c0 93 ac 3d cf 5f 0c 3d 55 87 fb 3d c3 e3 c0 3d
       0.084266186 0.034271058 0.12281672 0.09418442
000100 8c 9e 10 bd 5a 4d 0a 3d 28 b4 73 3d a5 77 62 3c
       -0.035307452 0.033765174 0.059497982 0.013822471
000110 0a fe 55 3d 17 14 0a 3e 0c 0d b7 3b 92 86 bc 3d
       0.052244224 0.13484226 0.005586272 0.09205355
000120 39 92 16 3d ae 5b 17 3d 47 20 c3 3d 5c a6 58 3e
       0.036760543 0.036952667 0.09527641 0.21157211
000130 da ef 30 3e 4c c9 b7 3d a5 39 c4 3d 3d 97 94 3c
       0.17278996 0.08973941 0.09581307 0.018138522
000140 60 02 32 bc 91 fd 12 3e bd cb 05 3c 3a b9 43 3d
       -0.010864824 0.1435454 0.008166251 0.047784068
000150 aa 72 24 3d 21 64 29 3e 0e 43 c0 3c 19 09 e5 3d
       0.040148415 0.16542102 0.023469474 0.11183376
000160 88 2a 2b 3c 9b 9d 0f 3e 52 78 93 3c 8a 0f a0 3d
       0.010447152 0.14024965 0.01800171 0.07815464
000170 b3 5c 92 3d f4 26 f1 3c af fa 5a 3e fe 6d 7c bc
       0.07146587 0.02943752 0.2138469 -0.015407084
000180 91 cc bd 3c d0 39 7f 3d e0 02 0e 3d 83 43 10 3d
       0.023168834 0.062310994 0.03467071 0.035220634

linear_2.weight f4 [10, 100]
000000 52 9a bf 3d e5 7c b4 bd 3b 38 0f be a5 51 da 3d
       0.09355606 -0.08812884 -0.13986294 0.10660104
000010 7c 42 b2 3e 4c bf 3e be 80 0c 10 3e a4 28 6f 3e
       0.3481635 -0.18627661 0.14067268 0.23355347
000020 39 14 b2 be 73 f6 b5 bd 78 22 12 be 40 a0 45 be
       -0.34781054 -0.08884897 -0.14270961 -0.19299412
000030 86 29 0f be 26 b9 8e 3e fd 8f a7 3e 6e 09 3e 3e
       -0.13980684 0.27875632 0.32727042 0.18558285
000040 90 b2 1f 3e 66 8f 81 bc 5c eb a0 be d1 fa 4e be
       0.1559546 -0.015815448 -0.31429565 -0.20212866
000050 3d 11 93 3d a4 82 db bd 48 cc 26 3e 93 04 33 be
       0.07181022 -0.10718277 0.16288865 -0.17482214
000060 f3 73 b9 be e0 72 83 be 51 57 32 bd a2 2d 80 3e
       -0.36221275 -0.2567358 -0.043540303 0.25034815
000070 5f 5e 9e be f2 9f 0f 3f 04 84 a6 3d 75 c8 a9 3e
       -0.30931374 0.5610343 0.08130649 0.3316075
000080 aa 03 3d be ea 5c 9c be 86 24 75 3d 45 27 b9 be
       -0.18458429 -0.30539638 0.059849285 -0.36162773
000090 80 21 b2 be 0a 40 8c 3e 27 3a c4 bc c6 1d a6 3e
       -0.34791183 0.27392608 -0.02395351 0.3244459
0000a0 58 d4 5e bd ec b7 d4 3e 29 a5 b9 bd af 90 cf bd
       -0.054401726 0.4154657 -0.09064705 -0.10135018
0000b0 0c d7 a7 3d 5e c9 ef bd 68 ab ba bd bb 75 41 be
       0.08195314 -0.117083296 -0.091147244 -0.18892567
0000c0 d4 c6 29 be 97 e7 b6 3e 4c 22 8b be d1 26 2a 3d
       -0.16579753 0.35723564 -0.27174604 0.041540924
0000d0 cf 7c 9f be a2 d3 05 be 2d d4 a6 3d 45 b2 19 bc
       -0.3114991 -0.13069013 0.08145938 -0.009380882
0000e0 f3 cd 9b 3e 69 8e b6 bd 45 3e 55 3d 9b cf 8a be
       0.30430564 -0.08913881 0.052061338 -0.27111515
0000f0 8b f3 83 be d5 8d 64 be 74 25 9d 3e a1 8e e9 3e
       -0.25771746 -0.2231973 0.30692637 0.4561663
000100 28 48 4c be 44 99 89 3e 74 64 bb 3d 8f 0b ad bb
       -0.199494 0.26874745 0.09150019 -0.005280919
000110 80 41 8a bc 7f b3 54 3a 32 0c c5 bd 52 97 f7 bb
       -0.016876936 0.0008113905 -0.09621467 -0.0075558806
000120 a1 ed 23 3f 3d 90 ce 3c 6a aa 03 be 3a 76 a9 3c
       0.6403447 0.025215263 -0.12857977 0.020686258
000130 38 f3 75 be a2 b7 6a 3e 20 f7 51 3d 06 a6 5b be
       -0.24018562 0.22921613 0.051261067 -0.21450052
000140 3e 94 c3 bd 50 ed a5 3d 60 66 89 be 53 2e f6 bd
       -0.09549759 0.081019044 -0.26835918 -0.120205544
000150 a0 b8 c1 3e de ba b7 be dc cc 79 be ba c9 03 be
       0.3783617 -0.35884756 -0.24394554 -0.12869921
000160 7b 30 61 bd 77 ae 4d be 9f 91 e8 bd 9d 68 61 3e
       -0.054977875 -0.20086084 -0.113559 0.22012563
000170 1e b8 33 be c0 a9 36 bd 1c 1f 73 bd 66 96 5c 3e
       -0.17550704 -0.04459548 -0.05935584 0.21541747
000180 e8 d3 81 be 29 1f 97 3b c5 a5 4c be 50 5d fe 3d
       -0.25356984 0.004611869 -0.19985111 0.12420142
000190 49 88 50 be d8 1b da bd 13 8d 00 be 42 db 37 3c
       -0.20364489 -0.10649842 -0.12553816 0.011221709
0001a0 04 f8 84 3d 29 44 ae bd eb ce 5b be d9 ba 3e be
       0.06492618 -0.08509094 -0.21465652 -0.18625964
0001b0 be 7b fa 3e 49 61 79 3d c6 fc 91 3e 32 0c 4a be
       0.48922533 0.060883794 0.28513163 -0.19731215
0001c0 fb d4 ca bc 92 47 a6 bd f7 e4 a5 bd 44 96 6f be
       -0.02475976 -0.0811912 -0.08100312 -0.23397166
0001d0 2b 5b e9 be e3 48 09 be cf 0b 08 3e 03 e1 a6 be
       -0.45577368 -0.1340671 0.13285755 -0.32593545
0001e0 e4 5d bd bb 09 ac 4c bd 98 de 76 3c b2 aa 4b bd
       -0.005779015 -0.049968753 0.015067719 -0.049723335
0001f0 15 43 70 3e b6 b4 2f be 0d 7b 86 3d bc 43 17 be
       0.2346309 -0.1715878 0.06566439 -0.14771932
000200 b6 92 0b bc ba 80 cb 3d 3a 8a 10 be 75 8d 18 be
       -0.008518865 0.09936662 -0.14115229 -0.14897712
000210 d1 7a ee bd 3b 7d ef bd 00 7e 9e be 72 45 69 be
       -0.11644519 -0.11693808 -0.30955505 -0.22780398
000220 7e 0d 8a be c0 d9 07 3e d1 b6 56 3d 7f 4f 07 be
       -0.2696342 0.13266659 0.05242044 -0.13213919
000230 a7 10 95 be c7 49 88 be ae 93 14 be ba ca ba bd
       -0.29114267 -0.26618788 -0.1450946 -0.09120698
000240 3c 58 de bd 0e 82 2f 3d 11 b7 ca bd 96 bb 24 3f
       -0.10856673 0.04284864 -0.098981984 0.64348733
000250 c0 5b 64 3e a9 70 d7 3e 44 77 51 3d 21 a3 7d 3d
       0.22300625 0.4207814 0.05113913 0.06192315
000260 b6 c2 75 3e 8b 99 4c 3e b1 00 cc bb fe fa 86 bd
       0.24000058 0.19980447 -0.0062256684 -0.06590842
000270 5f e8 c6 bd bc 56 7d be 77 72 ec bd c7 98 af 3e
       -0.0971229 -0.24740118 -0.1154527 0.34296247
000280 22 9e f3 bc 16 fc 99 bd 97 49 90 be 92 da c9 bc
       -0.02973849 -0.07518785 -0.28181145 -0.024640355
000290 0c 50 c0 be bb 08 0a 3c 51 70 54 3e 52 06 14 3c
       -0.3756107 0.008424933 0.2074597 0.00903471
0002a0 09 cb 83 bc f0 e4 9f be 4a 4b 0f bd 3b 61 06 3e
       -0.016088026 -0.31229353 -0.03498391 0.13123028
0002b0 33 5e d9 be 43 6d a5 be 1e d9 cd be 3d ed 0e 3f
       -0.4245468 -0.32309923 -0.4020471 0.55830747
0002c0 3f a6 ed 3e 2f 9f f4 bd 21 55 2e bd ff dd de bd
       0.46415898 -0.11944424 -0.042561654 -0.10882186
0002d0 11 b4 1d bc b4 17 11 3f 7a fb af be 75 b0 e5 bc
       -0.009625451 0.56676793 -0.3437155 -0.028038243
0002e0 83 39 c9 bd a3 04 5d 3e be 16 ca bd 0c 14 49 3e
       -0.098254226 0.215838 -0.09867619 0.19636554
0002f0 84 d0 97 3d 48 95 ae 3e e5 af 7a bc 58 63 75 3e
       0.07412818 0.34098268 -0.015300726 0.23963678
000300 a3 16 05 bf 09 a1 60 3e 81 b1 18 3f ac c6 88 be
       -0.51987666 0.2193643 0.5964585 -0.26714075
000310 1e 52 81 be 3d 50 69 3e 3e 46 4a be e1 a9 3b 3e
       -0.25257963 0.22784515 -0.19753358 0.18326522
000320 53 56 3e be 74 ab 3b 3e 67 ab a9 be 57 4a 8d be
       -0.18587618 0.18327123 -0.33138582 -0.2759578
000330 24 8e 78 be 12 a5 48 3e 70 01 09 3e 90 e4 a4 3e
       -0.24272972 0.1959422 0.13379455 0.3220563
000340 5a cd 4a 3e 4e 8f a2 bd a6 05 b6 be 76 36 59 3e
       0.19804898 -0.079374894 -0.35551184 0.21212181
000350 42 69 28 bd af e5 11 bc 98 69 69 3e 3f 23 a7 3b
       -0.041116007 -0.0089048585 0.22794187 0.005100637
000360 7a 49 f0 be d0 29 a6 bd e5 0b be bd 2b de ff 3d
       -0.46931058 -0.08113444 -0.092796125 0.12493547
000370 0a de af be 31 54 95 bc 2d c4 01 be e1 30 17 be
       -0.3434909 -0.018228622 -0.12672491 -0.1476474
000380 a8 8c 0d be 90 a3 b2 be 23 cc d7 bd 50 6c 95 be
       -0.13823187 -0.34890413 -0.10536983 -0.29184198
000390 24 66 80 be 5d b2 44 be 0b e9 52 be b6 13 99 3d
       -0.25077927 -0.19208665 -0.20596711 0.07474463
0003a0 45 de 2c be 0d b3 6d 3e db 7e d8 ba 56 e6 04 be
       -0.16881664 0.23212834 -0.0016517298 -0.12978491
0003b0 8a 8a b6 bc 16 e1 d0 3e 18 b6 44 3d 42 f0 25 be
       -0.022282857 0.40796727 0.04802522 -0.16204932
0003c0 d7 99 59 3e cd e6 e0 3e 66 41 1e 3f a5 25 09 3e
       0.21250091 0.43926087 0.6181854 0.13393266
0003d0 e0 ec d9 3d 84 18 48 be 96 32 4a 3d 6e 9f 98 be
       0.106408834 -0.19540602 0.04936465 -0.29809135
0003e0 9e d4 f1 3d 25 c9 da 3c e7 de 4e bc f7 06 88 3e
       0.11808132 0.026707241 -0.012626386 0.26567814
0003f0 48 a8 09 be 1b b2 c2 3e 88 f7 8c bd d7 6c c6 3d
       -0.134431 0.3802651 -0.0688315 0.09688728

linear_2.bias f4 [10]
000000 f2 8d a5 bd 48 f2 ab 3e 9a b7 05 3c cb 71 5d bd
       -0.080837145 0.33583283 0.00816145 -0.0540636
000010 1d ff 13 bd 02 10 9b bd c2 ed 57 3d cd 18 f9 3c
       -0.036131967 -0.075714126 0.052716978 0.030407334
000020 4a 0b 8d bc 45 e7 54 bd
       -0.017217297 -0.05197837
