project_2_task_1_ph/data/model_MNIST_TSNE.pth (torch, 7320 bytes, 4 tensors)

linear_1.weight f4 [100, 2]
0	0x3e02d4d5	0.12776501
1	0x3c95714e	0.018242504
2	0x3cb0d2ed	0.021584952
3	0xbdfcd746	-0.12345748
4	0x3d32f374	0.043689206
5	0x3d865207	0.06558614
6	0x3db0dc4a	0.08635767
7	0xbd0cc658	-0.034368843
8	0xbcb5fa63	-0.02221412
9	0xbdb204fa	-0.086923555
10	0x3c169882	0.009191634
11	0x3de3fa06	0.111316726
12	0xbcfb04fe	-0.030642029
13	0x3c97d829	0.01853569
14	0xbddd6906	-0.10811047
15	0x3d4180c3	0.047241937
16	0x3d6dfbc5	0.058101434
17	0x3c08f7f2	0.008359896
18	0xbd669130	-0.056290805
19	0xbb9845b7	-0.0046469825
20	0x3d2df1ea	0.042467035
21	0xbe3cb128	-0.18426955
22	0x3da4fc13	0.08055892
23	0x3de4c76c	0.11170849
24	0x3dc8c46f	0.09803092
25	0xbcc38aad	-0.023869837
26	0x3d425241	0.047441725
27	0x3d9b5e55	0.07586352
28	0x3d7283ef	0.059207853
29	0x3dbba063	0.09161451
30	0x3b04bcb1	0.002025407
31	0xbcdc7079	-0.0269091
32	0x3c1b3f4d	0.009475541
33	0x3e2b8ff1	0.16754128
34	0xbc20a707	-0.009805447
35	0xbce21480	-0.027597666
36	0x3d814dc3	0.0631366
37	0x3dd93fd6	0.10607879
38	0x3e18e28e	0.14930174
39	0x3df21879	0.11821074
40	0x3c620ce3	0.013797018
41	0xbc6dcc91	-0.014514104
42	0xbd92ffae	-0.07177673
43	0x3dd962ae	0.10614525
44	0xbd716501	-0.058934215
45	0x3de7a417	0.113105945
46	0x3d8c2530	0.068430305
47	0xbd8db982	-0.069201484
48	0x3e0c05bc	0.13674062
49	0xbe0dd879	-0.13852109
50	0x3d333e4e	0.04376059
51	0x3d2b86c5	0.041876573
52	0xbdec57ee	-0.11540209
53	0xbcd98a83	-0.026555305
54	0xbc533d63	-0.012893054
55	0xbd02b7ed	-0.031913687
56	0xbd35e40b	-0.04440693
57	0xbcd8321d	-0.026391083
58	0x3b5f5e8a	0.003408345
59	0xbcbb94da	-0.022898126
60	0x3798fcc0	1.8237508e-05
61	0xbb672d16	-0.0035274676
62	0xbe0f246b	-0.13978736
63	0xbd432621	-0.047643784
64	0xbb9e4f4e	-0.004831231
65	0xbd1abb9b	-0.03777657
66	0x3e09abe3	0.13444476
67	0xbd629423	-0.055317055
68	0xbd393be0	-0.045223117
69	0xbe22a285	-0.15882309
70	0x3c8357ae	0.01603302
71	0x3bae6483	0.0053220405
72	0x3ce80a45	0.02832521
73	0xbe24f610	-0.1610949
74	0x3ddc5277	0.107579164
75	0xbcae9533	-0.021311378
76	0x3db6b835	0.089218535
77	0xbb4db7a0	-0.0031389967
78	0xbd563a75	-0.052301843
79	0xbdb9f6c4	-0.0908027
80	0xbdadda25	-0.084888734
81	0x3ce6d680	0.028178453
82	0xbd5a9e34	-0.05337353
83	0xbc35137b	-0.011052008
84	0xba84ee7a	-0.0010141872
85	0xbd9f9574	-0.07792178
86	0x3d24a48c	0.040195987
87	0x3d75ec78	0.060039967
88	0xbdbfd154	-0.09366098
89	0x3c9c55e4	0.019083925
90	0x3c696486	0.014245158
91	0x3d363908	0.044487983
92	0xbd615478	-0.055012196
93	0xbd41a2e8	-0.0472745
94	0xbe347b14	-0.17625076
95	0x3d2508a6	0.04029145
96	0x3d311a4b	0.043237966
97	0x3cec2cb6	0.028829914
98	0xbdc94aa2	-0.09828688
99	0x3daf78d3	0.08567967
100	0x3d91875e	0.07105897
101	0xbd348b61	-0.044078235
102	0x3dff65f5	0.12470619
103	0xbe0601ed	-0.13086672
104	0x3d114f21	0.035475854
105	0xbe02534b	-0.12727086
106	0x3d386ff5	0.045028646
107	0xbcdc738c	-0.026910566
108	0x3d8698d4	0.065721184
109	0x3ce4cbd8	0.027929232
110	0xbd9d13d4	-0.076697975
111	0x3e085310	0.13312936
112	0xbd75c083	-0.059998047
113	0x3d512282	0.0510583
114	0x3cee59d8	0.029095575
115	0xbcddbb6a	-0.027066905
116	0xbdb637ab	-0.088973366
117	0xbcad8a15	-0.021184007
118	0xbd991846	-0.07475333
119	0xbd765941	-0.060143713
120	0x3c321947	0.010870284
121	0xbd1a8169	-0.03772107
122	0xbd80d617	-0.062908344
123	0xbdd17a02	-0.10228349
124	0x3d94b4d6	0.07261054
125	0xb8488fc2	-4.78176e-05
126	0xbd37e64b	-0.04489736
127	0xbd9ee9ee	-0.07759462
128	0x3e4b6a20	0.19864702
129	0x3d9302cd	0.071782686
130	0x3d3f1339	0.04664919
131	0x3cc8902c	0.024482809
132	0xbe1bfdfa	-0.15233603
133	0xbd12e87e	-0.035866253
134	0x3c2f9192	0.010715859
135	0xbcbdd844	-0.023174413
136	0xbda499b0	-0.08037126
137	0xbc82d296	-0.015969556
138	0x3d06f7c3	0.032951128
139	0x3d236639	0.03989241
140	0x3e3628e4	0.17789036
141	0xbdba6e11	-0.09103025
142	0x3deec0b2	0.116578475
143	0xbd1ff5de	-0.039052837
144	0xbd1b6ad0	-0.03794366
145	0x3db0a546	0.086252734
146	0x3dee874e	0.11646901
147	0x3ca6f203	0.020379072
148	0x3cb74356	0.022370975
149	0xbe074685	-0.13210495
150	0x3e64fef2	0.22362879
151	0x3d541c96	0.051785074
152	0x3c846aa6	0.016164135
153	0x3d82788b	0.06370648
154	0x3ce3c065	0.027801702
155	0xbc16a9ee	-0.009195788
156	0xbc952e12	-0.018210445
157	0x3d48551c	0.04890929
158	0x3ccf20c7	0.025284184
159	0xbe376b60	-0.17912054
160	0xbc1866a2	-0.009301813
161	0xbdb458b3	-0.088059805
162	0xbd203757	-0.039115276
163	0x3d3f224d	0.04666357
164	0x3dd35bd1	0.10320247
165	0xbb21fb8c	-0.0024716584
166	0xbcafb70c	-0.021449588
167	0xbd8e806b	-0.069580875
168	0xbd92b67c	-0.071637124
169	0xbd687fd3	-0.056762528
170	0xbcd5692a	-0.026051123
171	0xbc9d30e3	-0.01918835
172	0x3d3bad74	0.045819715
173	0x3d9ed9f0	0.07756412
174	0xbb04fc41	-0.0020291957
175	0x3c2c1891	0.010503904
176	0xbdbb710d	-0.09152422
177	0xbca7536c	-0.02042552
178	0xbd687196	-0.05674895
179	0xbd4f3fa2	-0.050597794
180	0xbe0ca4e8	-0.13734782
181	0xbcb04cbb	-0.021520963
182	0x3df279c8	0.11839634
183	0xbdbac2a7	-0.09119158
184	0xbd60d804	-0.05489351
185	0xbdc3fd25	-0.09569768
186	0x3e26feea	0.1630818
187	0x3cff1f4b	0.031142851
188	0xbcf7dbd5	-0.030256191
189	0xbc635356	-0.013874849
190	0x3d7fbe8e	0.062437586
191	0x3db7c013	0.08972182
192	0xbd330762	-0.043708213
193	0xbd9c1490	-0.076211095
194	0x3d62fe19	0.055418108
195	0x3d04a1e4	0.032380953
196	0xbce319eb	-0.02772232
197	0xbc5d5525	-0.01350907
198	0x3b9ef9da	0.004851562
199	0xbd428e49	-0.047498975

linear_1.bias f4 [100]
0	0x3f18a987	0.5963368
1	0xbf67fee4	-0.9062331
2	0x3f602d37	0.8756899
3	0x3e267b76	0.16258034
4	0x3f5a4681	0.8526383
5	0x3efa4147	0.48877928
6	0x3f4d0223	0.80081385
7	0xbf0b4c74	-0.54413533
8	0xbf8d4cb4	-1.1039033
9	0xbf514e4f	-0.81760114
10	0xbf67cc56	-0.90546167
11	0xbea7209d	-0.3264207
12	0x3e30de40	0.17272282
13	0xbf19174d	-0.5980118
14	0x3f8a61bb	1.0811075
15	0x3fa8a5cb	1.3175596
16	0xbe0d4bdb	-0.13798468
17	0x3f6419a0	0.891016
18	0xbf76e25a	-0.96439135
19	0x3ecff577	0.40616962
20	0x3f309055	0.68970233
21	0xbeea64dc	-0.45780075
22	0x3d1810e1	0.037125472
23	0x3cab58dc	0.020916395
24	0x3e78270d	0.24233647
25	0x3f76f1b3	0.96462554
26	0xbf5c8244	-0.8613627
27	0x3d2c4117	0.042054262
28	0x3f4901bc	0.7851827
29	0x3f65ddfc	0.89791846
30	0x3f857b03	1.0428165
31	0xbf687053	-0.90796393
32	0x3f6da90f	0.9283609
33	0x3f71ae73	0.94406813
34	0x3fbe8673	1.4884781
35	0x3f35021d	0.7070635
36	0xbf72cfdb	-0.9484841
37	0x3f5ddb73	0.8666298
38	0xbeb8025b	-0.35939297
39	0xbf8378ea	-1.0271275
40	0x3d3e5a3a	0.046472766
41	0x3d7eb888	0.0621877
42	0xbd46a9f9	-0.048501942
43	0x3db8a42a	0.09015687
44	0x3d5877b4	0.052848533
45	0xbdcb5e58	-0.09930104
46	0xbeacbca5	-0.33737674
47	0xbd15b776	-0.036551915
48	0xbf752109	-0.9575353
49	0x3ef4f758	0.47844958
50	0xbf81b650	-1.0133762
51	0xbd1207e4	-0.035652056
52	0xbef63556	-0.48087567
53	0xbf33279f	-0.6998233
54	0xbf9f662f	-1.2453059
55	0xbed65080	-0.41858292
56	0xbf6cc082	-0.92481244
57	0x3f9564f9	1.167144
58	0xbe9cd4ba	-0.30631047
59	0x3fbc8660	1.4728508
60	0x3f922b34	1.1419435
61	0xbf89ac6d	-1.0755745
62	0xbf0181fb	-0.5058896
63	0xbf311980	-0.69179535
64	0xbf397dd9	-0.72457653
65	0xbf6e6618	-0.9312453
66	0xbf9e19d6	-1.2351635
67	0x3f4b876b	0.79503506
68	0xbf0ab401	-0.54180914
69	0x3d16b594	0.03679426
70	0x3f826e48	1.0189905
71	0xbe6ce3c9	-0.23133768
72	0x3e959aa5	0.29219547
73	0x3ee4e389	0.44704846
74	0xbf482878	-0.7818675
75	0xbe892ebd	-0.2679347
76	0x3f364189	0.7119375
77	0xbdf6adff	-0.12044906
78	0x3e33a2f6	0.17542633
79	0xbf876bcb	-1.0579771
80	0xbcf6e290	-0.03013733
81	0x3e7712a8	0.2412821
82	0xbf2ca1af	-0.6743421
83	0x3e85028c	0.25978506
84	0xbe8f0fcd	-0.27941743
85	0x3e9b28ce	0.3030457
86	0x3f2bbf76	0.6708902
87	0x3f69ae97	0.9128203
88	0xbf2db29c	-0.6785066
89	0x3f93612e	1.1514032
90	0xbfa10148	-1.2578516
91	0xbf6de6fa	-0.9293057
92	0xbf80bda1	-1.005787
93	0xbf2665ca	-0.6499907
94	0x3f0e3e8a	0.5556418
95	0xbead968b	-0.33903918
96	0xbf543691	-0.8289576
97	0xbf95d90c	-1.1706862
98	0x3f1082b0	0.56449413
99	0x3f120480	0.57038116

linear_2.weight f4 [10, 100]
0	0x3d05157f	0.032491203
1	0x3d874ced	0.06606469
2	0xbbfc0ea8	-0.007692177
3	0xbb947738	-0.0045308135
4	0xbe8172d3	-0.25282916
5	0xbe4e03ca	-0.20118633
6	0xbc354b88	-0.011065371
7	0xbd8ecbb3	-0.06972446
8	0x3d91099c	0.07081911
9	0x3d4c4fef	0.049880918
10	0x3e319f5a	0.17345944
11	0xbdd59d0d	-0.10430346
12	0xbc4d7dbc	-0.012542184
13	0x3c2e4d4d	0.010638547
14	0xbddd341e	-0.10800956
15	0xbe187094	-0.14886695
16	0xbe51981d	-0.20468183
17	0xbe0e40d4	-0.13891917
18	0xbd929533	-0.07157364
19	0x3e0a3b20	0.13499117
20	0xbd252ab0	-0.040323913
21	0xbd6a2947	-0.05716827
22	0xbd616ea4	-0.055037156
23	0xbd1ba245	-0.03799655
24	0xbd20d2ec	-0.03926365
25	0xbbeab0a7	-0.007162172
26	0x3ce26498	0.027635857
27	0xbc028280	-0.007965684
28	0x3dcac438	0.09900707
29	0xbdac5a42	-0.08415653
30	0xbd5e847a	-0.05432556
31	0x3e2df473	0.16987781
32	0xbcc36f3e	-0.023856755
33	0xbb667e56	-0.0035170517
34	0xbebfee26	-0.3748638
35	0xbd0dc0d0	-0.03460771
36	0x3e1150b0	0.14190936
37	0x39ade2e0	0.00033166166
38	0x3d689765	0.056785006
39	0x3d8827d6	0.06648223
40	0x3d227f6f	0.03967231
41	0x3e15ca6d	0.14628
42	0x3d903a88	0.07042414
43	0xbd1750f8	-0.036942452
44	0x3d83bc5a	0.064324096
45	0xbd29b285	-0.041430015
46	0x3dd021bf	0.101626866
47	0x3d071d60	0.032987
48	0x3da5a0a6	0.08087282
49	0xbdee0a7a	-0.11623092
50	0x3ca2f2f5	0.019891242
51	0xbd8f0c8c	-0.06984815
52	0x3e412c2e	0.1886451
53	0x3d3d9095	0.046280462
54	0x3d441c36	0.047878467
55	0x3dae7495	0.0851833
56	0xbdb3ec1a	-0.08785267
57	0xbd3324a1	-0.043736104
58	0x3d77df11	0.060515467
59	0xbe8c7e80	-0.27440262
60	0xbddc0278	-0.107426584
61	0xbdf35c59	-0.11882848
62	0x3dafa741	0.08576823
63	0xbcecb5e8	-0.028895333
64	0x3e0ed043	0.13946633
65	0x3da5f641	0.0810361
66	0x3e37adae	0.17937347
67	0xba27fe7a	-0.00064084644
68	0x3b6c352b	0.0036042433
69	0xbbf7be50	-0.007560529
70	0xbcb64c6a	-0.022253234
71	0x3d71785b	0.05895267
72	0x3dc0de32	0.094173804
73	0xbc0f3b0c	-0.008742105
74	0x3deb094f	0.11476385
75	0x3dd322f6	0.10309403
76	0xbe284a63	-0.16434626
77	0x3d08bcf3	0.03338332
78	0x3dc61a77	0.096730165
79	0x3e60f30c	0.21967715
80	0xbd1e8aca	-0.03870658
81	0xbcc73ac4	-0.024320014
82	0x3d8d7861	0.06907726
83	0xbd5fedc3	-0.054670107
84	0x3dff81e4	0.124759465
85	0xbc996ffd	-0.018730158
86	0xbe083dd6	-0.13304839
87	0xbdbbaa8e	-0.0916339
88	0x3defcec4	0.11709359
89	0xbe8b1399	-0.2716339
90	0x3dc2092b	0.09474405
91	0xbc1f8020	-0.009735137
92	0xbcf655aa	-0.030070145
93	0x3def560f	0.11686336
94	0x3c5d7a61	0.013517947
95	0xbc11147f	-0.008854984
96	0xbd862d18	-0.0655157
97	0x3da19c56	0.07891147
98	0xbd2c9177	-0.042130914
99	0xbc5fc3a1	-0.013657481
100	0xbd929583	-0.07157423
101	0x3d61c305	0.055117626
102	0x3d869039	0.06570477
103	0x3d522662	0.051306136
104	0xbbb2caf2	-0.005456322
105	0xbe9c082d	-0.30474988
106	0xbdb48df3	-0.08816137
107	0x3dbaaf3f	0.09115457
108	0xbcfcb529	-0.030848103
109	0x3e0d4900	0.13797379
110	0x3ce43bbd	0.027860517
111	0x3dda4bef	0.106590144
112	0x3d8fd973	0.07023897
113	0x3e0815d0	0.13289571
114	0x3dbbb57d	0.091654755
115	0xbe3459cc	-0.1761238
116	0xbe86b6a9	-0.26311234
117	0xbe041df9	-0.12902059
118	0x3cee7c3b	0.029111972
119	0x3e10cde5	0.14141043
120	0xbe0ef3b9	-0.1396016
121	0x3ddbf36c	0.107397884
122	0xbcf765e4	-0.030199952
123	0xbde5ed2f	-0.1122688
124	0xbe8e2391	-0.2776151
125	0x3dfc7e0c	0.12328729
126	0x3e365120	0.17804384
127	0x3be48b18	0.006974589
128	0xbd0f3002	-0.034957893
129	0xbe0c8648	-0.13723099
130	0xbe131dc5	-0.14366825
131	0x3ddf3b2e	0.108999595
132	0xbda5affb	-0.08090206
133	0xbd9022a9	-0.07037861
134	0xbdb65b09	-0.08904082
135	0x3d52d7d8	0.051475376
136	0x3d2a3d45	0.041562337
137	0xbc87dec1	-0.01658571
138	0xbcf82635	-0.030291656
139	0x3dca9a04	0.098926574
140	0xbd30e946	-0.043191217
141	0xbceb2adc	-0.02870696
142	0xbd30bece	-0.043150716
143	0x3d887dec	0.06664643
144	0x3c11e6a7	0.008905089
145	0xbc364352	-0.011124449
146	0x3cf38cd3	0.029730236
147	0xbc11e7a2	-0.008905323
148	0xbd5e4e64	-0.054273978
149	0x3877f6fc	5.911941e-05
150	0xbcb859d4	-0.02250377
151	0xbdf1f8b2	-0.11815013
152	0x3db02f3f	0.086027615
153	0x3d4d8c6c	0.050182745
154	0x3d856e32	0.06515159
155	0x3d769e05	0.060209293
156	0x3dcb6272	0.09930886
157	0xbe047aa1	-0.12937404
158	0x3dbeaa22	0.09309794
159	0xbe144a49	-0.14481463
160	0xbe1a6de7	-0.15080987
161	0x3dc398f0	0.09550655
162	0x3cb77646	0.022395264
163	0x3dd675fa	0.10471721
164	0x3d998cb9	0.07497544
165	0xbc609402	-0.013707163
166	0x3e5b98a6	0.2144495
167	0xbd2dacf6	-0.042401277
168	0x3d9ab3af	0.07553803
169	0x3e154c3d	0.14579864
170	0x3d98fa29	0.07469589
171	0xbcf2b7eb	-0.029628715
172	0xbcb09ef4	-0.02156017
173	0xbd3cc41e	-0.04608547
174	0xba351c20	-0.0006908793
175	0xbd9143b4	-0.070929915
176	0xbe6afc33	-0.22947769
177	0xbc8c0800	-0.017093658
178	0x3c173e6d	0.009231192
179	0x3de06e5d	0.1095855
180	0xbc498dff	-0.012301921
181	0x3b86ec00	0.004117489
182	0xbc898675	-0.016787747
183	0x3d0e226c	0.034700796
184	0x3d9bee7a	0.07613845
185	0xba2d6167	-0.00066139403
186	0x3d91d05d	0.0711982
187	0xbe312c39	-0.17302026
188	0x3dfae8f7	0.12251466
189	0xbd7a3777	-0.06108805
190	0x3e3a7bfc	0.18211359
191	0xbd83e216	-0.06439607
192	0x3dc7b9b4	0.09752217
193	0xbdeaf74c	-0.114729494
194	0xbce11331	-0.027474971
195	0x3e2a1a3f	0.16611575
196	0x3dbcc86f	0.09217917
197	0x3db3a721	0.08772112
198	0xbd238a1d	-0.039926637
199	0xbd819929	-0.06328041
200	0x3cfca805	0.030841837
201	0x3d9786e6	0.07398777
202	0xbd3e75c7	-0.04649904
203	0xbe227f95	-0.15868981
204	0x3cdaed46	0.026724469
205	0xbd83aa1d	-0.06428931
206	0x3d824fbd	0.06362865
207	0xbdc3ffe4	-0.09570292
208	0x3e461fc1	0.1934805
209	0x3c34c9b1	0.011034415
210	0x3dec0482	0.11524297
211	0xbdadb1fe	-0.08481215
212	0xbdb97a39	-0.09056515
213	0xbdc55d03	-0.09636881
214	0xbdf1ae0f	-0.11800777
215	0xbd6ee5f2	-0.05832476
216	0xbd56bc33	-0.052425575
217	0xbd8ae79d	-0.06782458
218	0xbddf17d1	-0.108932145
219	0x3da43bbd	0.08019207
220	0xbd24917d	-0.04017781
221	0x3e751c83	0.23936658
222	0x3e4f60a8	0.20251715
223	0x3dc990e3	0.09842088
224	0x3e20fddc	0.1572184
225	0xbdda522b	-0.106602035
226	0x3db7db0e	0.08977328
227	0x3ca23465	0.019800374
228	0x3bbcea78	0.0057652555
229	0xbd4dbb73	-0.050227594
230	0xbd214346	-0.039370798
231	0x3cf1e047	0.02952589
232	0x3d12b3e3	0.035816085
233	0xbe781d1d	-0.24229856
234	0xbd06378a	-0.03276781
235	0xbdba3e16	-0.09093873
236	0x3dbfd738	0.093672216
237	0xbe9705e1	-0.29496673
238	0x3e0ab967	0.13547288
239	0xbaff0ba0	-0.001945842
240	0xbe274155	-0.16333516
241	0xbcb59a8e	-0.022168424
242	0x3cb85c9d	0.022505099
243	0xbe219aaf	-0.15781663
244	0xbd8ea61e	-0.06965278
245	0xbc74a71a	-0.014932418
246	0x3c0120fb	0.007881398
247	0xbe2f3c23	-0.17112784
248	0xbd866b5f	-0.06563448
249	0xbe304413	-0.17213468
250	0xb64b0b00	-3.025576e-06
251	0x3e52367e	0.205286
252	0x3e283799	0.16427459
253	0xbd58ce45	-0.05293109
254	0x3e16f75b	0.14742796
255	0x3e8d4022	0.27587992

linear_2.bias f4 [10]
0	0xbf46f590	-0.7771845
1	0xbf940b74	-1.1565995
2	0xbe419338	-0.18903816
3	0xbdb2918d	-0.08719168
4	0x3da4fd0d	0.08056078
5	0x3fad0ace	1.3518922
6	0xbf7687c6	-0.96300924
7	0xbe79b162	-0.24384072
8	0x3f98063d	1.1876904
9	0x3f06ea1f	0.5270099
