project_2_task_1_ph/data/model_MNIST_PCA.pth (torch, 7312 bytes, 4 tensors)

linear_1.weight f4 [100, 2]
0	0x3e06544c	0.13118094
1	0x3f2e1401	0.67999274
2	0x3e3fffde	0.1874995
3	0x3f1e2efc	0.6179044
4	0xbed08a8a	-0.40730697
5	0x3f078eec	0.52952456
6	0x3f1a58b3	0.60291594
7	0xbd24200b	-0.04006962
8	0xbe9259b4	-0.28584063
9	0x3f2c7c3f	0.67377084
10	0x3ecb8b33	0.39754638
11	0x3e9e8541	0.3096104
12	0x3f2c9880	0.67420197
13	0x3e0c68f0	0.13711905
14	0x3d21e812	0.03952796
15	0x3d9defe3	0.077117704
16	0xbe9d3f45	-0.30712333
17	0xbf120384	-0.57036614
18	0xbf309542	-0.6897775
19	0xbd9daa64	-0.07698515
20	0xbcfdfdd8	-0.031004831
21	0x3eb1c918	0.34723735
22	0x3e7a73c3	0.24458222
23	0xbec5ca4e	-0.3863091
24	0x3e872b8c	0.2640041
25	0x3ee69273	0.45033607
26	0xbf498b07	-0.78727764
27	0xbe8e0fa8	-0.2774632
28	0x3eb96317	0.36208412
29	0x3f447e40	0.7675514
30	0x3e85b109	0.2611163
31	0xbe62e9fe	-0.22159573
32	0x3e826eb3	0.25475082
33	0xbe4a0559	-0.19728602
34	0xbf18f0fc	-0.5974271
35	0x3ec9fc93	0.3945051
36	0x3f1e3902	0.61805737
37	0x3f26b6ee	0.6512288
38	0xbf1ebebd	-0.62009794
39	0xbd778be4	-0.060436144
40	0x3dcd541f	0.100258105
41	0xbdd107af	-0.10206544
42	0xbf2f3b42	-0.68449795
43	0x3f186a2b	0.59537
44	0x3e17d536	0.14827427
45	0xbec83d60	-0.39109325
46	0x3f26dfd3	0.6518528
47	0x3ec990a1	0.39368156
48	0x3d4b5971	0.049645845
49	0x3f08d8bc	0.5345571
50	0xbe3c9229	-0.1841513
51	0xbef609c1	-0.48054317
52	0xbee77e28	-0.45213437
53	0x3e7f6946	0.24942502
54	0xbe99edab	-0.3006414
55	0x3f375822	0.71618855
56	0x3ecd5046	0.40100306
57	0x3ee3247c	0.44363773
58	0xbeb3e6bf	-0.35136983
59	0x3eea4599	0.45756224
60	0xbf319039	-0.6936069
61	0xbf511fc1	-0.8168908
62	0xbf0009cf	-0.50014967
63	0x3ef6963e	0.481615
64	0x3efd3b01	0.4945908
65	0xbd97653d	-0.073923565
66	0xbd0bb13f	-0.034104582
67	0x3f1fc779	0.62413746
68	0xbdf874b2	-0.12131633
69	0x3f2ef6d9	0.6834541
70	0x3e83810b	0.2568439
71	0x3f01e67f	0.50742334
72	0x3e8ba019	0.27270582
73	0xbea2e399	-0.31814268
74	0x38b6e782	8.721558e-05
75	0x3caccc0f	0.021093396
76	0x3e12a977	0.14322458
77	0x3dc900b8	0.0981459
78	0x3d794df0	0.060865343
79	0xbdb2fcb0	-0.087396026
80	0xbf0102a7	-0.5039467
81	0xbe0a1755	-0.13485463
82	0x3e6ea49c	0.23304981
83	0xbf17bfd5	-0.5927709
84	0xbee6db1b	-0.4508904
85	0x3ef5c3a2	0.48000818
86	0xbec8e042	-0.39233595
87	0xbecd3cb0	-0.40085363
88	0x3ea4151f	0.32047364
89	0xbdff1b09	-0.124563284
90	0xbf152e8a	-0.5827414
91	0xbf3ad234	-0.72976995
92	0x3ee7924c	0.45228803
93	0x3eba89db	0.364333
94	0xbcfce62c	-0.030871473
95	0x3e7a3eaa	0.24437967
96	0x3d0a8fb4	0.033828452
97	0xbe827647	-0.25480863
98	0x3eba1a04	0.36347973
99	0x3f088770	0.5333166
100	0xbe386eb8	-0.18010986
101	0x3d6129d4	0.05497153
102	0x3f033b53	0.51262397
103	0xbeb77846	-0.3583395
104	0x3de95d68	0.11394769
105	0x3abd02dd	0.0014420409
106	0x3e7de726	0.24795207
107	0xbe644d02	-0.22295001
108	0x3e7c5fbc	0.24645895
109	0x3e2b9e1d	0.16759534
110	0xbed922d2	-0.42409378
111	0xbd843807	-0.06455999
112	0xbebcf54d	-0.369059
113	0x3e3a84d6	0.18214735
114	0xbec4694e	-0.3836159
115	0xbf2b41a8	-0.6689706
116	0x3e90b5eb	0.28263792
117	0x3f00dd82	0.50337994
118	0x3eb77b9b	0.3583649
119	0xbf3cfbe2	-0.7382184
120	0xbe85eb49	-0.2615607
121	0x3efdf251	0.49598935
122	0x3e86fcac	0.26364648
123	0x3da81f2f	0.08209073
124	0x3e94eb9c	0.29086006
125	0xbec8f774	-0.39251292
126	0x3d74940d	0.059711505
127	0x3f1e7d93	0.6191036
128	0xbe35d8a1	-0.17758419
129	0x3f192aee	0.5983113
130	0x3dc10f78	0.094267786
131	0x3e5d28af	0.21597551
132	0x3ed234eb	0.41055998
133	0xbdbf9e0d	-0.09356318
134	0xbe2b223b	-0.16712277
135	0xbec4b6b5	-0.38420644
136	0x3eb0a006	0.34497088
137	0xbf0c3f30	-0.54783916
138	0x3eaaf79c	0.33392036
139	0x3f22ca11	0.6358958
140	0xbeaa73df	-0.33291528
141	0xbc96fcc1	-0.01843107
142	0x3f02093f	0.5079536
143	0x3dabd7de	0.08390783
144	0x3f17acda	0.59248126
145	0x3ec4adaa	0.38413745
146	0xbf1cc441	-0.6123696
147	0x3e79d44a	0.24397388
148	0xbe95fbc5	-0.29293647
149	0xbefa277a	-0.48858243
150	0xbdcf82c0	-0.101323605
151	0x3f08ee8c	0.53488994
152	0xbf1be2b8	-0.6089282
153	0xbf2939fa	-0.6610409
154	0xbe3738d0	-0.17892766
155	0xbf326d6e	-0.69698226
156	0x3ef9bbd0	0.48776102
157	0xbe1f034e	-0.15528604
158	0x3e24b39f	0.16084145
159	0xbdb0f546	-0.08640532
160	0xbf4714f8	-0.7776637
161	0x3e4ae4f2	0.19813898
162	0x3e09e186	0.13464937
163	0xbf15184d	-0.58240205
164	0x3f04c07a	0.51856196
165	0xbf1816f3	-0.5941002
166	0x3f187072	0.5954658
167	0x3ed46f78	0.41491294
168	0x3f0714ed	0.52766305
169	0xbf141d4b	-0.578572
170	0x3d87543f	0.066078655
171	0xbe17c7a5	-0.14822252
172	0xbe0bb338	-0.13642585
173	0x3dac96c7	0.08427196
174	0xbf30c5f2	-0.6905204
175	0x3e80bb91	0.25143102
176	0x3f094fbb	0.53637284
177	0xbd047e1d	-0.032346833
178	0x3ea2b1fe	0.31776422
179	0xbf1ad93d	-0.6048773
180	0x3f12d837	0.5736117
181	0xbe6faff7	-0.23406969
182	0xbf078094	-0.5293057
183	0x3f22cf14	0.63597226
184	0x3c52cd12	0.012866275
185	0xbe63f86c	-0.22262734
186	0xbef3344b	-0.47500834
187	0x3ef9c03c	0.48779476
188	0xbeba468f	-0.36381957
189	0x3df92734	0.121656805
190	0x3e2a1e3e	0.16613099
191	0xbe90162b	-0.28141913
192	0x3d0036cd	0.031302262
193	0x3f022bac	0.5084789
194	0x3f121ace	0.5707215
195	0x3eafd573	0.34342536
196	0x3f2210a6	0.63306653
197	0x3eb31d98	0.34983516
198	0x3c5681a3	0.013092431
199	0x3e76e19a	0.24109498

linear_1.bias f4 [100]
0	0xbf2de806	-0.67932165
1	0xbf0e44b8	-0.55573606
2	0xbece0dec	-0.40244997
3	0xbdd78bd7	-0.10524719
4	0xbf0d42a9	-0.5517984
5	0xbde6d033	-0.112701796
6	0x3f2a859e	0.66610134
7	0x3ecdc7f6	0.4019162
8	0xbf35b5fd	-0.7098082
9	0xbf23081c	-0.6368425
10	0x3f4730d1	0.7780886
11	0x3f831cf0	1.0243206
12	0xbf28b34c	-0.65898585
13	0xbd931f11	-0.0718366
14	0xbef18b7a	-0.47176725
15	0xbf167118	-0.5876632
16	0xbf17b89a	-0.59266055
17	0xbee8cb50	-0.45467615
18	0xbd10475c	-0.035224304
19	0xbea21497	-0.31656334
20	0xbef2fc15	-0.47457948
21	0xbefb9da7	-0.49143717
22	0x3e89a527	0.26883814
23	0x3f44b3d4	0.76836896
24	0xbea15fb2	-0.31518322
25	0xbf6c79ef	-0.92373556
26	0xbf3f988c	-0.74842143
27	0x3edd8db1	0.43272164
28	0xbed98e56	-0.42491406
29	0x3efdb589	0.49552563
30	0x3eb6185c	0.3556546
31	0xbe24a82c	-0.16079777
32	0xbee9774e	-0.45598835
33	0xbe8f568d	-0.2799572
34	0x3f46b683	0.7762224
35	0x3dbd0cfb	0.092309915
36	0x3f768358	0.96294165
37	0x3f14e011	0.581544
38	0xbd945838	-0.07243389
39	0xbf0cee64	-0.55051255
40	0x3f35c7f2	0.7100822
41	0xbf3097d5	-0.6898168
42	0xbf2420f6	-0.64112794
43	0xbea504e2	-0.32230288
44	0xbefc4c11	-0.49276784
45	0xbf8753c1	-1.0572435
46	0xbe6020a9	-0.21887459
47	0x3f0ac203	0.5420229
48	0xbeaf215e	-0.34205145
49	0xbeeed483	-0.4664651
50	0xbf276bbe	-0.65398777
51	0xbbba6b04	-0.005689027
52	0x3ef12d06	0.47104663
53	0x3e1bb4bf	0.15205668
54	0x3daf78ed	0.08567987
55	0xbeb7ff19	-0.35936812
56	0x3f2ca69d	0.6744173
57	0x3f36b822	0.71374714
58	0x3f72cc13	0.9484264
59	0xbe2c50c4	-0.16827685
60	0xbe6ba9f2	-0.23014048
61	0x3e341457	0.17585884
62	0x3f556745	0.833607
63	0x3ee173c7	0.44033644
64	0xbe80920a	-0.2511142
65	0x3f03f363	0.51543254
66	0x3eabb9d4	0.33540213
67	0x3f2fe41f	0.6870746
68	0x3f6bc5f4	0.9209893
69	0x3f18cf03	0.59690875
70	0x3eac53b0	0.33657598
71	0xbf33b435	-0.7019685
72	0xbf3d4784	-0.7393725
73	0xbf3ffde4	-0.7499678
74	0xbf333bd4	-0.70013165
75	0xbdad16db	-0.08451625
76	0x3f01ecda	0.5075203
77	0x3ed2385d	0.41058627
78	0x3dbf961e	0.093548045
79	0xbea635d7	-0.32462952
80	0xbf2e8845	-0.6817668
81	0xbe514ce2	-0.20439485
82	0xbd31ac2d	-0.04337709
83	0x3f30b9b8	0.69033384
84	0x3ea578dd	0.32318774
85	0x3f2e6c68	0.68134165
86	0x3f2b1f3b	0.6684453
87	0x3e5d5e8c	0.21618098
88	0x3eddc121	0.43311408
89	0x3eab87c6	0.33502024
90	0xbdaa5cbd	-0.0831847
91	0xbec9dfc2	-0.39428526
92	0xbf17f860	-0.59363365
93	0xbf209c54	-0.6273854
94	0xbd6c54e4	-0.057698146
95	0xbe8a7709	-0.27043942
96	0xbeea231d	-0.45729914
97	0xbf087ca3	-0.5331518
98	0x3ddb6be0	0.10713935
99	0x3d083bc9	0.03326014

linear_2.weight f4 [10, 100]
0	0xbd33d68e	-0.043905787
1	0xbe500fc2	-0.20318511
2	0x3cc2fb13	0.023801362
3	0x3dfa3af8	0.12218279
4	0xbd42d7cd	-0.047569085
5	0x3c28f708	0.010312803
6	0x3e8b629e	0.27223676
7	0x3bc1b261	0.005911157
8	0xbdb61c84	-0.08892158
9	0x3d219a8c	0.039454028
10	0xbd886318	-0.06659526
11	0x3d7123e7	0.05887213
12	0xbdbaf7b6	-0.09129278
13	0xbc310cfe	-0.01080632
14	0xbd8c5f92	-0.06854166
15	0x3d9afe9b	0.075680934
16	0xbc63fca1	-0.013915212
17	0xbe094f9b	-0.13409273
18	0xbd66ba07	-0.056329753
19	0xbd4f7ae6	-0.050654314
20	0x3d8853ec	0.06656632
21	0xbe0a3275	-0.1349581
22	0x3d23972a	0.039939083
23	0x3dd5379a	0.10410996
24	0xbd7c2e96	-0.061567865
25	0x3c863a54	0.016385235
26	0x3d8ffa85	0.07030205
27	0xbe695aed	-0.22788592
28	0xbc652c78	-0.013987653
29	0xbe30d8cc	-0.17270201
30	0xbe8e280a	-0.27764922
31	0xbc8416c1	-0.016124131
32	0x3caced6c	0.021109305
33	0xbe1d1b21	-0.1534238
34	0xbe956041	-0.29174998
35	0x3d403b80	0.046931744
36	0x3deab714	0.11460701
37	0x3c56735a	0.013089025
38	0x3d529628	0.05141273
39	0x3d5544f2	0.052067704
40	0xbd29bc74	-0.04143949
41	0x3d836686	0.06416039
42	0xbd711ecb	-0.058867257
43	0xbd82a9da	-0.06380053
44	0x3e1c3765	0.15255506
45	0xbe042b89	-0.12907232
46	0x3dbd4d5a	0.09243269
47	0x3a13b6d0	0.0005634846
48	0xbe17a1a2	-0.14807752
49	0x3d7df46a	0.06200067
50	0x3d2461e4	0.04013242
51	0x3e272177	0.1632136
52	0xbcbd22e3	-0.023087924
53	0xba8eb35c	-0.0010887193
54	0xbd39a438	-0.045322627
55	0x3d346b0b	0.044047397
56	0x3d764bb2	0.060130782
57	0xbe3e8413	-0.1860507
58	0x3d7ae99f	0.061257955
59	0xbd897f6e	-0.067137584
60	0x3c8053af	0.015664903
61	0x3dab621d	0.08368323
62	0x3e0c2844	0.13687235
63	0xbe585d0a	-0.21129242
64	0xbd7119d8	-0.058862537
65	0x3b66f749	0.0035242608
66	0x3e2671c8	0.16254342
67	0xbe0b5003	-0.13604741
68	0x3e227d4f	0.15868114
69	0x3bd1bb93	0.0064005344
70	0xbe046bd5	-0.1293176
71	0x3da0c9ac	0.07850966
72	0xbcd92a57	-0.026509447
73	0xbc1981ca	-0.009369323
74	0xbcf52a72	-0.029927466
75	0xbe33d6fc	-0.17562479
76	0xbe0d1e3e	-0.13781068
77	0xbe890ee9	-0.26769188
78	0x3cd838fb	0.026394358
79	0xbd428093	-0.0474859
80	0xbdb40013	-0.08789077
81	0xbe47fe2b	-0.19530551
82	0x3cb9595f	0.022625623
83	0x3e0a2f73	0.13494663
84	0x3dfc0268	0.123051465
85	0x3dbf7c07	0.09349828
86	0x3c97a330	0.018510431
87	0xbe21d4dc	-0.15803856
88	0x3d18ffc7	0.037353303
89	0x3c3ed8a0	0.011648327
90	0x3e3b6e87	0.18303882
91	0x3c3919b6	0.011297634
92	0x3ca2d72e	0.019877996
93	0x3d1b5909	0.037926707
94	0xbd91e630	-0.07123983
95	0x3d9cb392	0.07651438
96	0xbe0ead1c	-0.13933223
97	0x3d8925e7	0.066966824
98	0x3d1eb0af	0.038742717
99	0xbc24dc53	-0.010062295
100	0xbd8fde59	-0.07024831
101	0x3c939fa8	0.018020466
102	0x3e0534ff	0.13008498
103	0xbdf51df7	-0.11968606
104	0xbd1cb803	-0.038261425
105	0x3d8ac24f	0.06775343
106	0xbda6083d	-0.0810704
107	0xbe5255bf	-0.20540522
108	0x3ed0d3c3	0.4078656
109	0x3eb45f27	0.35228845
110	0xbe6327a3	-0.22183089
111	0xbeb85ef4	-0.36009943
112	0xbd0685f3	-0.032842588
113	0x3eb64e59	0.3560665
114	0x3d374781	0.044745926
115	0x3c03161c	0.008000877
116	0x3db39e43	0.087704204
117	0x3e29cf70	0.16583037
118	0xbd1f6cbc	-0.038922057
119	0x3ea67b07	0.32515737
120	0x3bf382b4	0.0074313525
121	0x3d674298	0.056459993
122	0xbe0d40fe	-0.13794324
123	0x3bc9e27f	0.0061610336
124	0x3d0e962a	0.034811176
125	0x3ea03133	0.31287536
126	0x3ddfdad7	0.10930412
127	0xbdbe2047	-0.092835
128	0xbd2ec9b3	-0.042672824
129	0xbe988b0f	-0.29793593
130	0x3ea80bcf	0.3282151
131	0x3c241133	0.010013866
132	0xbc69941c	-0.014256503
133	0xbdcd2a03	-0.10017779
134	0xbe944e31	-0.28965905
135	0x3d3cfbea	0.04613868
136	0xbeb7b042	-0.35876662
137	0xbe39354d	-0.18086739
138	0xbcb6fabb	-0.022336354
139	0xbd2e9433	-0.042621803
140	0xbe0ec435	-0.13942035
141	0xbc0de9ca	-0.008661697
142	0x3db3215c	0.08746597
143	0x3ea2ee19	0.3182228
144	0xbd948006	-0.07250981
145	0x3f18f9a7	0.5975594
146	0xbd8ec74b	-0.06971606
147	0xbe9ffc47	-0.3124716
148	0x3d42f976	0.047601186
149	0xbd8c6d93	-0.06856837
150	0x3d982dcb	0.07430609
151	0xbcf7c6a8	-0.030246094
152	0xbe4c11ee	-0.19928715
153	0x3d3bb569	0.045827303
154	0x3caaac89	0.020834224
155	0x3e433adf	0.19065426
156	0xbe69eedf	-0.22845028
157	0x3d8439f5	0.06456367
158	0xbd94852f	-0.07251965
159	0x3e097902	0.13425067
160	0xbccffb44	-0.025388367
161	0xbd793f1c	-0.0608512
162	0xbed7cb42	-0.4214726
163	0xbe6ea48a	-0.23304954
164	0xbe445b19	-0.19175376
165	0xbd3c4428	-0.045963436
166	0xbd5d4271	-0.05401844
167	0xbd6d0573	-0.057866525
168	0xbecb7ad1	-0.3974214
169	0xbe3a0b41	-0.18168356
170	0x3c28e28f	0.010307922
171	0x3a231033	0.00062203704
172	0xbbbf70d4	-0.0058423076
173	0x3e8317c4	0.2560407
174	0x3edb738b	0.4286159
175	0xbd8d5403	-0.069007896
176	0x3dee55a0	0.116374254
177	0x3d457706	0.048209213
178	0xbd901f23	-0.07037189
179	0xbd31c626	-0.04340186
180	0x3e7be176	0.24597725
181	0x3e1b42dc	0.15162224
182	0xbb2e961e	-0.002663977
183	0xbdc4a7de	-0.096023306
184	0xbe2bcf38	-0.16778266
185	0xbe228a3e	-0.15873048
186	0xbe89f597	-0.26945183
187	0xbc6ed190	-0.014576331
188	0xbd8d28f4	-0.06892577
189	0xbde8ca3c	-0.11366698
190	0x3d40ac5d	0.04703938
191	0x3e3378cc	0.17526549
192	0xbd930a25	-0.07179669
193	0x3dbd1c3f	0.09233903
194	0x3ce45cb5	0.027876237
195	0x3b888c8b	0.0041671447
196	0xbcc5940c	-0.024118446
197	0x3d8a34b9	0.06748337
198	0xbd07d002	-0.033157356
199	0xbd142daf	-0.03617638
200	0xbe2a650c	-0.16640109
201	0xbe0df3d1	-0.1386254
202	0xbcd52553	-0.026018774
203	0xbe068c95	-0.13139565
204	0xbdc86f3c	-0.09786841
205	0x3cdb5771	0.026775094
206	0xbe419379	-0.18903913
207	0xbd85623a	-0.06512876
208	0x3e60db23	0.21958594
209	0xbdd1e95e	-0.102495894
210	0x3e7777c7	0.24166785
211	0x3e460a4d	0.19339867
212	0xbe0c4c48	-0.13700974
213	0xbda7ea74	-0.08199015
214	0xbe90b38c	-0.28261983
215	0x3cdc3431	0.026880356
216	0xbdb4e995	-0.08833615
217	0x3c9fbb02	0.019498352
218	0xbcf5a6e9	-0.029986816
219	0xbe624d59	-0.22099818
220	0xbd1264b8	-0.035740584
221	0x3c6c1af8	0.014410727
222	0x3e1e89d7	0.15482269
223	0x3d75c550	0.060002625
224	0xbe30cbd9	-0.17265262
225	0x3ee4a561	0.44657424
226	0xbdbebc63	-0.09313276
227	0xbdfbc662	-0.12293698
228	0xbe35ad3c	-0.17741865
229	0x3cefbb72	0.029264186
230	0x3cd26c1a	0.025686312
231	0x3da32b88	0.07967287
232	0xbd03e18e	-0.032197528
233	0xbde26cd3	-0.11055913
234	0x3c8cb42c	0.017175756
235	0xbdd4491b	-0.10365506
236	0x3e37c2bb	0.17945378
237	0x3d71d1f4	0.059038118
238	0x3d94ac91	0.07259477
239	0xbb87ad47	-0.0041405293
240	0x3d93baa6	0.07213335
241	0x3d80694f	0.06270086
242	0x3b201888	0.0024428684
243	0x3da5680b	0.08076485
244	0xbd92cb20	-0.07167649
245	0x3ea47149	0.3211768
246	0xbdbc7114	-0.092012554
247	0x3e5ffa09	0.21872725
248	0x3d2858e5	0.0411004
249	0xbdfb69c6	-0.12276034
250	0x3bc9e7ce	0.0061616665
251	0xbb80dc6f	-0.0039325277
252	0x3dcc0458	0.09961766
253	0x3dd63b78	0.104605615
254	0xbcd25bb3	-0.025678491
255	0xbbca26f1	-0.006169193

linear_2.bias f4 [10]
0	0xbdee4661	-0.116345175
1	0xbed86dcd	-0.4227127
2	0x3e38e58c	0.18056315
3	0x3d984ad9	0.07436151
4	0xbc89da28	-0.016827658
5	0x3e79e3ba	0.24403277
6	0x3ec3b0e8	0.38220906
7	0xbe69236b	-0.22767417
8	0x3e89ca92	0.2691236
9	0xbe031fad	-0.12805052
