project_2_task_1_ph/data/model_MNIST_FLATTEN.pth (torch, 320176 bytes, 4 tensors)

linear_1.weight f4 [100, 784]
000000 42 03 94 3c 40 e2 91 3c d3 57 f3 bc 02 17 0e bd
       0.01806796 0.01780808 -0.029704964 -0.03468991
000010 70 26 bf bb c4 ea 2b 3c 2a 00 0b bd d3 ad 04 bd
       -0.0058334395 0.010492984 -0.033935703 -0.032392334
000020 6e bc ea 3c e1 e6 ff bc 2a a4 8e bc a0 00 10 3b
       0.028654303 -0.031238021 -0.017412264 0.0021973029
000030 97 c4 fb 3c 16 95 bc 3c 60 df ef bc da fb 92 bc
       0.03073339 0.023020308 -0.029281318 -0.017942358
000040 5e 0b dc 3c 86 e3 f1 3c f2 80 cb 3c 19 0c 09 3d
       0.026860889 0.029527437 0.02484176 0.033458803
000050 00 d5 1c b9 9a 81 a5 3c 10 2b aa bc b0 76 5d bb
       -0.00014956668 0.0202034 -0.020772487 -0.0033792667
000060 ba e6 87 3c 00 33 c1 ba a4 b3 09 3c 3c 4f c3 bc
       0.016589511 -0.0014739931 0.008404646 -0.023841493
000070 96 f2 a7 3c bb ad 0d bd 08 10 56 3c 06 b0 e8 3c
       0.020501416 -0.03458951 0.013065346 0.028404247
000080 69 db 9d bc b4 fa 92 bc c0 0a 35 3c dd be a7 3c
       -0.019269662 -0.01794181 0.011049926 0.020476753
000090 dc 28 35 3c 9a 0b ca 3c 19 a2 21 bb f3 04 e2 3c
       0.011057105 0.024663735 -0.0024663268 0.02759025
0000a0 1b 53 98 bc 10 54 72 bc 06 5c 9a bc 8a 1c d2 bc
       -0.018594315 -0.01479055 -0.018842708 -0.025648374
0000b0 ac 44 11 bc 5e a1 ac 3a 25 f2 d5 3c f7 5e 6e ba
       -0.00886647 0.001317065 0.02611644 -0.00090931304
0000c0 f2 76 42 3b 44 f8 c5 3c 55 5f 10 bc 7e c2 11 bd
       0.0029672948 0.024166234 -0.008811791 -0.035585873
0000d0 a7 54 01 bd f0 c0 d1 3b 40 65 5c bc 0e 1d 29 bc
       -0.03157487 0.006401174 -0.013451874 -0.010321869
0000e0 c0 71 c9 3b ea 72 09 bd 52 fa 6f 3c 87 82 0d bd
       0.0061475933 -0.033556856 0.014647083 -0.03454831
0000f0 12 d0 4e bc 10 5f 89 3c f6 f0 57 3c d1 a2 14 3d
       -0.01262285 0.016768962 0.013180008 0.036288086
000100 6e a9 14 3d 1b db 9d 3b e8 bf 55 bc b1 0b 06 3d
       0.036294393 0.004817379 -0.013046242 0.032725994
000110 48 29 8b 3c 30 d6 44 bc 38 92 b7 bb c9 b2 94 3b
       0.016987458 -0.012013957 -0.0056021474 0.0045379144
000120 21 11 39 3c 2a de 7b bc f8 bf f0 bc 92 7b 44 3b
       0.011295588 -0.015372792 -0.029388413 0.002998088
000130 e1 5d 7c bc 1d 87 0f 3d 3c 75 1a 3c 2e 5d 37 3b
       -0.015403242 0.035040963 0.009427365 0.0027979123
000140 85 dd eb bc 52 f6 b0 3c 66 a8 51 bc dc 62 99 3c
       -0.028792152 0.02160183 -0.012796497 0.018723898
000150 24 0c 2e 3c 00 bd a3 b9 7a 0d 7f 3c ea 00 43 3c
       0.010623012 -0.000312306 0.015567178 0.011902073
000160 95 a9 93 bc 9b 1e d6 bc 3e fd 01 3d 0d b0 b0 3c
       -0.018025199 -0.02613764 0.03173565 0.021568323
000170 46 c8 09 3d 1d 19 a5 3c dc 98 2e bc e3 b8 a7 bc
       0.03363826 0.020153577 -0.010656562 -0.020473903
000180 de 39 28 bc 9c 51 11 bd ed 84 66 3b 75 b9 47 bd
       -0.010267703 -0.03547822 0.0035174445 -0.04876085
000190 72 b5 98 3c dd ca 0e bd 21 e7 0b 3c 63 1b 2f 3c
       0.018641207 -0.034861434 0.008538992 0.010687682
0001a0 e1 1e b9 bb 5d 12 eb bc 5c ee 0d bd a5 31 b6 3c
       -0.005649433 -0.02869528 -0.034651145 0.02224047
0001b0 c9 e6 ef 3c 1b 84 aa bc 59 cf 9b bc 90 5b 66 bb
       0.029284852 -0.020814946 -0.01901977 -0.003514979
0001c0 4b 47 00 3d b8 1f f7 3c a3 40 e3 3c 78 5a 57 3c
       0.03131799 0.030166492 0.027740782 0.013144128
0001d0 c0 8a 8c 3a 32 f6 9e bb 6e 78 91 bc 14 43 1f bc
       0.0010722503 -0.004851126 -0.01775762 -0.0097205825
0001e0 be 24 fb bc 0d b3 2e bc 93 b1 91 bc 0c bb 52 bd
       -0.030657168 -0.010662806 -0.01778487 -0.051447913
0001f0 5d 12 31 bd fe 87 56 3c a3 d1 b5 3a 8d 4e ab bc
       -0.043230403 0.0130939465 0.0013871681 -0.02091148
000200 4e cb ce 3c 2a c8 53 3a 5d ed 95 bc e0 83 f9 3b
       0.025243428 0.0008078838 -0.01830166 0.0076145977
000210 0a 7e 80 bc a5 8a d8 bc b7 9c bc bc 97 b0 40 bc
       -0.0156851 -0.026433298 -0.023023946 -0.011760852
000220 40 cf d2 3c c4 53 4b bb 06 d5 0e 3d 59 70 a9 bc
       0.02573359 -0.003102527 0.034871124 -0.020683454
000230 2a ee df 3c e9 3d 06 3d 3c 1a a4 3c 98 12 fb 3b
       0.027335245 0.032773886 0.02003204 0.0076621287
000240 72 1e c3 3c 55 a8 18 3b 05 07 b6 bc 3e 1e 36 bc
       0.023818228 0.0023293693 -0.022220144 -0.011115609
000250 30 79 d1 bb da 82 60 bd 31 34 8e bc 3a 1e a1 bc
       -0.0063926205 -0.05481229 -0.017358871 -0.019667733
000260 5f ae 2d 3d fc 1c 6a 3b ab 13 94 3c 74 fd 16 3d
       0.04240262 0.0035722842 0.018075785 0.036862805
000270 e0 08 00 3d 10 d3 fa 3b 2b de 37 3a e9 f3 cb bc
       0.031258464 0.007654555 0.00070140016 -0.024896579
000280 81 d3 23 3c 14 a5 31 bd e8 27 1e bd 01 c2 17 bd
       0.009999157 -0.04337032 -0.038612276 -0.03705025
000290 6d d4 17 bd 54 c2 a9 3c 6a d8 ae bb 9b f5 cd 3c
       -0.03706782 0.020722546 -0.005335857 0.025141528
0002a0 3e 21 92 3c 82 34 01 3d ad 20 b4 3c 1e c5 da bb
       0.017838117 0.031544216 0.021988237 -0.00667633
0002b0 96 49 ad bc 60 d5 26 bd 33 9d 3e bd 2c be b4 bb
       -0.021153253 -0.040730834 -0.046536636 -0.0055158343
0002c0 9d a0 0b ba 3c 2b 32 3a 88 e1 ee 3c c2 05 27 3d
       -0.00053263624 0.00067966036 0.029160276 0.040776975
0002d0 b3 29 7a 3d ed 57 6b 3d 4f 2f a8 3c eb 0a cd 3c
       0.061074924 0.0574569 0.020530371 0.02502962
0002e0 ab af 8e 3d d5 8e ab 3d 1e f8 3a 3d 61 e6 08 3d
       0.069671 0.083768524 0.04564678 0.03342283
0002f0 b3 f1 be bc 44 99 9b 3c 5a 22 c2 3c 0e 7a fb bc
       -0.02330861 0.018993981 0.02369802 -0.030697849
000300 e8 20 4f bc 95 2d ec bc 1d df c3 3a e2 c9 3b 3c
       -0.012642123 -0.028830329 0.0014943812 0.011461707
000310 f4 6b a1 3c d1 e6 c0 3c ee d0 93 3b 84 3b 7e bb
       0.019704796 0.023547562 0.0045109903 -0.0038792798
000320 2b 89 2e bd 5c e0 3d bb ed e0 c9 3c aa 8d b0 bc
       -0.042611282 -0.002897284 0.024643386 -0.021551926
000330 2d a4 84 ba 21 39 10 3d b9 0b ac 3d bb 7b 8a 3d
       -0.0010119729 0.035210732 0.084006734 0.06761881
000340 14 fc 9b 3d 7e 07 54 3c aa da 12 3d 0a a4 b0 3d
       0.076164395 0.012941239 0.035853066 0.08625038
000350 8c 55 95 3d e4 68 d6 3d 46 3d cd 3d ff eb 50 3d
       0.072917074 0.10469225 0.100214526 0.051006313
000360 a8 84 1f 3d b0 a8 8e 3b bb e5 eb 3c f7 41 15 3d
       0.03894487 0.004353605 0.028796067 0.036439862
000370 a5 25 0f bc c7 0e 00 bc 52 98 92 3c 28 b9 09 3d
       -0.0087370025 -0.007816023 0.017894898 0.033623844
000380 1e 9c b8 bc 0d a9 e2 3c 27 d4 d5 3c 17 8f f0 bc
       -0.02253538 0.0276685 0.026102139 -0.029365106
000390 51 c5 21 bd fd b7 e5 bb 46 c9 82 3c de 70 bc ba
       -0.039494816 -0.0070104585 0.015965115 -0.0014376899
0003a0 b8 81 80 3d 6d 85 50 3d 8d 9f 88 3d c6 c3 2c 3d
       0.06274742 0.050908495 0.06671057 0.04217889
0003b0 bf 7a 44 3d ba a5 91 3d ac 9c 51 3d c0 8f 7c 3c
       0.047968622 0.07111688 0.051174805 0.015415132
0003c0 15 e1 8f 3d 55 66 21 3d a3 95 a6 3d aa c8 3a 3d
       0.07025353 0.039404232 0.0813401 0.045601524
0003d0 20 32 06 3d de dc 3d 3c 78 9b 52 3d f1 5d 8f 3d
       0.032762647 0.011588303 0.051417798 0.0700034
0003e0 36 49 06 3d 74 33 9e 3c fe d7 54 3b 7a 9e 2f 3b
       0.032784663 0.019311644 0.0032477374 0.002679734
0003f0 5e 0e 28 3b 04 90 07 bc 33 a4 d9 39 31 71 82 bc
       0.002564333 -0.008274082 0.00041511803 -0.015923114

linear_1.bias f4 [100]
000000 52 50 0e bd de 67 10 bc b2 cd 46 bd a0 14 2b be
       -0.03474457 -0.008813826 -0.04853601 -0.16707087
000010 3a 13 86 3c 26 a2 86 3d a2 80 f9 bd d7 7c 25 bd
       0.01636659 0.06573896 -0.12182738 -0.04040226
000020 84 c3 fd 3d ba 54 9f bb ac 8a 2d 3d ae 2c 13 3d
       0.12390807 -0.004862395 0.042368576 0.03593128
000030 ed 9b 5d bd 27 41 1e 3e e1 c3 d3 3c 6e 88 bf bc
       -0.05410378 0.15454541 0.025850238 -0.023380484
000040 8f 09 1e bd 9a c4 7f bc ec 47 bd bd a8 f8 da 3c
       -0.038583335 -0.015610838 -0.09242234 0.026729897
000050 34 96 ae bb 92 b9 13 3e 49 4d ac 3d 98 93 ec 3d
       -0.005327964 0.14426258 0.084131785 0.11551589
000060 93 4e 00 be b0 dc 8f 3b 01 98 c2 3d b7 68 a1 bc
       -0.12529974 0.0043903217 0.09501649 -0.019703252
000070 09 58 11 bb b8 d0 2b be 3c 7e 9f 3c f7 7d b0 3d
       -0.0022177717 -0.16778839 0.019469373 0.08617776
000080 07 07 11 bd 21 5e 27 3d c3 15 c0 bc d6 db c1 3d
       -0.035407092 0.040861253 -0.023447877 0.094657585
000090 08 4f 95 3c d6 a7 6d bd fc b8 73 3d 08 b6 ee 3c
       0.018226162 -0.05802139 0.059502587 0.029139534
0000a0 6f 9d 57 3c 31 fd a5 3d ba 0f 97 3d 45 18 49 3d
       0.013160094 0.08104933 0.073760465 0.04909541
0000b0 82 a5 10 3d 02 3e 39 3d 05 51 ba 3d 67 95 46 3d
       0.03531409 0.04522515 0.090974845 0.048482325
0000c0 1f aa 1f bd 60 f3 ad bd a0 df c6 3d 61 28 6f bb
       -0.0389806 -0.08493686 0.09710622 -0.0036492574
0000d0 1c bf f6 3d 24 21 da 3d ea 5a 1f bc 0a b7 45 3e
       0.1204817 0.10650852 -0.009726265 0.19308105
0000e0 85 df 87 3d 36 50 ae bc 7a b2 3e 3c d1 0d da 3d
       0.0663443 -0.021278482 0.011639232 0.106471665
0000f0 e5 f9 c4 3d a3 40 8c ba 49 af 16 bc 37 4f 17 3d
       0.09617976 -0.0010700416 -0.009197065 0.03694078
000100 a5 9b cb 3c 56 f4 8b bc 8d d0 bb bc f6 d8 aa bb
       0.02485449 -0.017084282 -0.022926593 -0.005213852
000110 5f a8 93 bd f9 fa f9 3d 9a e4 d3 3d 0b 91 ce bc
       -0.072098486 0.12206072 0.10346337 -0.025215646
000120 b1 f4 12 3d e8 ec 00 3d 63 72 6c 3e 39 b3 00 3c
       0.035877887 0.03147593 0.2309051 0.00785523
000130 f9 93 4c 3d 88 15 76 3d 91 45 22 bc be 55 26 3d
       0.049945805 0.060079128 -0.009904281 0.040609114
000140 4b 7c 9c 3c 3f cd 4e 3d b9 74 51 bd 40 22 09 3d
       0.019102236 0.050488707 -0.051136706 0.03347993
000150 1b 41 a6 bc 14 1e 18 3d 72 d5 a1 3c e4 b8 0c be
       -0.020294717 0.03713806 0.019755099 -0.13742405
000160 17 33 82 3c 71 fb ce 3d f4 89 9a 3c 0e 45 ec bc
       0.015893502 0.101065524 0.01886461 -0.028841522
000170 29 81 db bc e6 20 ea 3b db ef 90 bc d5 b6 b0 3d
       -0.026794987 0.007145035 -0.017692497 0.086286224
000180 8f c9 43 bd a7 61 6f 3c 38 69 3a 3c c3 17 9d 3d
       -0.047799643 0.0146106845 0.011377625 0.07670548

linear_2.weight f4 [10, 100]
000000 4f 6f d2 3e ab d5 bc 3e 61 0d 6e 3e 61 44 5b 3e
       0.41100547 0.36881766 0.23247291 0.21412803
000010 e2 4e 96 bd 36 1d 4d 3e 1d b4 a1 3e ff a5 a0 3d
       -0.073392645 0.20030674 0.31582728 0.07844161
000020 5a 88 37 be ed 10 8c bd a2 7d a2 be f4 4b a4 3d
       -0.17923108 -0.06839166 -0.31736475 0.080222994
000030 00 58 67 be ff 51 87 bd ff 77 f1 bd a0 52 a9 be
       -0.22592163 -0.066074364 -0.117904656 -0.3307085
000040 4e d0 a5 3e 46 f3 6e 3c 47 b4 85 be e9 63 bd bc
       0.32385486 0.014584368 -0.26114103 -0.02311893
000050 82 8f 7e be 64 0f 07 be 70 66 06 be af 02 ea bd
       -0.24859431 -0.13189465 -0.13125014 -0.11426293
000060 72 5c 3c be 08 2c b4 3d 5d e7 47 be c8 99 ad bd
       -0.1839464 0.08797461 -0.19521852 -0.08476597
000070 b4 01 c7 bd 42 0d d8 3e d7 fe 56 3e f3 11 16 be
       -0.09717122 0.42197615 0.20995651 -0.14655285
000080 c7 72 f9 3d 0b f6 ba be 66 66 2b be e1 8b 78 be
       0.12180095 -0.3651584 -0.1673828 -0.2427211
000090 e7 73 e4 be ec 48 61 be c7 e7 d9 bd 25 2b 11 bd
       -0.44619676 -0.22000474 -0.10639911 -0.035441536
0000a0 a7 59 1b be 08 90 57 be 7b 34 2f 3e 2f 9a 9a bd
       -0.15170918 -0.21051037 0.17109863 -0.075489394
0000b0 86 24 f7 3d cd 00 8c 3d fd 9a d5 bd e3 b4 31 bd
       0.12067513 0.0683609 -0.10429952 -0.043385398
0000c0 e6 a7 02 be ee 95 8c 3e 3f 4b 41 be a8 9b f7 3d
       -0.1275936 0.27458137 -0.1887636 0.12090236
0000d0 31 08 18 3e 17 77 aa be 1d 6b f9 3c 43 8b c1 3a
       0.14846875 -0.33293983 0.030446583 0.0014766235
0000e0 b3 4b 32 be de f1 a8 bd ef cb 36 3d 7d 26 db bd
       -0.1741169 -0.082492575 0.04462808 -0.107007004
0000f0 04 39 11 3e 72 27 c5 bd ce ce b3 be a5 d7 49 be
       0.14181906 -0.09626664 -0.35118717 -0.19711168
000100 13 4f a9 3e 11 04 eb bd d4 99 1d 3e 17 31 45 3e
       0.3306814 -0.11475385 0.15390712 0.19257008
000110 d8 13 cd 3d c5 b7 c9 3d 46 c1 8b 3d 34 c1 9e 3d
       0.100135505 0.098495044 0.06823973 0.07751694
000120 46 40 7e be 29 7b 3d 3e d8 b7 ad be 47 8b 98 bd
       -0.24829206 0.18504013 -0.33929324 -0.0744844
000130 79 1c a8 3e ea dc 13 be d8 a9 53 3d 1b d8 35 3d
       0.32834223 -0.14439741 0.051675647 0.044395547
000140 ac 09 da be 65 01 e2 bd e2 55 3b be 15 38 35 3d
       -0.42585504 -0.11035422 -0.1829448 0.044242937
000150 ff 94 31 be 65 a1 a2 3e 66 72 80 bd 48 73 3c 3d
       -0.17341994 0.3176376 -0.0627182 0.04600838
000160 3c 9f 58 3d d5 d6 42 bb 1f 4d 00 be db 6f 18 be
       0.052886233 -0.00297301 -0.1252942 -0.1488642
000170 20 92 94 ba 9e d1 89 be a9 12 63 3e 25 66 30 3e
       -0.0011335053 -0.26917738 0.22175087 0.17226465
000180 31 97 c6 3e b5 be 78 3d 4e 52 ef bc d2 e8 bc 3e
       0.38787225 0.060728747 -0.02921405 0.36896378
000190 d6 4d ee be 85 f2 f8 bd 4f 96 33 be 92 06 a7 be
       -0.4654376 -0.12155632 -0.17537807 -0.326222
0001a0 89 79 3e 3c 92 d7 04 3e c7 50 10 be 6f da 95 bd
       0.011625656 0.12972859 -0.14093314 -0.073170535
0001b0 a2 9c af 3e 58 a3 ad bd 93 0a eb 3e 7d 89 97 be
       0.3429919 -0.08478421 0.45906505 -0.29597083
0001c0 04 76 19 be 8d e4 72 3e c2 fd 06 be f6 d0 0c bc
       -0.14986426 0.23719998 -0.13182738 -0.008594742
0001d0 40 c4 96 be 2d 9e 54 be e5 35 36 be c0 6b 34 3e
       -0.29446602 -0.20763464 -0.17793997 0.17619228
0001e0 81 cf 51 3d 39 2a 4b be 5b 13 60 3e 9a bf e0 3d
       0.05122328 -0.19840325 0.21882384 0.10974045
0001f0 b7 c6 43 3e 48 89 44 bc 2e 3d 48 3e eb a2 ab bb
       0.19118772 -0.011995621 0.19554588 -0.005237927
000200 5c 13 99 3c 8b ac a7 3c 18 fe 32 be 02 ab ea 3e
       0.01868599 0.020468017 -0.17479742 0.45833594
000210 61 1c 58 be 52 d5 dc 3e 48 7a 7d bd 43 49 bd 3e
       -0.21104576 0.431315 -0.061884195 0.36969957
000220 19 49 9f 3e 15 c8 62 be 91 13 83 3e 70 0e 1d be
       0.31110457 -0.22146638 0.25600865 -0.15337539
000230 23 b9 34 3a 36 46 af be 2b a8 f3 3d 17 27 4c 3e
       0.00068940426 -0.34233254 0.1189731 0.19936787
000240 71 55 18 be 15 2f 05 3e 5c a0 a8 bd 83 71 8d 3d
       -0.14876343 0.13006242 -0.08233711 0.06906416
000250 7b 63 c2 3d e4 a7 92 be 24 98 bc be f3 de b4 be
       0.09491631 -0.28643715 -0.36834824 -0.35326347
000260 c9 f6 35 ba c1 4f bf be f4 48 54 3c 2c 1e d5 bd
       -0.0006941376 -0.37365535 0.0129568465 -0.104061455
000270 c7 ad 7d be 6b 81 4f 3c da 00 6f 3d 32 ad f6 bd
       -0.24773322 0.012665133 0.05835042 -0.12044753
000280 e0 04 0e bd 8f 44 16 be df 7d 83 bd b1 74 4b 3e
       -0.034672618 -0.1467459 -0.064204924 0.19868733
000290 d4 d5 a1 be d3 6d 28 be b3 c3 a9 be 98 b1 c0 3d
       -0.3160845 -0.16448145 -0.3315712 0.09408873
0002a0 e9 b8 bd 3d 67 67 8c 3e f7 c0 80 3e 3e d8 b0 bd
       0.092637844 0.2742264 0.2514722 -0.08634995
0002b0 ff d9 3a 3e 60 97 73 be 4d 01 8b 3d cf 0a 03 bd
       0.18247221 -0.23788214 0.067873575 -0.03199273
0002c0 24 4e e5 bc 88 76 a3 3e 4c 68 ec bd ce d5 65 3e
       -0.027991362 0.3192637 -0.115433306 0.22444841
0002d0 d7 25 75 3e 0e be 6b 3d 9d a3 84 3e e1 52 0d be
       0.23940216 0.057554297 0.25906077 -0.13801147
0002e0 ff 32 19 be c0 dc f3 bc 54 8e ed 3d fb d5 6b be
       -0.1496086 -0.029768348 0.115994126 -0.23030846
0002f0 57 40 20 be d3 52 be 3c c8 f2 0d 3d 77 b8 8b 3d
       -0.15649544 0.023232853 0.034655362 0.06822293
000300 a5 5b 33 3e 83 de 4a bc 98 af 3f be d1 9b 50 be
       0.17515428 -0.0123821525 -0.18719327 -0.20371939
000310 3b ff 27 be 8a 7f bc bd f3 ae 52 3e a0 ea b8 be
       -0.16405956 -0.09204014 0.2057455 -0.36116505
000320 d0 83 12 be 8f 32 c1 bd 4a 03 a1 3e 71 13 27 3e
       -0.14308095 -0.094334714 0.31447822 0.1631601
000330 73 fb d9 3d c4 df 86 3e 51 19 8b 3e 5b f6 7f 3d
       0.10643663 0.26342595 0.27167752 0.062490802
000340 1c 0b f6 bd 7a e4 87 3e d1 45 83 3e 07 17 9b be
       -0.12013838 0.265415 0.25639203 -0.30291006
000350 e7 02 15 3e f0 8a f6 be 9f d3 1a be 49 b3 1d 3b
       0.14551888 -0.48152876 -0.1511979 0.002406316
000360 a5 5a 9e be 88 73 9a be 05 6a eb bd c3 e9 31 3e
       -0.3092853 -0.30166268 -0.11494831 0.1737433
000370 c2 a3 13 3d a2 56 9c bd e4 8c 05 3e 9a 9e 7b bd
       0.036044843 -0.076337114 0.13042027 -0.06143055
000380 e5 4e 86 3e d9 6f ee 3d 73 57 99 3c f4 ad 9f 3c
       0.26232067 0.11642427 0.018718457 0.019492127
000390 0a 80 92 3c 36 8b b6 3e 2e a1 28 3e b4 d1 96 3c
       0.01788332 0.35653085 0.16467735 0.018410541
0003a0 b6 3b d4 bd ed 4e 9e 3e 8a 3c 66 3e 75 0b a2 3d
       -0.103629515 0.3091959 0.22484031 0.079123415
0003b0 89 92 2f be 3b 51 29 bd f3 78 36 3e 4d fc 6c 3e
       -0.17145742 -0.041337233 0.17819576 0.2314312
0003c0 0b 0d c8 3e 10 ba ab 3e 2c ac af 3d 96 25 9d 3d
       0.3907245 0.33540392 0.08577761 0.076731846
0003d0 5a 26 88 bd 92 75 b0 bc 2a 27 46 be 10 7d 93 3b
       -0.0664794 -0.021540437 -0.19350877 0.0045009926
0003e0 d4 1a 67 be a2 37 11 be fa cb 12 3f d3 e4 74 3e
       -0.22568828 -0.14181378 0.57342494 0.23915415
0003f0 5f c1 c5 3d e3 ff 78 be b9 73 ef bc 02 43 c6 be
       0.09656023 -0.24316363 -0.029229986 -0.38722998

linear_2.bias f4 [10]
000000 53 35 6d bd 0d e2 eb 3d c1 89 98 3c 69 9d 1a bd
       -0.057912182 0.11517725 0.018620374 -0.037747774
000010 fe c4 a0 3d b8 c5 b0 3e 46 c7 fe bc 38 b4 1d 3e
       0.07850073 0.34525847 -0.03110088 0.15400779
000020 e5 ac d9 be 63 80 84 bd
       -0.4251472 -0.064698
