project_2_task_1_ph/data/model_Breast Cancer_FLATTEN.pth (torch, 15472 bytes, 4 tensors)

linear_1.weight f4 [100, 30]
0	0x3d10a242	0.03531099
1	0xbdaa2666	-0.08308105
2	0xbe2be1e0	-0.16785383
3	0xbeb4da11	-0.3532262
4	0xbdc8bb96	-0.09801404
5	0x3d457cf4	0.048214868
6	0x3e23cd87	0.15996371
7	0xbd565a2a	-0.05233208
8	0xbe0f56b1	-0.13997914
9	0x3d980411	0.074226506
10	0x3e008fb0	0.12554812
11	0xbddbec7a	-0.10738464
12	0x3d891402	0.06693269
13	0xbbb77c02	-0.0055994997
14	0xbc1b0718	-0.0094621405
15	0xbcbcedcc	-0.02306261
16	0x3e26a09c	0.16272205
17	0xbe32d8fa	-0.17465582
18	0xbe05b464	-0.13057095
19	0xbdac35b0	-0.084086776
20	0x3d9c6c77	0.076378755
21	0x3bd3eb44	0.006467255
22	0xbe203d58	-0.15648401
23	0xbe3eafee	-0.186218
24	0xbd425f74	-0.047454312
25	0x3d38ee71	0.04514927
26	0xbe1b675d	-0.15176149
27	0x3cbc9437	0.023019893
28	0x3e13508f	0.143862
29	0xbe13e2d5	-0.14441998
30	0x3ddd3d50	0.1080271
31	0xbe00f5f0	-0.12593818
32	0xbdc5d99e	-0.09660648
33	0xbe196991	-0.14981677
34	0xbe16aac8	-0.14713585
35	0xbda7661f	-0.08173775
36	0x3dfb1670	0.12260139
37	0x3ca8c140	0.020599961
38	0x3cef8158	0.02923648
39	0xbe2759ba	-0.16342822
40	0x3de804dc	0.11329052
41	0x3cc11488	0.02356936
42	0xbe16daf8	-0.14731967
43	0x3dbf6574	0.093455225
44	0x3e1b7884	0.15182692
45	0xbd349acc	-0.04409294
46	0x3ca53fd8	0.020172045
47	0xbdbe7b1f	-0.09300827
48	0xbdf39b8a	-0.11894901
49	0xbd8f152f	-0.06986462
50	0xbdcf7819	-0.10130329
51	0xbd6dfb9c	-0.05810128
52	0xbb976a20	-0.0046208054
53	0x3c9de7b8	0.019275531
54	0xbe0366d3	-0.12832193
55	0x3d9b00a4	0.075684816
56	0x3e032f80	0.12811089
57	0xbc4d0110	-0.01251246
58	0x3c5cda00	0.01347971
59	0xbd8794bf	-0.06620168
60	0xbe0bd4b4	-0.13655359
61	0x3d1fe198	0.039033502
62	0xbd22c558	-0.039738983
63	0xbd078fe8	-0.033096224
64	0xbda3afa4	-0.07992485
65	0xbda9df75	-0.08294574
66	0xbe031d93	-0.1280425
67	0xbe1297b2	-0.1431568
68	0xbd25e4a0	-0.040501237
69	0xbdb5ad50	-0.08870947
70	0xbd8d91bd	-0.06912563
71	0x3d76aba8	0.060222298
72	0xbdbf051d	-0.09327147
73	0x3e2b4b96	0.16728052
74	0xbd981aae	-0.07426964
75	0xbe11d0c0	-0.14239788
76	0x3d66d694	0.05635698
77	0x3dec1754	0.11527887
78	0xbda11715	-0.07865731
79	0xbcbd2238	-0.023087606
80	0x3dba7504	0.0910435
81	0x3bb92c20	0.005651012
82	0x3e352094	0.17688209
83	0xbe374735	-0.17898257
84	0xbb8d2da0	-0.0043084174
85	0x3c97fa98	0.01855211
86	0xbdf8b60e	-0.12144099
87	0xbe0df3d2	-0.13862541
88	0x3e17385c	0.14767593
89	0xbd3a26a4	-0.045447007
90	0xbe35644b	-0.1771404
91	0xbe1dd1f6	-0.15412125
92	0xbe93d2d3	-0.28871784
93	0xbf387f88	-0.720696
94	0x3dee33a9	0.11630947
95	0xbe2b91a0	-0.1675477
96	0xbc7ebfd5	-0.015548666
97	0xbd952d20	-0.072839975
98	0xbc80fefb	-0.015746584
99	0xbdaeea49	-0.0854078
100	0x3dbc5d2b	0.09197458
101	0x3d8f3165	0.06991843
102	0x3e1fe4da	0.15614644
103	0xbc84794c	-0.01617112
104	0xbd468e88	-0.048475772
105	0xbdc0817f	-0.093996994
106	0x3dc0cf8a	0.09414585
107	0x3bdfc41a	0.006828797
108	0xbd873a6e	-0.066029415
109	0xbdf2d629	-0.11857254
110	0xbde1f938	-0.11033863
111	0xbdd2e85c	-0.10298225
112	0xbd6f4ca0	-0.058422685
113	0xbf2d3b14	-0.6766827
114	0x3dc20a4f	0.094746225
115	0xbe369621	-0.17830707
116	0x3c6b28bb	0.014352973
117	0xbd62c9e4	-0.05536832
118	0xbd872e88	-0.06600672
119	0x39b36667	0.00034217836
120	0x3cc2d6d0	0.023784071
121	0xbe326326	-0.17420635
122	0xbb64cf00	-0.003491342
123	0xbe341365	-0.17585523
124	0xbd6b3288	-0.057421237
125	0x3d51040c	0.05102925
126	0x3e307610	0.17232537
127	0x3dc8cb50	0.09804404
128	0xbe36fd90	-0.17870164
129	0x3e2c7544	0.16841608
130	0x3e3645b4	0.17800027
131	0xbdc79375	-0.09744922
132	0xbd334ce4	-0.0437745
133	0xbe2ca256	-0.16858801
134	0xbd975459	-0.07389135
135	0x3e0b60c0	0.13611126
136	0x3dc1acf8	0.09456819
137	0x3dad1f04	0.084531814
138	0xbd3079d4	-0.043084934
139	0x3e28c124	0.16479927
140	0xbce976e8	-0.028499082
141	0x3e25035e	0.16114566
142	0x3d51c654	0.05121453
143	0xbe070e6f	-0.131891
144	0xbc418bd0	-0.011813119
145	0xbd9c151d	-0.076212145
146	0x3e16b1a2	0.14716199
147	0xbe321d88	-0.17394078
148	0xbd36c818	-0.044624418
149	0xbdcfccd0	-0.10146487
150	0x3c63ac97	0.013896129
151	0xbd97e595	-0.07416836
152	0x3c755d64	0.014975879
153	0xbec7074a	-0.3887275
154	0xbe376938	-0.17911232
155	0x3db94e70	0.09048164
156	0x3e217269	0.157663
157	0x3dbf33cb	0.093360506
158	0xbe152da6	-0.14568195
159	0xbd2d22e6	-0.04226961
160	0x3deb6854	0.114945084
161	0xbd19458d	-0.037419844
162	0xbe35fda2	-0.17772534
163	0xbe4fb234	-0.20282823
164	0x3e22b89a	0.15890732
165	0x3de0df6b	0.109801136
166	0xbd1da8d1	-0.038491074
167	0xbe13cee0	-0.14434385
168	0x3d1d9e4d	0.038481046
169	0x3ddf0778	0.108900964
170	0xbe041adf	-0.12900876
171	0x3c8979d7	0.01678173
172	0xbe72905c	-0.23687881
173	0xbf08bd36	-0.5341371
174	0x3e1938b0	0.14963031
175	0xbd8f840a	-0.07007606
176	0xbe03c1ee	-0.12866947
177	0x3cd58c9e	0.026068028
178	0xbcfba4c9	-0.030718224
179	0x3e338137	0.1752976
180	0xbe06afe3	-0.13153033
181	0x3d95a70e	0.07307254
182	0xbd34bec3	-0.044127237
183	0x3d9f1b03	0.07768824
184	0xbde20d60	-0.11037707
185	0xbd2b0c06	-0.041759513
186	0x3e2e9219	0.1704792
187	0xbdedfbae	-0.1162027
188	0x3de2eb0d	0.11079989
189	0xbe1a6edc	-0.15081352
190	0x3c4d3df1	0.012526975
191	0x3d4763bb	0.048679095
192	0x3b60864a	0.003425973
193	0x3e0794ed	0.13240404
194	0x3e19c962	0.15018228
195	0xbe0ae90e	-0.13565466
196	0x3d553488	0.05205205
197	0x3cd8e438	0.02647601
198	0xbbdfae2e	-0.0068261838
199	0xbe06b44e	-0.13154718
200	0xbc906d03	-0.017630106
201	0x3c947918	0.018124148
202	0xbd40daf7	-0.04708382
203	0xbe0afa3c	-0.1357202
204	0x3d4f7107	0.0506449
205	0xbb59f9e5	-0.003326052
206	0x3dc4a421	0.096016176
207	0xbe3a4a6f	-0.18192457
208	0xbe0b28c7	-0.13589774
209	0xbe006376	-0.12537941
210	0x3b93f3c0	0.0045151412
211	0x3db19060	0.086701155
212	0x3e059e74	0.13048726
213	0xbbcd4cc0	-0.006265253
214	0x3d9b75a8	0.075908005
215	0x3e04fb18	0.1298641
216	0xbd3d1c88	-0.046169788
217	0xbcb80c18	-0.022466704
218	0xbdba2bd7	-0.09090393
219	0x3d347718	0.04405889
220	0xbd7b3ad0	-0.061335385
221	0xbd852460	-0.065010786
222	0x3def3da0	0.11681676
223	0xbc8eb8d8	-0.017422125
224	0xbe2c688a	-0.16836753
225	0x3d1d3560	0.03838098
226	0xbe39fc05	-0.18162544
227	0xbdba9353	-0.09110131
228	0xbe14335e	-0.1447272
229	0x3e14c3ec	0.14527863
230	0x3e18625a	0.14881268
231	0xbdfa380c	-0.12217721
232	0x3e0094f8	0.12556827
233	0xbdc03283	-0.09384634
234	0x3de1ec20	0.110313654
235	0xbd35bd38	-0.044369906
236	0xbbef5f60	-0.0073050708
237	0x3e109e6c	0.14122933
238	0x3dbbb848	0.09166008
239	0x3dd36544	0.10322049
240	0xbd94e212	-0.07269682
241	0xbe649b9f	-0.2232499
242	0xbf44bfd4	-0.76855206
243	0xc0a8bcba	-5.273038
244	0x3e26cac2	0.16288283
245	0xbd8136b8	-0.06309265
246	0xbd9bf6db	-0.07615443
247	0xbdee04d2	-0.11622013
248	0x3da91fa3	0.08257987
249	0x3df0f228	0.11764938
250	0xbdb443b8	-0.08801979
251	0x3e087fce	0.13330004
252	0x3c8a2dc2	0.016867522
253	0xbece25c8	-0.402632
254	0x3d55d461	0.052204493
255	0xbd97c5be	-0.07410763

linear_1.bias f4 [100]
0	0x3d006e88	0.03135541
1	0xbd878d71	-0.06618775
2	0x3e0a16fe	0.13485333
3	0xbe2ea9eb	-0.17057006
4	0xbdb3c6bb	-0.08778139
5	0xbda7c2a7	-0.08191424
6	0x3dc38115	0.09546105
7	0x3db8e174	0.09027377
8	0x3e19d771	0.1502359
9	0x3da3ef0a	0.080045775
10	0x3df6f724	0.12058857
11	0xbde5cea4	-0.11221054
12	0xbe369363	-0.17829661
13	0x3dbf240b	0.093330465
14	0xbd24136d	-0.04005759
15	0x3e01fa3a	0.1269311
16	0x3dc4814d	0.09594975
17	0x3e148438	0.14503562
18	0x3cd7c889	0.02634074
19	0x3e2eb04b	0.17059438
20	0xbda8a987	-0.0823546
21	0xbdea6cf4	-0.114465624
22	0x3e2bf95b	0.1679434
23	0xbd863931	-0.06553877
24	0x3e19c2f5	0.15015776
25	0xbe33fec2	-0.17577651
26	0xbd947cbf	-0.07250356
27	0x3e19b57a	0.15010634
28	0xbe1dbddc	-0.15404457
29	0xbda99d65	-0.08281974
30	0xbe13ddc6	-0.14440069
31	0xbcfc17af	-0.030773012
32	0xbdad8507	-0.084726386
33	0x3d70a2e0	0.05874908
34	0x3c06fd40	0.00823909
35	0x3e0a4ca0	0.13505793
36	0xbe293b44	-0.16526514
37	0xbd68f7cc	-0.056876943
38	0x3df3f79a	0.119124606
39	0x3dba55a2	0.090983644
40	0xbc8ca250	-0.01716724
41	0x3db2c403	0.087287925
42	0x3c0e1080	0.008670926
43	0x3cb28218	0.02179055
44	0x3e3440e5	0.1760288
45	0x3d3e814a	0.04651002
46	0xbda4ea0a	-0.08052452
47	0xbdc5dbe3	-0.09661081
48	0x3d8056a2	0.06266524
49	0x3cb2d54f	0.02183023
50	0xbe26209e	-0.1622338
51	0xbe083ac8	-0.13303673
52	0x3d21ede8	0.039533526
53	0xbe229d6d	-0.15880366
54	0x3dfb28bc	0.12263629
55	0x3d288bcc	0.041148946
56	0x3e39bfb0	0.18139529
57	0xbdb5e8dd	-0.08882306
58	0xbc8f7096	-0.01750974
59	0xbe320582	-0.17384914
60	0x3dc13c44	0.09435323
61	0xbbbdb468	-0.0057893284
62	0x3da5a220	0.080875635
63	0xbcc0f4c8	-0.02355422
64	0xbdc00e0c	-0.09377679
65	0x3e068eee	0.13140461
66	0xbe2df980	-0.16989708
67	0x3cb0ebac	0.021596752
68	0xbde2bcda	-0.11071177
69	0x3cbd0491	0.023073466
70	0x3e234e4c	0.15947837
71	0xbbf19f9b	-0.007373763
72	0xbd4ac06b	-0.04949991
73	0x3d528048	0.05139187
74	0xbd77160f	-0.06032377
75	0x3bb6653c	0.0055662673
76	0xbe14bd93	-0.14525442
77	0xbd12062d	-0.03565042
78	0x3dc488be	0.09596394
79	0xbdf92b2f	-0.1216644
80	0xbdac5f10	-0.08416569
81	0xbcfb10d0	-0.030647665
82	0xbe28e582	-0.164938
83	0x3e1847f1	0.14871193
84	0x3e15b762	0.14620736
85	0x3d0eaf24	0.034834996
86	0xbe30bcfc	-0.17259592
87	0xbd90d42f	-0.07071721
88	0xbd21c1aa	-0.039491333
89	0x3d1520bc	0.03640817
90	0x3d1e0180	0.03857565
91	0x3dcc2d8f	0.09969627
92	0xbe112c0b	-0.14176957
93	0xbd2bc8c8	-0.041939527
94	0x3d0ef45c	0.034901008
95	0xbe15cb32	-0.14628294
96	0xbcec8c48	-0.028875485
97	0x3e0200a7	0.12695561
98	0x3b8f7ed4	0.0043791328
99	0xbda44c93	-0.08022418

linear_2.weight f4 [2, 100]
0	0xbf3a44b0	-0.7276106
1	0xbd819e1a	-0.063289836
2	0x3d995d63	0.07488515
3	0xbfac3c09	-1.3455821
4	0x3d308ff2	0.043106027
5	0x3dedb990	0.11607659
6	0xbd9a79b4	-0.07542744
7	0xbc086130	-0.008323953
8	0x3f2b7ff9	0.66992146
9	0x3f3ed503	0.7454378
10	0x3d237182	0.03990317
11	0xbdb1e532	-0.08686294
12	0x3f317f1b	0.6933457
13	0xbebe1666	-0.37126464
14	0xc093bb1c	-4.6165905
15	0xbd847fd5	-0.064696945
16	0xbec2d164	-0.38050377
17	0x3e32c66c	0.17458504
18	0xbecefc3c	-0.40426815
19	0x3e7c19d1	0.24619223
20	0xbe87a048	-0.26489472
21	0xc0563d5e	-3.3474956
22	0x3d003968	0.031304747
23	0xbdca47b7	-0.0987696
24	0x3f1b1e07	0.60592693
25	0xbd87bcfd	-0.066278435
26	0x3f115c2f	0.56781286
27	0xc00074c5	-2.007127
28	0xbdb06fba	-0.0861506
29	0xbfc5785f	-1.5427359
30	0x3d933f09	0.071897574
31	0x3ea28fd6	0.31750363
32	0x3ee18126	0.44043845
33	0xbd1bf4bd	-0.038075197
34	0xbc82d0cc	-0.015968703
35	0xc0431ea9	-3.0487463
36	0x3f35761b	0.7088334
37	0xbd408c7d	-0.04700898
38	0x3ee404f9	0.44535044
39	0xbfcc5254	-1.5962625
40	0x3db82639	0.089916654
41	0x3ee3ae6f	0.4446902
42	0xbdb1cfc3	-0.086822055
43	0xc0a0d766	-5.0262938
44	0x3e8225e3	0.2541953
45	0xc02b9feb	-2.6816356
46	0x3ef04ab6	0.46932
47	0x3dafb7f9	0.08580012
48	0xbdc86620	-0.09785104
49	0x3f7cb78e	0.9871758
50	0x3cc61ad8	0.024182722
51	0x3f3f494c	0.7472122
52	0xbd80fa21	-0.06297708
53	0x3f11c268	0.56937265
54	0xbda10805	-0.07862858
55	0x3dc02c27	0.093834214
56	0xbc538800	-0.012910843
57	0xbf797f54	-0.9745991
58	0x3da6555e	0.08121751
59	0x3ee2e52e	0.44315475
60	0xbcd0ed2c	-0.025503717
61	0x3ecf1a96	0.4044997
62	0x3f3c7a85	0.7362445
63	0xba225300	-0.00061921775
64	0xbf192e95	-0.59836704
65	0xbd0f1e1a	-0.034940816
66	0x3ee734ec	0.45157564
67	0x3d94b485	0.07260994
68	0xbf684d8e	-0.9074334
69	0x3fb9cecd	1.4516236
70	0x3dcb45ab	0.099253975
71	0x3e1a04be	0.15040872
72	0xbff4c615	-1.912295
73	0x3dac31d9	0.08407945
74	0x3ebd66f4	0.3699261
75	0x3dd3f397	0.103491955
76	0xc0596138	-3.3965588
77	0xc02bc019	-2.6835997
78	0xc0055830	-2.0835075
79	0x3e26b36e	0.16279384
80	0xbd138090	-0.03601128
81	0x3ce4d0ec	0.027931653
82	0xbd896050	-0.06707823
83	0x3df92696	0.12165563
84	0xbcc4d200	-0.024025917
85	0x3d4cf61a	0.05003939
86	0xbdac1b57	-0.08403652
87	0xbd638b8a	-0.055552997
88	0xbe86f5bf	-0.26359364
89	0x3ce6cb40	0.028173089
90	0x3d80cf31	0.062895186
91	0x3b9363c0	0.004497975
92	0xc085d464	-4.1821766
93	0x3db4e8c1	0.08833457
94	0xbd071c24	-0.03298582
95	0x3f5d45c0	0.86434555
96	0xbc937278	-0.017998919
97	0x3e1d1028	0.15338194
98	0xc0093430	-2.1438103
99	0xbdfae2ed	-0.12250314
100	0x3f4a9fba	0.79149973
101	0x3daa3ecd	0.083127595
102	0x3d8248e9	0.06361563
103	0x3fba723d	1.4566113
104	0x3d67377e	0.056449406
105	0xbe07fff2	-0.13281229
106	0x3dbcb532	0.09214248
107	0x3db4393f	0.08799981
108	0xbf123621	-0.57113844
109	0xbf2231a7	-0.63357013
110	0xbc346e80	-0.011012673
111	0xbd404000	-0.046936035
112	0xbf5e0db3	-0.86739653
113	0x3ebf3fe0	0.3735342
114	0x409409fe	4.6262197
115	0xbd434970	-0.047677457
116	0x3ee1a63e	0.44072145
117	0xbe7cd130	-0.24689174
118	0x3eb83739	0.35979632
119	0xbe547ffa	-0.20751944
120	0x3e86c4ae	0.2632193
121	0x4051e862	3.2798085
122	0xbd625168	-0.055253416
123	0xbd1f0957	-0.038827267
124	0xbf2d72e9	-0.67753464
125	0x3d70148e	0.058613352
126	0xbf0127cc	-0.5045135
127	0x3ff7f9a2	1.9373057
128	0xbd9027c0	-0.07038832
129	0x3fc2d5d3	1.5221504
130	0xbdaad33b	-0.0834107
131	0xbe860a87	-0.26179907
132	0xbe82d0d0	-0.25549936
133	0xbcb74f00	-0.022376537
134	0xbdc5b24f	-0.0965315
135	0x403d1b5e	2.9547954
136	0xbf26ff73	-0.65233535
137	0x3dc6b271	0.09702004
138	0xbeae7fb7	-0.34081814
139	0x3fcf6441	1.620247
140	0x3c96ffe0	0.018432558
141	0xbee4139a	-0.44546205
142	0x3ab8aac0	0.0014088973
143	0x40a13e57	5.03886
144	0xbe81c267	-0.2534363
145	0x402782cc	2.6173582
146	0xbefecabe	-0.49764055
147	0xbda9ce3d	-0.0829129
148	0xbc76f598	-0.015073203
149	0xbf823b36	-1.017432
150	0x3d690b2e	0.056895427
151	0xbf31a5cb	-0.69393605
152	0xbc1cadc7	-0.009562916
153	0xbed8f660	-0.4237547
154	0x3d9714ab	0.07376989
155	0xbd9e3c28	-0.07726318
156	0xbdb4545b	-0.08805152
157	0x3f868922	1.05106
158	0x3b048b44	0.002022461
159	0xbee981d7	-0.45606872
160	0xbd57e620	-0.0527097
161	0xbec77e5b	-0.3896359
162	0xbf598753	-0.84972113
163	0xbda68fc2	-0.081328884
164	0x3f110833	0.56653136
165	0x3d1d4852	0.03839905
166	0xbebe92a8	-0.37221265
167	0x3c828d4c	0.015936516
168	0x3f56fdaf	0.8398084
169	0xbfac7f4c	-1.3476348
170	0xbcb1a0c0	-0.021683097
171	0xbe6166ef	-0.22011922
172	0x3fef93b0	1.8716946
173	0x3d40d0da	0.047074176
174	0xbec0290e	-0.37531322
175	0xbd6ca28c	-0.057772204
176	0x405550fa	3.3330674
177	0x4027c893	2.621617
178	0x40012a80	2.018219
179	0xbe5ea866	-0.21743926
180	0x3c5b8998	0.013399504
181	0xbbe39430	-0.0069451556
182	0x3d955df1	0.072933085
183	0xbe5fbbb9	-0.21848954
184	0x3d8c3ea7	0.068478875
185	0x3d814a95	0.063130535
186	0xbd4b4264	-0.049623862
187	0x3cc1feac	0.023681007
188	0x3e856da4	0.26060212
189	0x3df26e68	0.118374646
190	0xbd87887a	-0.06617828
191	0x3d916d18	0.07100886
192	0x408432fd	4.131224
193	0xbb8ee860	-0.0043611974
194	0xbd9c54c0	-0.07633352
195	0xbf6acbb1	-0.9171706
196	0xbd6ba7c7	-0.05753305
197	0xbdd19e3f	-0.10235261
198	0x400b8802	2.1801763
199	0x3e4cf998	0.20017087

linear_2.bias f4 [2]
0	0xbdccb0b7	-0.09994643
1	0x3e8e23d5	0.27761713
