project_2_task_1_ph/data/model_MNIST_PCA.pth (torch, 7312 bytes, 4 tensors)

linear_1.weight f4 [100, 2]
000000 e2 d2 44 bf 1a 73 9a 3e 84 39 95 3e f7 0c d7 be
       -0.7688428 0.3016594 0.29145443 -0.4200208
000010 20 15 7b 3e 04 55 42 be d4 39 2c bf 89 34 49 bf
       0.24519777 -0.18977743 -0.6727574 -0.7859579
000020 11 6c f0 be 92 c6 86 be 7f 6d 39 bf 1b 2b 29 3f
       -0.46957448 -0.26323372 -0.724327 0.660814
000030 c8 c5 fe be 78 c0 ba be e7 e0 0e 3f 57 70 19 be
       -0.4976027 -0.36474967 0.55811924 -0.1498426
000040 8e 45 27 3f b9 00 11 3e d3 46 ed 3e 60 78 2f bf
       0.6534051 0.14160432 0.46343097 -0.6854305
000050 e8 d9 fb 3e 23 de 97 3c 44 2c 9c 3e 90 74 d6 be
       0.49189687 0.01853854 0.30502522 -0.41885805
000060 fd d3 8d 3e 29 4d 38 3f b3 c7 0a 3f ab a3 de 3e
       0.27700797 0.7199274 0.54210967 0.43484244
000070 d3 20 da 3e f4 03 3f bd 18 26 f0 3e 37 61 1b bf
       0.42603168 -0.04663463 0.46904063 -0.60695213
000080 7a 80 40 bf 56 3b b3 3d 6d d2 d2 be ae 15 fd 3e
       -0.7519604 0.08751552 -0.41176167 0.49430603
000090 34 de 3b 3e 67 17 ac bc ce b7 c7 3e 9d 8a af 3e
       0.18346483 -0.021007253 0.3900742 0.3428544
0000a0 9a 00 1b 3f 9f 10 01 3f e5 4f b1 3e e1 bc 61 3e
       0.6054779 0.50415987 0.34631267 0.22044708
0000b0 4a d7 66 3e 90 09 a7 3e 79 37 48 bf f8 c9 7f bd
       0.22543064 0.32624483 -0.78209645 -0.06244847
0000c0 45 a5 2f bf 63 03 13 3e 1f e5 18 3f 28 7b a8 be
       -0.68611556 0.1435676 0.5972461 -0.3290646
0000d0 a4 72 a4 3e b3 76 a4 be cf be ff be e1 bc 07 bf
       0.32118714 -0.3212181 -0.49950263 -0.5302258
0000e0 31 76 42 bf f5 4a f5 3e ee 1c b9 bd 86 0f 2c 3f
       -0.75961596 0.4790875 -0.09038721 0.67211187
0000f0 64 84 d6 bd 86 51 29 3f 0b 50 dd 3e 10 88 91 be
       -0.1047447 0.6614002 0.4322513 -0.2842412
000100 0f 4a c3 be 9d d8 1f 3f c6 b7 b2 bd 25 c6 a6 be
       -0.3814244 0.624399 -0.08726458 -0.32573047
000110 a0 f0 a8 3e 70 de 4f be 18 87 08 be 72 53 18 bf
       0.32996082 -0.20299697 -0.13332784 -0.5950233
000120 96 d0 8b 3e eb a1 9f be d0 9f 50 be 5d 53 25 bf
       0.27307576 -0.3117822 -0.20373464 -0.6458033
000130 b1 04 6e 3e e4 42 3b bf 74 61 28 3f 75 4b cd 3e
       0.23243977 -0.7314894 0.657737 0.40096632
000140 1b 82 89 3e 94 18 d5 3c ee ab 68 be 6f 25 42 3f
       0.26857075 0.026012696 -0.22721836 0.7583837
000150 cf a6 03 3f 5e 84 39 3e aa 97 15 3f a2 52 16 3f
       0.51426405 0.181169 0.58434546 0.5871984
000160 12 56 c7 be 10 00 24 3f c1 30 29 3f ea 46 8c 3e
       -0.38932854 0.64062595 0.6609002 0.27397853
000170 b2 da 24 be 75 d3 c6 be 12 5c b1 3e 8b 7a f8 3e
       -0.1609905 -0.38833204 0.34640557 0.48530993
000180 34 1d f7 bd 32 71 44 bf 38 f4 9c be 64 85 46 bf
       -0.12066117 -0.7673522 -0.30655074 -0.7754729
000190 d9 93 23 3f 51 0e 12 bf 0c 10 07 be 66 64 20 3f
       0.6389747 -0.57053095 -0.13189715 0.62653196
0001a0 7a 94 0c 3f ba 6c 32 3f 7e 40 15 3f 74 af 0d 3e
       0.5491406 0.69697154 0.5830153 0.13836461
0001b0 eb 2d 55 be fd b1 2b 3e 24 d3 28 3f 6e 37 1e 3f
       -0.20818298 0.16767116 0.65947175 0.6180333
0001c0 44 ca 21 3f c8 a5 f7 be 03 d6 8d be 06 b9 a1 bd
       0.6319926 -0.4836867 -0.2770234 -0.078966185
0001d0 cb 67 e5 3e 1c 69 89 bd ab e5 94 3e e1 cb 8f be
       0.4480575 -0.06709501 0.29081473 -0.28085235
0001e0 4f d8 a6 be c6 18 b9 3e fc 74 1d bf b9 73 68 3e
       -0.32586905 0.36151713 -0.6150663 0.22700395
0001f0 f1 67 1f 3f 48 3c e2 3e d4 50 c4 3e 1b 50 96 3e
       0.62267977 0.44186616 0.38342917 0.2935799
000200 ea 7d 0e bf 11 c9 a0 be 7b 61 41 be 5f a8 01 3e
       -0.5566088 -0.31403401 -0.18884842 0.12661885
000210 03 17 79 be 23 eb 28 3f 3c c7 a6 3e 24 0a 14 3d
       -0.24325185 0.6598379 0.3257388 0.036142483
000220 1e 09 df be db 90 15 3f 2f d8 11 bf 4e 6b 2e bf
       -0.43561643 0.58424157 -0.56970495 -0.68132484
000230 39 48 3d 3e 14 be 10 bd 92 3e 11 be f3 8e 90 be
       0.18484582 -0.035337523 -0.14184025 -0.28234062
000240 25 0c 32 3e 30 7a ab be e5 e4 1c 3f 4a 46 2e bf
       0.17387445 -0.3349166 0.61286765 -0.68076
000250 ce fc 83 be 43 91 a0 3e 69 1c b0 3e 40 52 99 3d
       -0.25778812 0.31360826 0.34396675 0.07486391
000260 3b 9f fb 3e 41 0e 72 3e 71 e6 d6 3e ea df ba 3e
       0.4914492 0.2363825 0.41972688 0.36498958
000270 ff e6 59 3e ab 4f 48 3e 20 2a ba 3e 80 bd 33 3f
       0.21279524 0.19561641 0.36360264 0.7021103
000280 3f 21 0a 3f dd 45 9f be 2d cc 02 3f 75 0e 7b be
       0.5395698 -0.3110799 0.510928 -0.24517234
000290 ce 53 dd be 24 77 84 3e 5d 8d 07 bc ed b2 3b 3e
       -0.43228 0.25872147 -0.00827345 0.18329974
0002a0 f8 80 45 3e d2 6a 56 3f a0 fd bf 3d 21 c8 01 3f
       0.19287479 0.83756745 0.09374547 0.50696
0002b0 0c 1a c8 3e 67 95 27 bf b5 e6 ea be 79 eb 35 bf
       0.39082372 -0.65462345 -0.4587914 -0.7106243
0002c0 dc 43 a5 be 3a 28 b4 bd 52 0d 0f bf 68 04 18 3f
       -0.32278335 -0.08796735 -0.558797 0.59381723
0002d0 64 2c 1e 3f 5e 07 28 bf f3 e0 89 3e 3e e4 ad be
       0.61786485 -0.6563624 0.26929435 -0.33963197
0002e0 e2 43 6f 3e 8f b3 e5 bd bb a2 1c 3e a5 e3 46 be
       0.23365739 -0.11215889 0.15296452 -0.19422777
0002f0 05 8b 98 3e 67 9f 5d 3d e1 8c 1e bf 1c 6e 75 be
       0.29793563 0.054107096 -0.61933714 -0.23967785
000300 42 a8 3b 3f d9 3e 48 be 9e 51 0a 3e 3b 21 13 3f
       0.73303616 -0.19555224 0.13507697 0.5747258
000310 9e 5e 1e bf 5f 6b 05 bf 21 f7 a4 3e 25 c5 15 bf
       -0.61863124 -0.5211696 0.32219794 -0.58503944

linear_1.bias f4 [100]
000000 83 f6 ad be 80 eb 2c bf c4 d3 15 bf fa cf 07 bf
       -0.33977136 -0.67546844 -0.58526254 -0.5305172
000010 d3 bb 32 3e df d3 54 bf 00 3e 1c 3f b8 4a 0a bf
       0.17454462 -0.8313579 0.61032104 -0.5402026
000020 c9 87 29 3e 92 5e d1 3d b2 8d 18 bf ff e5 99 3f
       0.16555704 0.10223116 -0.5959121 1.2023314
000030 1f d2 0b 3e d1 91 62 3e a9 5b 9f be a5 00 5d bd
       0.13654374 0.22125937 -0.3112462 -0.053955693
000040 d2 a3 b3 3c 3f ee 45 be 89 0b 33 3f c9 b6 98 3e
       0.021928702 -0.19329165 0.69939476 0.29826954
000050 5e 27 9d be 9f 64 8c 3e 44 b4 d1 be df 1d 5d be
       -0.30694097 0.27420518 -0.40957844 -0.21593426
000060 de 06 1f bf ec 5f b5 bd c7 4c d5 3e 9b 5a 0c bf
       -0.62119853 -0.08856186 0.4166014 -0.5482575
000070 91 d2 05 bf 1a 83 8b 3d f5 bc 0f 3f 7b 2c 84 3d
       -0.52274424 0.06812115 0.561477 0.064537965
000080 61 bd 54 3f 54 35 13 bf c1 4a 50 3e a0 15 e4 3d
       0.8310147 -0.5750325 0.20341016 0.11136937
000090 12 b6 6d 3f 3d 9f 4f bd 85 de 01 3f 3c 55 29 bf
       0.9285594 -0.05068897 0.5073016 -0.6614568
0000a0 b7 34 a6 3e 62 da a9 be 71 2d 76 3e 92 ec b3 be
       0.32462093 -0.33174425 0.24040772 -0.35141426
0000b0 cc b7 ff 3d be 8e bb 3e 00 cb dc 3e e5 2d 69 3f
       0.12486228 0.3663234 0.43123627 0.91085654
0000c0 d1 79 8f 3d 2a 42 8c 3e ca 79 d1 be 29 91 41 be
       0.070056565 0.2739423 -0.4091323 -0.1890303
0000d0 25 bb 14 bf 87 fd eb be 66 af a1 3e 01 5d 0f bd
       -0.5809806 -0.46091864 0.3157913 -0.035000805
0000e0 c6 78 c9 be 42 f4 10 be c6 68 e4 3e cd 9b 67 3f
       -0.39349955 -0.14155677 0.44611186 0.9047211
0000f0 1e fd e9 bd 5c 74 18 3f d8 8e c6 be 98 71 ed 3e
       -0.114252314 0.5955255 -0.38780856 0.46375728
000100 fb f4 37 3f 25 d3 0b 3e 2d 38 09 bf 27 04 a3 bb
       0.71858186 0.13654764 -0.5360134 -0.00497486
000110 8f 4e 09 3f a0 1b 77 bf 87 04 26 3f d3 d0 4c be
       0.53635496 -0.9652653 0.6485066 -0.20001535
000120 d9 25 d3 bd 39 7f 08 bc 88 5a ee bd b5 cf ac be
       -0.10309953 -0.0083311135 -0.11638361 -0.33752218
000130 7d 1a 8e be b8 b3 0c 3f 9a 44 1a bf f4 97 bc be
       -0.27754584 0.5496173 -0.6026093 -0.3683468
000140 02 c6 d6 be 56 c5 26 3f 8d 22 38 bf 86 c8 fd be
       -0.41947943 0.6514486 -0.7192772 -0.4956705
000150 3b 1f b2 be f2 a9 e2 be a7 4c dc 3d e4 4b e5 3d
       -0.34789452 -0.44270283 0.10756808 0.111961156
000160 c0 7d 27 3f 7d ef 23 bf 07 df 79 bd 5e 30 fb be
       0.65426254 -0.64037305 -0.06100371 -0.4906034
000170 9b 98 3a bd 85 eb 3f be 8c 3a 1a bf d9 1b 18 3f
       -0.045555692 -0.18742187 -0.60245585 0.5941749
000180 ad 5a 03 be 10 24 a9 be d8 13 23 bf 7c d9 ea 3e
       -0.12827559 -0.33035326 -0.63702154 0.45869052

linear_2.weight f4 [10, 100]
000000 e1 13 ef bd 62 90 e8 bb 27 29 c6 3d 8e 68 fb bd
       -0.116737135 -0.00709729 0.09675818 -0.122758016
000010 d1 c9 be bb 25 82 8d bd 75 a2 61 bd c8 2b 91 3d
       -0.0058223982 -0.06909589 -0.05508657 0.07088429
000020 e2 30 d1 3d 1b 8d ce 3d a6 d2 03 3e 36 09 a6 3d
       0.10214402 0.100855075 0.12873325 0.081072256
000030 cd 6e 26 be 47 f5 63 3d 7f 32 a2 bc d4 6d 8c 3c
       -0.16253205 0.055653837 -0.019799469 0.017142214
000040 5b d5 b2 bd 0c 96 9d bc b3 3c b2 bc 74 ca 3f 3d
       -0.087321006 -0.019236587 -0.02175746 0.046823934
000050 97 94 7a bc e1 22 0f 3e 88 d7 16 3b 69 ca 04 be
       -0.015294216 0.13978149 0.002301665 -0.12967838
000060 dd ef 65 bc 52 58 c8 3d 5c c8 c7 3c 05 d5 f5 bd
       -0.014034239 0.09782471 0.024387531 -0.12003521
000070 e6 c2 3e bc 88 46 de bd 08 7c 89 be 91 8e ba 3c
       -0.011643147 -0.108532965 -0.2685244 0.02277306
000080 6b c8 08 be 3e e9 f4 bd 27 b8 fd 3d 2a 61 04 be
       -0.13357703 -0.1195855 0.1238864 -0.1292769
000090 f0 df ab 3d ce 82 96 bd 48 9c 81 bd 74 1c b1 bd
       0.08392322 -0.07349168 -0.063286364 -0.08648005
0000a0 3a 45 4b 3d 32 ae 87 bc a3 53 21 3d 1a a0 82 3d
       0.049626566 -0.016562555 0.039386403 0.06378193
0000b0 af 02 e9 bd 99 bb 14 3e 74 a4 63 bd ca e2 ab 3c
       -0.11377465 0.14524688 -0.055576757 0.020982165
0000c0 d3 72 84 be 96 d2 19 be a4 28 34 bc 5f 08 81 bd
       -0.25868854 -0.15021738 -0.010996018 -0.06300425
0000d0 cb 3b 90 bd 91 ed b0 3d 3b 7c f9 39 0c 3c 32 3d
       -0.070426546 0.08639062 0.0004758554 0.043514296
0000e0 af 2e 32 3c 5f 41 a1 bb 9a c4 2e 3e 25 81 cc 3d
       0.010875388 -0.004921123 0.17067185 0.0998557
0000f0 2b 91 9c bd f7 b1 cc bd 5f 05 7f bc a1 fc 21 bd
       -0.07644876 -0.099948816 -0.015565245 -0.039547566
000100 10 d2 d1 bd a0 2f 38 bc c5 ae 87 bc 95 4a 95 3d
       -0.10245144 -0.011241823 -0.016562829 0.07289616
000110 86 c6 3f be 5c 87 b1 bd 0e 6c 89 3d 91 e7 b8 bd
       -0.18728074 -0.08668396 0.06710063 -0.09028543
000120 b1 b6 88 3d 59 61 c7 3d f7 b0 01 be e6 eb b1 3d
       0.066754706 0.097353645 -0.12665163 0.08687572
000130 99 68 ed 3d 75 0e 1d 3c ed 33 98 bc 95 2c 81 3c
       0.11592216 0.009585966 -0.018579448 0.015768329
000140 fd 0c 8b 3d b5 0d 38 3e 61 f0 74 3c 2c 5e 99 3d
       0.06789587 0.17973979 0.014949889 0.07488665
000150 05 2a 69 be d7 ba 2e be 08 90 77 bd 16 fa 33 be
       -0.22769935 -0.17063461 -0.060440093 -0.17575869
000160 4f 84 73 bd fa aa d8 3c d0 63 ee 3d be 25 aa 3d
       -0.05945235 0.026448715 0.116401315 0.0830798
000170 fe 34 03 3e db a4 1f 3c 00 48 e3 3d bd cb 0e be
       0.12813184 0.009743894 0.11097717 -0.13944907
000180 35 2c 0c 3e d6 ac 20 be a8 8c 46 bd 6a 60 59 3d
       0.13688739 -0.15690932 -0.048473984 0.053070463
000190 86 25 3f 3e b8 aa 83 3c 1d 9d 90 bd a4 24 d8 3e
       0.18666658 0.016072616 -0.07061217 0.42215455
0001a0 a2 78 8d 3d 67 13 67 3e f6 db 16 bd f7 9d 1f bd
       0.069077745 0.22565995 -0.036830865 -0.038969006
0001b0 a3 fb 0e 3d 34 14 6a 3d 94 7f 93 3d 9d f2 07 bf
       0.03490795 0.057148173 0.07202068 -0.53104573
0001c0 8c 60 2e bd 43 a6 0f be fe d9 93 bd db 2b 0c 3b
       -0.042572543 -0.14028268 -0.07219313 0.0021388445
0001d0 8f 94 5b 3e 91 3a b9 3d 56 5a c8 be 06 61 86 bd
       0.2144339 0.09044374 -0.3913142 -0.065614745
0001e0 2b cc 70 bd 08 f2 b3 bd 14 c9 57 3d ec e7 b0 3e
       -0.05878846 -0.08786398 0.052681997 0.34551942
0001f0 96 bb e2 3e 18 47 a9 3c 14 fe 93 bd 35 7b cd 3e
       0.44283742 0.020663783 -0.07226196 0.40133062
000200 5d 1e f4 3d 21 1b c1 bd b3 dc b5 bd d6 4a c9 bd
       0.11919854 -0.094290026 -0.08879986 -0.09828727
000210 09 e5 f7 be c2 b9 1a 3e 86 4e d9 bd 32 22 02 3e
       -0.48416927 0.15109923 -0.1061068 0.12708357
000220 65 b3 f3 be 0f f1 3f 3e b8 3c 82 be d2 d9 5a bd
       -0.47597805 0.187443 -0.2543695 -0.053430386
000230 be 78 a2 bc ab cd 58 be 17 97 c8 3c 7e e8 91 3d
       -0.019832965 -0.21172206 0.024486108 0.071244225
000240 c7 6a aa bd 8e 19 0f be ce 67 e4 3a 05 89 07 be
       -0.083211474 -0.13974592 0.0017425956 -0.13235863
000250 11 fd 0e 3e ef f7 2d 3e bc 8a f5 3c 9a 40 b8 bd
       0.13963725 0.1698911 0.02997338 -0.08996697
000260 58 39 28 bd fa 83 ef bc 0b a4 20 be 8f 16 05 be
       -0.041070312 -0.029237736 -0.15687577 -0.12996887
000270 a9 7e fd bd e3 ad c7 3d 5a b9 b2 ba 43 a4 fa be
       -0.12377674 0.09749963 -0.0013635561 -0.48953447
000280 b5 be 06 bd 9c 6f 02 be 8a 05 ad bd 2f 63 33 3d
       -0.032896716 -0.12737888 -0.08448322 0.04379576
000290 6d a3 4f be 39 d9 f5 bc db ae db bd 99 6a 7f bc
       -0.20277186 -0.030010806 -0.107267104 -0.01558938
0002a0 48 c5 50 be 06 cc 24 3f 66 a0 46 be a7 b9 07 3e
       -0.20387757 0.64373815 -0.19397125 0.13254414
0002b0 0d ec 53 3d 42 ad 50 bb e5 36 87 3c 6c fe 34 bd
       0.051738787 -0.003184155 0.016505668 -0.044187948
0002c0 d5 ef 14 3d 75 6f ba bd 91 67 3a 3d 05 9d a9 bd
       0.036361534 -0.0910329 0.045508925 -0.08281902
0002d0 31 14 9d 3d 03 b6 d5 bd 88 74 b6 3d c4 9f 3c 3d
       0.07669867 -0.104351066 0.08908945 0.046050802
0002e0 25 9c 0c be 73 ae 4e 3d 8c 16 11 bd ee 24 67 3e
       -0.1373144 0.050459336 -0.035421893 0.22572681
0002f0 09 2b 4a be fb ff 7d 3e 77 53 bb bd 11 74 4d bc
       -0.19742979 0.2480468 -0.09146779 -0.012539879
000300 83 1f 89 3d 52 fe 35 3c 0d 39 2a 3d 1f 55 b3 bd
       0.066954635 0.011107998 0.041558314 -0.0875647
000310 3a a5 c4 bd fc 77 34 bb fb 68 0d 3f db f2 4a bd
       -0.09601827 -0.0027537337 0.5523831 -0.04954801
000320 f8 f9 ec bd a3 13 1a 3c 93 7b ca bc 3a df 39 3e
       -0.11571115 0.009404096 -0.024717128 0.1815156
000330 af b5 e3 bc 91 07 f9 3c d6 d1 d6 3c d2 aa 83 be
       -0.027796594 0.030399116 0.026223104 -0.25716263
000340 d9 87 1c be d1 56 4d 3e 6f e1 06 bd 45 37 1f 3e
       -0.15286197 0.20052649 -0.032929834 0.15548427
000350 cd ae e6 bd d4 db fe 3c 46 b6 1a be c5 dd 3b 3e
       -0.11263809 0.031110682 -0.15108594 0.18346317
000360 15 9c 16 be 73 a9 44 bd a2 01 16 bb eb ff 98 3d
       -0.14707978 -0.048013162 -0.0022889157 0.074706875
000370 b4 5f 3e bd 35 98 bd 3d 25 93 2b be 2c e9 0a be
       -0.04647799 0.09257547 -0.1675535 -0.1356551
000380 76 4d 1f be fa 8a e4 bd 00 f0 10 3e 07 3a 6e 3e
       -0.15556893 -0.1115932 0.14154053 0.23264323
000390 68 67 b6 bd f9 a8 a0 bd a4 60 03 3e 21 bc e6 3c
       -0.08906442 -0.07844729 0.12829834 0.028165879
0003a0 b3 57 cd 3d eb db b6 3e f1 04 e1 3c ad fa c6 bd
       0.10026493 0.3571466 0.027468177 -0.09715781
0003b0 9b b1 f7 3d f7 fa 5a bd 53 33 0b 3e 50 07 10 bc
       0.120944224 -0.053461995 0.13593797 -0.008790806
0003c0 e7 cd 19 bc eb a2 ed bc 0b 7a bb bd ce 57 95 bd
       -0.00938747 -0.02900835 -0.09154137 -0.07292138
0003d0 50 37 ba bd 4b 57 6a bd 32 9d cd 3d 03 25 a2 3e
       -0.09092581 -0.057212155 0.10039748 0.31668863
0003e0 52 9a 57 3d 44 c6 d1 bd 52 88 15 3d 78 9d cd bd
       0.052637406 -0.10242894 0.03650696 -0.100398004
0003f0 2d 96 66 be f9 9d cc bd b1 ce 0d bd d9 7e fe 3a
       -0.22518225 -0.099910684 -0.034620944 0.0019416466

linear_2.bias f4 [10]
000000 55 a7 ce bd 58 77 06 bf b7 9e 14 3e 08 45 ca 3d
       -0.1009051 -0.52525854 0.1451367 0.09876448
000010 34 11 8d bd 02 72 88 3e 00 a4 af 3e c4 d0 9e be
       -0.06888047 0.2664948 0.3430481 -0.3101865
000020 f0 44 7e 3e fe d0 e6 bd
       0.24830985 -0.11270331
