project_2_task_1_ph/data/model_Wine_FLATTEN.pth (torch, 8936 bytes, 4 tensors)

linear_1.weight f4 [100, 13]
0	0x3ddfb819	0.10923786
1	0x3e66494b	0.22488897
2	0xbcb5aa33	-0.022175884
3	0xbe48ce16	-0.19609866
4	0xbf158ce2	-0.58418095
5	0x3e6337a5	0.22189195
6	0x3c6abad8	0.014326774
7	0x3cc5eaf4	0.024159886
8	0xbdedf1d5	-0.116183914
9	0xbe4c820f	-0.19971488
10	0x3e2a5b6d	0.16636439
11	0x3de04b4b	0.10951861
12	0xc08984b9	-4.2974515
13	0x3c97a2f0	0.018510312
14	0xbdd16e25	-0.102260865
15	0xbd15b6e8	-0.036551386
16	0x3e03c49c	0.1286797
17	0xbedad7a6	-0.42742652
18	0xbdd61771	-0.1045369
19	0xbe6faec8	-0.23406518
20	0x3d3fe032	0.04684467
21	0x3d6f6070	0.05844158
22	0xbde12060	-0.10992503
23	0xbe4ee23a	-0.20203486
24	0xbe76869c	-0.24074787
25	0xc05d3572	-3.456387
26	0xbdffe1d3	-0.124942444
27	0x3e65ac6c	0.22429055
28	0x3cfa4f99	0.030555533
29	0x3e7a369c	0.24434894
30	0xbd33d020	-0.043899655
31	0xbe3c52e9	-0.18391003
32	0xbe654611	-0.2239001
33	0xbe72307d	-0.2365131
34	0xbd1a80c7	-0.037720468
35	0xbc75ec63	-0.015009972
36	0xbe3f4208	-0.18677533
37	0xbe3e45ce	-0.18581316
38	0xbe309a41	-0.17246343
39	0xbe3fc263	-0.18726496
40	0x3e0e7428	0.13911498
41	0x3e5aeab0	0.21378589
42	0x3e878a7f	0.26472852
43	0xbda58ce2	-0.08083512
44	0xbe8ddd02	-0.27707678
45	0xbdc6df82	-0.097105995
46	0xbe287d8e	-0.16454145
47	0xbd5c5190	-0.05378872
48	0x3e6c5486	0.23079118
49	0xbd1792d8	-0.037005275
50	0x3d77a390	0.06045872
51	0xbdcbe1ce	-0.09955178
52	0x3e2f35a2	0.17110303
53	0xbe121066	-0.14264068
54	0x3e5fb85f	0.21847676
55	0x3e4ffa83	0.20310406
56	0xbe15fe46	-0.14647779
57	0x3cc9fda2	0.024657074
58	0x3e75b839	0.23996057
59	0x3d606922	0.054787762
60	0x3dba1051	0.09085143
61	0xbe86b25d	-0.26307955
62	0xbe42c786	-0.19021425
63	0xbe5a5c12	-0.21324185
64	0xbe6cd414	-0.23127776
65	0xbdf27350	-0.118384
66	0x3e881d4d	0.26584855
67	0x3e3b1b50	0.18272138
68	0xbda4fc04	-0.08055881
69	0xbd7d0d38	-0.061780185
70	0x3e2375b2	0.15962866
71	0x3e7bc8de	0.24588344
72	0x3e7f92b2	0.24958304
73	0x3ca43b40	0.020047784
74	0xbc36d0a0	-0.0111581385
75	0xbe2c4898	-0.16824567
76	0xbe214e44	-0.15752512
77	0xbe1a997f	-0.15097617
78	0xbe4150e0	-0.18878508
79	0x3e6e86c0	0.2329359
80	0xbe308880	-0.1723957
81	0xbb67cd64	-0.0035370225
82	0x3d8414a6	0.06449251
83	0xbdf8549a	-0.121255115
84	0xbc89a307	-0.01680137
85	0xbdf0c2c7	-0.11755901
86	0xbe06248f	-0.13099883
87	0xbe398a0a	-0.18119064
88	0x3b952074	0.004550988
89	0xbe0ff051	-0.14056517
90	0xbdd6c5a0	-0.10486913
91	0xbe3bbcf8	-0.18333805
92	0xbe8ae2d8	-0.27126193
93	0xbe8b92ce	-0.2726044
94	0xbe4cf1c5	-0.20014103
95	0x3beadd28	0.007167477
96	0xbda5f1b1	-0.081027396
97	0x3e27b7c0	0.16378689
98	0xbe174d2a	-0.1477553
99	0xbd81a845	-0.06330923
100	0x3e1ae278	0.15125453
101	0xbe369d0a	-0.17833343
102	0x3e628b5d	0.22123475
103	0xbb3eec40	-0.0029132515
104	0x3e57e513	0.21083479
105	0xbe68c674	-0.22731954
106	0x3d9b64bb	0.07587572
107	0x3e266eec	0.16253251
108	0xbe7450fc	-0.23859018
109	0xbe1e75cb	-0.15474622
110	0x3c0fd88b	0.008779655
111	0x3c0c68db	0.008569921
112	0xbd2334f4	-0.039845422
113	0x3cbdb18c	0.02315595
114	0x3e7a443d	0.24440093
115	0x3e09c630	0.13454509
116	0xbf59059d	-0.8477419
117	0x3d8cd9b8	0.06877464
118	0x3e48f4c2	0.19624618
119	0x3dcb0557	0.09913128
120	0x3e16f4c1	0.14741804
121	0xbe6d3e10	-0.23168206
122	0xbe1c1399	-0.15241851
123	0xbe8307b7	-0.25591823
124	0x3e661e29	0.22472443
125	0xbe608c5e	-0.21928546
126	0x3e4456d2	0.19173744
127	0xbe4620fb	-0.19348519
128	0x3e18a1f4	0.1490553
129	0xbff7bdf1	-1.935484
130	0x3d6e5c8e	0.058193736
131	0x3e859e30	0.2609725
132	0x3de2c4aa	0.11072667
133	0x3df5c017	0.11999529
134	0xbe96c580	-0.29447556
135	0xbe474f2f	-0.194638
136	0xbe861268	-0.26185918
137	0xbdc90677	-0.09815686
138	0x3dccd1c4	0.10000947
139	0xbe5ef285	-0.21772201
140	0x3e54ea13	0.20792417
141	0xbdd923aa	-0.106025055
142	0xc01486cc	-2.3207273
143	0xbe67c89b	-0.22635119
144	0xbe7fde8e	-0.24987242
145	0x3e212f57	0.15740715
146	0xbe66f389	-0.22553839
147	0x3db493cf	0.08817255
148	0xbe891bc8	-0.26779008
149	0x3e2d1a0d	0.16904469
150	0xbb7f5011	-0.0038957635
151	0xbcd7572d	-0.026286686
152	0xbcf1b090	-0.029503137
153	0xbe8578ff	-0.26068875
154	0xbe57cf0e	-0.21075079
155	0xbd63cc7c	-0.055614933
156	0x3cff5e30	0.031172842
157	0xbe4fb391	-0.20283343
158	0xbe70a44d	-0.23500176
159	0x3dd66e70	0.10470283
160	0xbe4ec456	-0.20192084
161	0x3de260c0	0.1105361
162	0xbe15db70	-0.1463449
163	0x3dd61548	0.10453278
164	0x3e55ffec	0.20898408
165	0x3ced81c0	0.028992534
166	0x3e4aeb0e	0.19816229
167	0xbd0bd198	-0.03413543
168	0xbe6e4862	-0.232698
169	0xbdb92a06	-0.090412185
170	0xbe8a312a	-0.26990634
171	0x3e825688	0.25456643
172	0xbec4a43c	-0.3840655
173	0xbf13b6cd	-0.57700807
174	0x3e0395d4	0.12850124
175	0xbddea5d1	-0.10871471
176	0xbd7e61b5	-0.0621049
177	0x3ccf3d8b	0.0252979
178	0xbe1ba1df	-0.15198468
179	0xbe04b01f	-0.1295781
180	0x3cce60f6	0.025192719
181	0xc023bb0c	-2.5582914
182	0x3e671c32	0.2256935
183	0x3c874950	0.01651445
184	0xbd8ed704	-0.06974605
185	0x3e381b08	0.17979062
186	0x3e8981bd	0.26856795
187	0xbe82e59c	-0.25565803
188	0x3db0cd94	0.08632961
189	0x3df3665c	0.11884758
190	0x3d95cb14	0.07314125
191	0x3c461120	0.012089044
192	0x3e604468	0.21901095
193	0xbe78191a	-0.24228325
194	0xbdecc654	-0.115612656
195	0xbc0cd62f	-0.008595987
196	0xbd06bc76	-0.032894574
197	0x3e1088ee	0.14114735
198	0x3e867f02	0.26268774
199	0x3e346b18	0.17618978
200	0xbe8d8398	-0.2763946
201	0xbe577e2d	-0.21044226
202	0xbe6a6b6f	-0.22892545
203	0x3e80756e	0.25089592
204	0xbe72271a	-0.23647729
205	0xbe2d4801	-0.16921999
206	0x3e670807	0.22561656
207	0xbf0cf15d	-0.5505579
208	0xbe934ee3	-0.28771123
209	0x3e7167a1	0.23574688
210	0x3c9ac794	0.018893994
211	0x3d5ece08	0.054395705
212	0x3de0b99e	0.10972904
213	0xbe4b6222	-0.19861653
214	0x3dcdaade	0.10042356
215	0xbe1fbcee	-0.15599415
216	0x3c51b4d8	0.012799464
217	0xbe7e164d	-0.24813195
218	0xbe662745	-0.22475918
219	0xbe224565	-0.15846784
220	0xbebce7e3	-0.36895666
221	0xbe817dfd	-0.25291434
222	0x3e140c56	0.14457831
223	0xbd89f6da	-0.06736536
224	0xbe598bf8	-0.212448
225	0xbe3f8270	-0.18702102
226	0xbd8bfe28	-0.06835586
227	0xbdc15598	-0.09440154
228	0x3e017c74	0.12645131
229	0xbd12484c	-0.03571348
230	0xbe212f91	-0.15740801
231	0x3db19c64	0.08672407
232	0x3da03bb8	0.078238904
233	0xbe194a61	-0.1496978
234	0xbe849078	-0.2589147
235	0x3cd1ccb9	0.025610315
236	0xbe2faaea	-0.17155042
237	0xbc9a0c48	-0.018804684
238	0xbebe91fc	-0.37220752
239	0x3dbc693c	0.09199759
240	0xbe189334	-0.14899904
241	0xbe7ca0a1	-0.2467065
242	0x3e812bdd	0.25228778
243	0x3da6a1b2	0.0813631
244	0xbe5da054	-0.21643192
245	0xbd7b97c6	-0.06142404
246	0xc03dd628	-2.966196
247	0x3a8ce000	0.001074791
248	0x3de0e228	0.10980636
249	0x3e3c526e	0.1839082
250	0xbe01891f	-0.12649964
251	0x3dccb920	0.09996247
252	0x3e64008e	0.22265837
253	0xbe1c5501	-0.15266801
254	0x3b8c37c0	0.004279107
255	0x3e5d0a50	0.21585965

linear_1.bias f4 [100]
0	0x3e0e1a88	0.13877308
1	0x3e84584e	0.2584862
2	0xbdb85e2e	-0.09002338
3	0x3e86cc07	0.26327536
4	0xbde51c4b	-0.11187037
5	0xbd8af260	-0.067845106
6	0x3ce909c2	0.028447036
7	0xbdfbb913	-0.122911595
8	0x3dc59d95	0.09649197
9	0xbe6c8941	-0.23099233
10	0xbccf32f1	-0.025292845
11	0xbe82f3d0	-0.2557664
12	0x3db15ca4	0.08660248
13	0x3e5987f6	0.21243271
14	0x3d1ad140	0.037797213
15	0xbdbc4518	-0.09192866
16	0xbe696178	-0.22791088
17	0x3e3bff0c	0.18359011
18	0x3e0f796e	0.14011165
19	0xbe462c29	-0.19352783
20	0xbc64ebe0	-0.013972253
21	0x3d1e4f50	0.038649857
22	0x3e6ae78a	0.22939888
23	0xbdd2c83d	-0.10292099
24	0xbe81037d	-0.25197974
25	0xbcaf1eb0	-0.021376938
26	0x3d6d2508	0.057896644
27	0xbe73096c	-0.23734063
28	0xbe10d3eb	-0.1414334
29	0x3d7dfdcd	0.06200962
30	0x3cae7c7c	0.021299593
31	0xbe5356b6	-0.20638546
32	0xbe45312d	-0.1925704
33	0xbe672f54	-0.22576648
34	0x3e38013a	0.17969218
35	0xbe716366	-0.23573074
36	0xbe51f53c	-0.20503706
37	0x3ca36e80	0.019950151
38	0xbd3a59dc	-0.045495853
39	0xbe1c526a	-0.15265813
40	0x3e367db8	0.17821395
41	0xbe0c65a1	-0.13710643
42	0xbe43892e	-0.19095299
43	0x3e4a44b8	0.19752777
44	0xbe29a9bb	-0.16568653
45	0xbdc8cc34	-0.09804574
46	0x3e552d4c	0.2081806
47	0xbd5d6f3c	-0.05406116
48	0x3e0281d4	0.12744838
49	0xbe85111f	-0.25989625
50	0x3e52ed70	0.20598388
51	0xbe19dfa7	-0.15026723
52	0xbe80510d	-0.25061837
53	0x3e779f82	0.24181941
54	0xbdfd8448	-0.12378746
55	0x3e7d038e	0.24708387
56	0x3e85b136	0.26111764
57	0x3dcaa0e1	0.098939665
58	0x3da3c5b4	0.07996693
59	0xbd77d5b4	-0.060506538
60	0x3e7b2e12	0.24529293
61	0xbd2107c4	-0.039314047
62	0x3e89cec5	0.26915565
63	0x3e5626d8	0.20913255
64	0x3df6bf9c	0.12048265
65	0x3d9e2ac3	0.07723
66	0xbe23268a	-0.1593267
67	0xbdc243c5	-0.09485582
68	0x3e369615	0.17830689
69	0x3dbf3c24	0.09337643
70	0xbd8ec6a3	-0.06971481
71	0xbd945050	-0.07241881
72	0x3e48b415	0.19599946
73	0xbe702c11	-0.2345431
74	0xbd165fa4	-0.036712304
75	0xbdabfe10	-0.08398068
76	0x3dfe30e9	0.124116726
77	0xbe444b68	-0.1916939
78	0xbe70c65e	-0.23513171
79	0x3d3c62bf	0.04599261
80	0xbe1b6adc	-0.15177482
81	0xbe6d134c	-0.23151892
82	0xbe1103db	-0.14161627
83	0xbe2a237c	-0.16615099
84	0x3cfab310	0.030602962
85	0xbd7d0bbe	-0.061778776
86	0x3b462bfd	0.0030238621
87	0x3d6cad68	0.05778256
88	0x3e6a23f1	0.22865273
89	0x3e84db7b	0.259487
90	0x3e3f882c	0.18704289
91	0xbe84a64c	-0.25908124
92	0xbd9bef2f	-0.0761398
93	0x3e124225	0.14283045
94	0x3e074836	0.1321114
95	0xbe848d22	-0.25888926
96	0xbdd30828	-0.1030429
97	0xbdf91b2e	-0.12163387
98	0xbd179190	-0.037004054
99	0x3e4b51b4	0.19855386

linear_2.weight f4 [3, 100]
0	0xbfb3176a	-1.399152
1	0xbf5616a7	-0.83628315
2	0xbf3577f1	-0.7088614
3	0xbd827415	-0.06369797
4	0x3f35e415	0.7105115
5	0x3dcbaad5	0.09944693
6	0x3f527c8a	0.8222128
7	0xbf493951	-0.7860308
8	0xbee743df	-0.4516897
9	0x3e102b75	0.14079078
10	0x3dc2e2f4	0.09515944
11	0x3e928fbc	0.28625286
12	0x3dc99ab9	0.09843964
13	0xbf32667b	-0.6968762
14	0xbd8189f5	-0.06325141
15	0x3b862210	0.004093416
16	0x3f34f395	0.70684177
17	0x3d54d7f2	0.051963754
18	0xbeb17268	-0.34657598
19	0x3c8087e0	0.01568979
20	0x3d9c5265	0.07632903
21	0xbc19de98	-0.009391449
22	0x3f1c2ebc	0.6100881
23	0xbebca124	-0.3684169
24	0x3da374b3	0.07981243
25	0xbd8cfdb0	-0.068843246
26	0xbd8f51b8	-0.069980085
27	0x3e1eaa9e	0.15494773
28	0xbea5fe76	-0.324207
29	0xbfb66893	-1.4250664
30	0x3ed8440e	0.42239422
31	0xbfa0ebe9	-1.2571994
32	0xbdba0057	-0.09082096
33	0x3f293c91	0.6610804
34	0x3d1cb782	0.038260944
35	0xbe1df77a	-0.15426436
36	0x3df996ae	0.12186943
37	0xbd1a8a1d	-0.03772937
38	0xbee9ccdb	-0.45664105
39	0xbf82ec9e	-1.022846
40	0x3d2f2b06	0.04276564
41	0xbe11728d	-0.14203854
42	0x3ddba990	0.10725701
43	0xbdad9d4d	-0.08477268
44	0xbfb38e4c	-1.40278
45	0xbd498c3a	-0.049205996
46	0xbcd32240	-0.025773168
47	0x3cc00518	0.023439929
48	0x3d3cb442	0.046070345
49	0x3e352a05	0.1769181
50	0xbc9fa0d8	-0.019485876
51	0xc036d9b7	-2.8570383
52	0x3d3b0c9e	0.04566633
53	0x3d91b8ed	0.0711535
54	0x3dbc0be2	0.09181954
55	0xbd11ca5c	-0.035593376
56	0x3d7e97c8	0.06215647
57	0xbd641e1e	-0.055692784
58	0x3ccac480	0.024751902
59	0x3da1dcfd	0.07903478
60	0xbd0ab34c	-0.033862397
61	0x3dc515cf	0.096233
62	0x3d60853a	0.054814555
63	0xbcece818	-0.028919265
64	0xbd9ac6d5	-0.075574555
65	0x3e848501	0.25882724
66	0x3c17f5d0	0.009274915
67	0x3d15c150	0.03656131
68	0x3da648cf	0.08119356
69	0x3d1254ba	0.035725333
70	0x3e9e9b30	0.30977774
71	0xbd8ea108	-0.06964308
72	0x3e610b7a	0.21977034
73	0xbfb4b4a4	-1.4117627
74	0xbc780b80	-0.015139461
75	0xbfbdf3a2	-1.4839976
76	0x3ce3ba20	0.027798712
77	0xbf05c742	-0.5225717
78	0xbfee299e	-1.860645
79	0xbceb0224	-0.028687544
80	0xbc604850	-0.013689116
81	0x3dd416ab	0.10355886
82	0x3d5df212	0.054185934
83	0x3d368392	0.04455907
84	0x3c8fa060	0.017532527
85	0xbf65dfcc	-0.8979461
86	0x3e75668d	0.23964901
87	0xbd0b56e6	-0.03401842
88	0x3f071632	0.5276824
89	0x3d386b1c	0.045024022
90	0x3f421a32	0.7582122
91	0xbd9793be	-0.074012265
92	0x3e98d12d	0.29847088
93	0xc0009cb2	-2.009564
94	0x3d88210b	0.066469274
95	0x3e6be89a	0.23037949
96	0x3db7e4f9	0.0897922
97	0xb8d9ec00	-0.00010391325
98	0xbc793e98	-0.015212677
99	0xbd3cfa00	-0.046136856
100	0xbe3372e0	-0.1752429
101	0xbeca275c	-0.39483154
102	0x3e2c938c	0.1685316
103	0xbd083404	-0.03325273
104	0xbfa0e1c9	-1.2568904
105	0xbd3307a7	-0.04370847
106	0xbfa77824	-1.3083539
107	0x3eab35d0	0.33439493
108	0x3bba6d00	0.0056892633
109	0xbeb97300	-0.3622055
110	0xbef3f09a	-0.47644502
111	0xbea2bbb5	-0.31783834
112	0xbd8f7c98	-0.07006186
113	0xbdb1a9d8	-0.08674973
114	0xbd5b8943	-0.0535977
115	0xbd7dc686	-0.061956905
116	0xbf8d4a84	-1.1038365
117	0xbc811154	-0.015755333
118	0xbeec1e02	-0.46116644
119	0x3ca42c28	0.020040587
120	0x3dbe3119	0.092867084
121	0x3d209802	0.039207466
122	0xbf953776	-1.165755
123	0xbe479b14	-0.19492751
124	0x3cdd567c	0.027018778
125	0x3d3d390e	0.04619699
126	0xbca9fbc0	-0.020749927
127	0xbe516849	-0.20449938
128	0xbe23d4f0	-0.15999198
129	0x3eea183e	0.4572162
130	0xbf16b10b	-0.58863896
131	0x3c817840	0.01580441
132	0x3d2ff28e	0.042955928
133	0xbf97928a	-1.1841595
134	0x3d1f4602	0.038885124
135	0xbebccda7	-0.3687565
136	0xbe030f32	-0.12798765
137	0xbd97fb55	-0.07420985
138	0x3d84ab34	0.06477967
139	0xbe0e1e40	-0.13878727
140	0x3d67c6de	0.05658614
141	0xbde2298e	-0.11043082
142	0xbf03cba1	-0.5148259
143	0x3cd6511c	0.026161723
144	0xbc85de00	-0.01634121
145	0x3da1ea21	0.07905985
146	0x3d8d95b7	0.069133215
147	0x3cbf0f8c	0.023322843
148	0xbd4e3b63	-0.050349604
149	0xbe71a61c	-0.23598522
150	0xbd7cc01a	-0.06170664
151	0x3f7048a0	0.93860817
152	0x3dc93c89	0.09825999
153	0xbdb8dfda	-0.09027071
154	0xbe18f16c	-0.14935845
155	0xbc882420	-0.016618788
156	0xbeaa5fd9	-0.3327625
157	0xbd8d95e4	-0.06913355
158	0xbd79f7e7	-0.061027434
159	0x3db02dc9	0.08602483
160	0x3daae719	0.0834486
161	0x3dad381f	0.0845797
162	0xbdb5a423	-0.08869197
163	0xbdb3cc75	-0.087792315
164	0xbc1f6468	-0.009728529
165	0x3e911da0	0.28342915
166	0xbd8d5de0	-0.06902671
167	0xbde96dae	-0.11397873
168	0x3e2eb042	0.17059425
169	0x3d4d756a	0.050160803
170	0xbf35107f	-0.70728296
171	0x3dc737e3	0.097274564
172	0xbe5af002	-0.21380618
173	0x3e2c58fc	0.1683082
174	0xbd1924ca	-0.0373886
175	0x3ef11850	0.4708886
176	0xbf414990	-0.7550287
177	0xbd58ea30	-0.052957714
178	0x3eb60a3c	0.35554683
179	0xbbbf7d20	-0.0058437735
180	0xbce27ac8	-0.027646437
181	0xbe0c3857	-0.13693367
182	0xbd1067ca	-0.03525523
183	0xbd0e768c	-0.034781024
184	0xbdb7171b	-0.08939954
185	0x3e93804e	0.28808826
186	0xbec0f7a8	-0.37688947
187	0x3dc1d095	0.09463612
188	0xbf5d1113	-0.8635418
189	0xbe609b2a	-0.2193419
190	0xbf989d5d	-1.1923023
191	0x3dabbbc1	0.083854206
192	0xbf6a188c	-0.91443706
193	0x3f45bb62	0.7723905
194	0xbddca909	-0.107744284
195	0xbeaa9a2a	-0.33320743
196	0x3d1a14d2	0.037617512
197	0x3c5ef170	0.013607368
198	0xbdb920ff	-0.09039497
199	0xbd6a53b3	-0.057208728
200	0x3fcea8e4	1.6145291
201	0x3f8dd415	1.1080347
202	0x3f058791	0.5215998
203	0x3db491e7	0.08816891
204	0x3ede04d2	0.43363053
205	0xbd779fc0	-0.060455084
206	0x3f0421c6	0.51614034
207	0x3ebda618	0.37040782
208	0x3f062c7f	0.52411646
209	0x3e86eaa0	0.2635088
210	0x3ef6df40	0.482172
211	0x3dd04ee9	0.10171301
212	0xbc9ff914	-0.01952795
213	0x3f37ecf0	0.7184591
214	0xbd4177fd	-0.04723357
215	0x3d527cf2	0.05138869
216	0x3ed4494c	0.4146217
217	0xbdb36668	-0.08759767
218	0x3f36be2e	0.7138394
219	0xbd982acb	-0.07430037
220	0x3c267990	0.010160819
221	0x3d2f8036	0.04284688
222	0x3efc0f32	0.49230343
223	0x3f331fc2	0.69970334
224	0xbbcff750	-0.0063466206
225	0xbc6b00d0	-0.014343455
226	0x3b0d3860	0.0021548495
227	0x3d79d5c6	0.060994886
228	0x3ea6c2f8	0.32570624
229	0x3f5fad1c	0.8737352
230	0x3ea489f1	0.3213649
231	0x3f988793	1.1916374
232	0xbc199e00	-0.009376049
233	0x3ebeb62f	0.3724837
234	0x3d21fdae	0.03954857
235	0x3ef33ed8	0.47508883
236	0x3e0d2d9a	0.13786927
237	0xbd6429a7	-0.055703785
238	0x3edec7bb	0.43511757
239	0x3f92ee32	1.1478941
240	0xbd92ec73	-0.07174005
241	0x3e141c94	0.14464027
242	0x3e42925e	0.19001147
243	0x3acf3ec0	0.0015811548
244	0x3fa8a108	1.3174143
245	0x3ca9d648	0.02073206
246	0x3d62c612	0.055364676
247	0x3dafc00f	0.08581554
248	0xbdcbde5a	-0.099545196
249	0x3e090c0c	0.13383502
250	0x3dae6607	0.08515554
251	0x3ffe1ffb	1.985351
252	0x3d726abe	0.05918383
253	0xbd0d450c	-0.034489676
254	0x3db2a5d4	0.087230355
255	0x3d67cb42	0.056590326

linear_2.bias f4 [3]
0	0xbd544a0a	-0.05182842
1	0xbc82c6ce	-0.015963938
2	0xbd710bd5	-0.058849175
