project_3_inny/models/breast_cancer_mlp.pth (torch, 19104 bytes, 4 tensors)

linear_1.weight f4 [128, 30]
0	0xbe3f57f5	-0.18685897
1	0x3d527629	0.051382218
2	0x3ca70fc3	0.020393258
3	0xbe09447c	-0.13405031
4	0x3d23bc2a	0.03997437
5	0x3e053422	0.13008168
6	0x3e1d366f	0.15352796
7	0x3e160485	0.14650162
8	0xbe0115ce	-0.12605974
9	0xbdabc441	-0.08387042
10	0x3e12c88f	0.1433432
11	0x3b631876	0.003465203
12	0xbe0c80e2	-0.1372104
13	0x3e119187	0.1421567
14	0x3dc1ec64	0.09468916
15	0xbcfe37f9	-0.03103255
16	0x3bcda08f	0.0062752436
17	0xbd168e9c	-0.036757097
18	0x3d21c127	0.039490845
19	0x3dc30b97	0.09523695
20	0xbe213379	-0.15742292
21	0x3dadf1c2	0.08493377
22	0x3d9d6f40	0.07687235
23	0xbd34f0d9	-0.044175003
24	0x3d1d7723	0.038443696
25	0xbd6cf875	-0.057854135
26	0x3e068dc4	0.13140017
27	0x3d9a6aeb	0.07539924
28	0xbcbc818d	-0.023010993
29	0x3c9dcf61	0.019263925
30	0x3d6cad7a	0.057782628
31	0xbde48e13	-0.11159911
32	0x3d83b642	0.06431247
33	0x3e01967f	0.12655066
34	0x3ddcdd73	0.107844256
35	0x3d89deb8	0.06731933
36	0x3e352eaf	0.1769359
37	0xbd5fae74	-0.05460973
38	0xbe1ac43e	-0.15113923
39	0xbe153ee7	-0.14574777
40	0x3de4e00d	0.11175547
41	0x3d8c7559	0.0685832
42	0x3b719e51	0.0036868046
43	0xbdf5d34a	-0.12003191
44	0x3e35fb30	0.17771602
45	0xbe1f6881	-0.15567209
46	0x3e239db9	0.15978135
47	0xbcaccaa0	-0.021092713
48	0xbd54f4de	-0.051991336
49	0xbe0ec489	-0.1394216
50	0xbd409fca	-0.047027387
51	0xbe02bc0e	-0.1276705
52	0x3c846d8a	0.016165514
53	0xbdcf630b	-0.10126313
54	0xbddcf301	-0.10788537
55	0x3d8dd706	0.06925778
56	0xbc85f30c	-0.016351245
57	0xbd514906	-0.05109503
58	0xbdc03048	-0.09384209
59	0xbe1962c7	-0.14979087
60	0xbcbfef0b	-0.023429414
61	0x3dcb3ffb	0.09924313
62	0xbdb7640d	-0.0895463
63	0x3dbe8144	0.09301999
64	0x3d9f6ff5	0.07785026
65	0xbe24dcfa	-0.16099921
66	0xbe58aae0	-0.21158934
67	0xbcc24989	-0.023716705
68	0x3c46a96c	0.012125354
69	0xbde85505	-0.11344341
70	0xbe2d2aa0	-0.16910791
71	0xbb8152fb	-0.0039466596
72	0xbd4162ae	-0.04721325
73	0xbdc8d58e	-0.09806357
74	0xbe3bf25b	-0.1835417
75	0x3d9bf187	0.07614427
76	0xbe2258cd	-0.15854187
77	0x3d066064	0.03280677
78	0x3cda0856	0.026615303
79	0xbd4c7103	-0.049912464
80	0x3d8e3e1c	0.0694544
81	0x3e05852f	0.13039087
82	0xbe447e40	-0.19188786
83	0x3c5b000d	0.013366711
84	0xbe0a7f0f	-0.13525032
85	0x3cc76584	0.024340399
86	0x3e0d4934	0.13797456
87	0xbe52e325	-0.20594461
88	0xbdd98bb3	-0.10622349
89	0xbd9cb40e	-0.0765153
90	0xbdda6002	-0.10662843
91	0x3ce142a1	0.027497591
92	0x3dae6786	0.08515839
93	0xbd0619cd	-0.03273945
94	0xbd32f239	-0.043688033
95	0xbe1e2024	-0.15441948
96	0x3de92cb9	0.11385483
97	0xbe2b4a0b	-0.16727464
98	0x3e2392b0	0.15973926
99	0x3dce197b	0.10063454
100	0xbaff4dad	-0.0019478105
101	0xbdab7383	-0.083716415
102	0xbdb73aae	-0.08946739
103	0xbd436577	-0.047704186
104	0x3e55bd26	0.20872936
105	0x3de14fad	0.11001525
106	0x3d605c3f	0.054775473
107	0xbdff35e0	-0.12461448
108	0xbe082a09	-0.13297285
109	0x3d973dc0	0.07384825
110	0xbe62a2bb	-0.22132389
111	0xbd3c917c	-0.046037182
112	0xbdd6df05	-0.10491756
113	0xbc17994c	-0.009252857
114	0xbd727581	-0.05919409
115	0xbd3653fd	-0.04451369
116	0x3d97666f	0.073925845
117	0xbdcbcbf6	-0.09951012
118	0x3dff0c1f	0.12453484
119	0xbd2eb8dd	-0.042656768
120	0xbe2d49a4	-0.16922623
121	0x3e14fb0a	0.14548889
122	0xbe2b8bf2	-0.16752604
123	0xbd47dbd7	-0.04879364
124	0xbe4215f2	-0.18953684
125	0xbde47cbd	-0.111566044
126	0xbe57a6f6	-0.21059784
127	0xbde781a8	-0.11304027
128	0xbdac8008	-0.084228575
129	0xbe1632e1	-0.14667846
130	0x3d83769d	0.06419108
131	0x3e3d7785	0.18502624
132	0xbe5ce9ff	-0.21573637
133	0x3d637d0d	0.05553918
134	0x3dd4432f	0.10364377
135	0xbe44aa85	-0.19205673
136	0xbda936ad	-0.08262382
137	0x3d99eeee	0.07516275
138	0x3e0d5431	0.13801648
139	0x3e445b38	0.19175422
140	0xbcd74707	-0.026278986
141	0xbe4306c2	-0.19045547
142	0xbb5cc028	-0.003368387
143	0xbe37e367	-0.17957841
144	0x3df49ca1	0.11943937
145	0x3d5d9d32	0.05410499
146	0xbe295221	-0.16535236
147	0xbde19119	-0.11014003
148	0xbdfaadf8	-0.12240213
149	0x3dca8349	0.09888322
150	0x3db19e0f	0.086727254
151	0xbe2e76c7	-0.17037497
152	0xbda27e8d	-0.07934294
153	0xbe3cf76d	-0.1845376
154	0x3d52bfb2	0.051452346
155	0x3d6ac2ac	0.05731456
156	0x3db7d74e	0.08976613
157	0x3d8fc63e	0.070202336
158	0xbe1755c0	-0.14778805
159	0x3dcb98e5	0.09941272
160	0xbdd671ce	-0.10470925
161	0x3e5388d6	0.20657668
162	0xbdd9b9d1	-0.10631145
163	0x3e0e6769	0.13906635
164	0xbd78c111	-0.060730997
165	0x3cb74264	0.022370525
166	0x3cbf8e6c	0.023383342
167	0xbe321658	-0.17391336
168	0x3d0cfb6a	0.034419455
169	0x3d8eb637	0.069683485
170	0xbd42de44	-0.04757525
171	0x3ddde16e	0.10834013
172	0xbe1f90b6	-0.15582547
173	0xbe173827	-0.14767514
174	0x3e06ebb1	0.13175847
175	0xbd5e4e65	-0.05427398
176	0xbd9ae01b	-0.07562276
177	0x3e0176ef	0.12643026
178	0x3dc1beee	0.09460245
179	0x3c66734b	0.014065574
180	0xbc592dc0	-0.013255537
181	0xbe663e6d	-0.22484751
182	0x3b53b5f6	0.0032304502
183	0xbc732e85	-0.014842634
184	0x3e1dca24	0.15409142
185	0x3d71e713	0.05905826
186	0xbe35bae4	-0.17747074
187	0xbbac1b28	-0.0052522607
188	0x3de2f29f	0.110814326
189	0xbd14105f	-0.036148425
190	0xbdbc96ed	-0.09208474
191	0xbb95246a	-0.00455146
192	0xbd2ebc57	-0.042660084
193	0x3e04c86f	0.12967084
194	0xbe224067	-0.1584488
195	0xbe3fceb9	-0.18731202
196	0xbe401ff9	-0.18762197
197	0xbd493c7d	-0.04912995
198	0x3d9ab2f9	0.075536676
199	0xbde9e0e2	-0.11419846
200	0x3d1a6e4e	0.03770285
201	0xbdef3484	-0.116799384
202	0xbd578836	-0.052620135
203	0xbe0411e8	-0.12897456
204	0x3d37b59c	0.04485093
205	0x3d85b018	0.06527728
206	0xbe04c6fe	-0.12966534
207	0xbe02382a	-0.12716737
208	0xbe45d61b	-0.19319956
209	0x3c98e2d4	0.018662848
210	0x3e395ed2	0.18102577
211	0xbd9824d7	-0.07428902
212	0xbdfa97fe	-0.122360215
213	0xbcb377e1	-0.021907749
214	0xbe29d0c9	-0.16583551
215	0xbe1086f5	-0.14113982
216	0xbd939ea2	-0.07207991
217	0xbcf266bc	-0.029590003
218	0xbdfb0477	-0.12256711
219	0xbe111a48	-0.14170182
220	0xbe26e7ca	-0.16299358
221	0xbd5b3a00	-0.05352211
222	0x3d9522cf	0.0728203
223	0x3e0f39bf	0.13986872
224	0xbbd243b4	-0.0064167622
225	0xbd2ceca6	-0.042217873
226	0xbd00701e	-0.031356923
227	0xbc8bdbe7	-0.017072631
228	0xbd041399	-0.032245252
229	0x3cd27492	0.02569035
230	0x3d9eb3f7	0.07749169
231	0x3dd7e94e	0.10542546
232	0x3de7832b	0.11304315
233	0xbe2b264f	-0.16713832
234	0xbd9cea1c	-0.0766184
235	0x3c041f5a	0.008064115
236	0x3d9393ef	0.072059505
237	0xbd536d07	-0.05161765
238	0xbc771d97	-0.015082738
239	0xbe08e2cc	-0.13367766
240	0x3e6666f3	0.2250021
241	0x3d6fd36b	0.058551233
242	0xbdd6d8d7	-0.10490578
243	0x3e62ad81	0.22136499
244	0x3dedc26b	0.11609348
245	0xbe0bc424	-0.1364904
246	0xbdd22a03	-0.10261919
247	0xbd892f27	-0.06698447
248	0xbd769557	-0.060201015
249	0xbe638e46	-0.22222242
250	0x3d5483c8	0.05188349
251	0xbcd5c20f	-0.02609351
252	0x3e4af065	0.19818266
253	0x3e327970	0.17429137
254	0xbcd4c284	-0.025971659
255	0xbdefb0f0	-0.1170367

linear_1.bias f4 [128]
0	0xbdb60504	-0.088876754
1	0xbdb60f06	-0.08889584
2	0x3dd3161c	0.103069514
3	0xbd46b41f	-0.04851162
4	0xba8debfa	-0.0010827773
5	0xbd98ac40	-0.07454729
6	0xbd0332a8	-0.03203073
7	0x3c9bb3b0	0.01900658
8	0xbd3dc450	-0.046329796
9	0x3e06046a	0.13087621
10	0x3cb73e62	0.022368614
11	0x3d2a7dc6	0.041623853
12	0xbd9ee7c7	-0.07759052
13	0x3db6914f	0.08914434
14	0x3d852853	0.06501832
15	0x3e100488	0.14064229
16	0x3d348fee	0.044082575
17	0x3d454be0	0.048168063
18	0xbdc7fd3e	-0.09765099
19	0xbdeadda6	-0.11468057
20	0xbb4c6ba7	-0.0031192095
21	0x3e52e423	0.2059484
22	0x3d89a3c9	0.06720693
23	0x3ca124f7	0.019670947
24	0x3d65a2c4	0.05606343
25	0x3e18e63e	0.1493158
26	0xbb4f51a7	-0.0031634362
27	0xbda377d2	-0.07981838
28	0xbd83b3bb	-0.06430765
29	0xbc9d8cab	-0.019232115
30	0x3daa4058	0.08313054
31	0xbd42061e	-0.047369115
32	0x3dd28c3e	0.10280655
33	0x3de0bba2	0.10973288
34	0x3dae43eb	0.08509048
35	0xbd9f0448	-0.077644885
36	0xbd5fabe2	-0.05460728
37	0x3e2d3b92	0.16917256
38	0x3e2ad790	0.16683793
39	0xbbf6ad50	-0.0075279847
40	0x3e3a3caf	0.18187211
41	0xbd028f6a	-0.03187505
42	0x3ddcffee	0.10791002
43	0x3e140131	0.1445358
44	0x3e50286c	0.2032792
45	0xbd58b3f7	-0.052906003
46	0x3e1e1dfb	0.15441124
47	0x3d4f25b5	0.05057307
48	0x3dbde37f	0.09271907
49	0x3d0759d6	0.03304466
50	0x3d890dc2	0.06692077
51	0x3c93efd7	0.0180587
52	0xbdfb3bd2	-0.12267269
53	0x3d1427ec	0.036170885
54	0xbe124e25	-0.14287622
55	0xbd4d79ac	-0.050164863
56	0xbe039d9a	-0.12853089
57	0xbe238da7	-0.15972005
58	0x3c4ab53a	0.012372309
59	0xbcb3f820	-0.021968901
60	0x3e57461e	0.21022841
61	0xbd8b65bc	-0.06806514
62	0xbd032e23	-0.03202642
63	0x3dae74e6	0.0851839
64	0x3cea0c9d	0.028570468
65	0xbddf1627	-0.10892897
66	0xbd23bdb4	-0.039975837
67	0xbe43c295	-0.19117196
68	0x3e2bd64a	0.16780964
69	0x3dea2c5c	0.11434242
70	0xbde35746	-0.111006305
71	0xbd9f040e	-0.07764445
72	0xbda398a1	-0.07988096
73	0xbd93196c	-0.07182583
74	0xbe2fa8f2	-0.17154291
75	0x3dbc4217	0.09192293
76	0x3e3230f1	0.17401482
77	0x3d89b1cb	0.067233644
78	0x3d82ee4b	0.06393107
79	0x3c9c01bc	0.019043796
80	0xbddc33d2	-0.107520714
81	0x3e4fffbd	0.203124
82	0x3b2bb104	0.0026198039
83	0xbe2270b2	-0.15863302
84	0x3e267593	0.16255789
85	0x3d86afbe	0.06576489
86	0xbcc15a84	-0.023602732
87	0xbe032913	-0.12808637
88	0xbd8ac4f0	-0.06775844
89	0x3db1fe3c	0.086910695
90	0xbe373679	-0.17891873
91	0xbd835794	-0.064131886
92	0xbce67955	-0.028134027
93	0x3dd633eb	0.10459121
94	0x3de96c72	0.113976374
95	0xbc2924b3	-0.010323691
96	0xbdda6d14	-0.10665336
97	0x3e4ac889	0.1980306
98	0x3c5ad373	0.0133560775
99	0x3c42c90c	0.011888754
100	0xbc6fa7e8	-0.014627434
101	0x3d71b7f5	0.059013326
102	0x3e01bdc4	0.12670046
103	0xbcd0350c	-0.02541592
104	0x3e1a0e44	0.15044504
105	0x3e0a7150	0.13519788
106	0x3d03fbab	0.03222243
107	0x3e321bed	0.17393465
108	0x3d2ffb93	0.04296453
109	0xbcf17c47	-0.029478205
110	0xbe4e7b7e	-0.20164296
111	0x3d6c09eb	0.057626646
112	0x3d8bff96	0.068358585
113	0xbc20bbb8	-0.009810381
114	0xbce2cc24	-0.027685232
115	0xbdee0c66	-0.116234586
116	0x3e45168d	0.19246884
117	0xbdc3046a	-0.09522326
118	0x3c9ae15e	0.018906292
119	0x3dd3debc	0.103452176
120	0x3e00615f	0.12537144
121	0xbe21ee3f	-0.1581354
122	0x3e1ffca1	0.15623714
123	0xbe1ea82a	-0.15493837
124	0xbae3e7a9	-0.0017387766
125	0x3d7fa0f1	0.062409345
126	0x3d5a0b29	0.0532333
127	0xbde9bbd4	-0.114127785

linear_2.weight f4 [2, 128]
0	0x3d4db335	0.050219733
1	0x3d649567	0.055806544
2	0xbdf46ed0	-0.11935198
3	0xbdeb6229	-0.11493332
4	0xbdddc665	-0.108288564
5	0xbcb89de2	-0.022536222
6	0xbdea129f	-0.11429333
7	0x3d6843bb	0.056705218
8	0x3d3fe1ec	0.046846315
9	0x3da8f053	0.08248963
10	0x3d13c458	0.03607592
11	0x3d3caae2	0.046061404
12	0x3d3701d1	0.044679467
13	0x3e073d4a	0.13206974
14	0xbd63815b	-0.055543285
15	0x3c941f41	0.01808131
16	0x3caf6969	0.021412568
17	0xbdc49384	-0.09598449
18	0xbda60d47	-0.08108001
19	0x3d061746	0.03273704
20	0x3c112177	0.008858076
21	0xbca73ff7	-0.020416243
22	0x3d87cf46	0.06631331
23	0x3cebd5b0	0.028788418
24	0x3e0b0a1c	0.13578075
25	0x3e029d6c	0.12755364
26	0xbdcefb8c	-0.101065725
27	0x3dc6c006	0.09704594
28	0xbd2b537d	-0.041827668
29	0x3d59e702	0.05319882
30	0x3da1c077	0.07898038
31	0xbbd1c318	-0.006401431
32	0xbd8818b3	-0.06645336
33	0x3dd5bce6	0.1043642
34	0xbd3373c1	-0.043811563
35	0x3d245eaf	0.04012936
36	0x3d7b92f8	0.061419457
37	0x3cbc6fa6	0.023002457
38	0x3da23902	0.079210296
39	0x3c8c35e5	0.017115543
40	0xbde8c025	-0.11364774
41	0xbdacc089	-0.08435161
42	0xbabbb8f1	-0.0014322085
43	0x3d4e5b0f	0.05037981
44	0xbd5b2b76	-0.053508244
45	0xbdb2eb0e	-0.087362394
46	0xbdc7215c	-0.0972316
47	0x3d2a6e1c	0.041608915
48	0xbddad575	-0.10685245
49	0x3d34d919	0.044152353
50	0x3d9b77b5	0.07591192
51	0xbd19d66e	-0.03755801
52	0x3d5c2357	0.05374464
53	0xbcf930e2	-0.030418817
54	0xbd5590be	-0.05213999
55	0xbd297de8	-0.04137984
56	0x3d22daea	0.039759554
57	0x3d141b68	0.03615895
58	0xbdaa5816	-0.08317582
59	0xbd1396ad	-0.036032367
60	0xbde7c92e	-0.11317669
61	0xbe057513	-0.13032942
62	0xbd668d11	-0.056286875
63	0xbcd6d3fd	-0.02622413
64	0xbd1c1235	-0.0381033
65	0xbc7cde05	-0.015433793
66	0xbcf7d1ab	-0.030251345
67	0xbd9c1bec	-0.07622513
68	0xbdf21af0	-0.11821544
69	0x3d2fadef	0.042890485
70	0x3cfa1f95	0.030532638
71	0x3dfe4cb3	0.12416973
72	0xbd8b69a1	-0.068072565
73	0xbbe9b5f1	-0.007132285
74	0xbd18abaf	-0.037273105
75	0xbdd257ef	-0.10270678
76	0xbe002947	-0.12515746
77	0x3d56646e	0.05234187
78	0x3d9dff5f	0.07714724
79	0x3d2ea6c3	0.042639505
80	0x3dc7f26f	0.097630374
81	0xbdafbfac	-0.085814804
82	0xbd34118d	-0.04396205
83	0x3d0b908f	0.03407341
84	0x3e0624a3	0.13099913
85	0x3d990f98	0.074736774
86	0x3c9c5fe6	0.019088697
87	0x3c899783	0.01679588
88	0xbc0cb7cc	-0.008588742
89	0xbd948337	-0.0725159
90	0x3be9dd05	0.0071369433
91	0x3cec4e55	0.028845945
92	0x3dd758aa	0.10514958
93	0x3d93f59c	0.07224581
94	0xbd99dfcd	-0.0751339
95	0xbdc7da76	-0.09758465
96	0x3e064ae5	0.13114507
97	0x3cca9c02	0.024732593
98	0xbd024598	-0.03180465
99	0x3cc8b84b	0.02450194
100	0x3d91535d	0.070959784
101	0xbddb3ef5	-0.107053675
102	0x3d9286a2	0.071545854
103	0xbdc40ffd	-0.09573362
104	0x3dc271c3	0.094943546
105	0x3dea68bb	0.11445757
106	0x3dc43042	0.09579517
107	0xbcbab926	-0.022793364
108	0x3d5721ae	0.052522354
109	0xbdcd1b95	-0.100150265
110	0xba799b9f	-0.00095217855
111	0xbd88586a	-0.06657489
112	0x3be87c1f	0.0070948745
113	0xbd539f86	-0.051665805
114	0x3d853a13	0.065052174
115	0x3cb3c4e8	0.021944478
116	0x3d97b530	0.07407606
117	0x3d87a0fb	0.066225015
118	0xbdb1a0ab	-0.08673223
119	0x3dbce8b0	0.09224069
120	0x3d46da57	0.04854807
121	0xbd8254ee	-0.06363855
122	0xbd8b14a6	-0.06791048
123	0x3d67a243	0.05655123
124	0x3d3dfbaf	0.046382602
125	0xbdef0fd7	-0.11672943
126	0xbde004e5	-0.109384336
127	0xbdc7ad95	-0.09749905
128	0x3d2e7e51	0.042600933
129	0x3d156fb8	0.036483496
130	0x3df67394	0.120337635
131	0x3e0351ec	0.1282422
132	0xbc3ff88e	-0.011716975
133	0x3b10ca80	0.0022093356
134	0x3da4a5b5	0.080394186
135	0x3d8fcee5	0.07021884
136	0xbd146956	-0.03623327
137	0xbd4b078f	-0.049567755
138	0xbda065dd	-0.07831929
139	0xba100792	-0.0005494292
140	0xbd92194c	-0.07133731
141	0xbd2060e0	-0.039154887
142	0x3c28870f	0.010286107
143	0x3c3b8eca	0.011447618
144	0x3de0f0f4	0.10983458
145	0x3dcc3707	0.09971433
146	0x3c6b1053	0.014347154
147	0xbd4f75da	-0.0506495
148	0x3dd4f92c	0.10399088
149	0x3d96cb1a	0.07362957
150	0xbd863e32	-0.065548316
151	0x3d50b784	0.050956264
152	0xbc2fe7e5	-0.01073644
153	0xbdcf03b0	-0.10108125
154	0xbc2ee5d1	-0.01067491
155	0xbd502474	-0.050816014
156	0x3e03af45	0.12859829
157	0xbd3a92e5	-0.045550246
158	0xbd866898	-0.065629184
159	0x3cc870c7	0.024467839
160	0x3e0186d5	0.1264909
161	0xbce0f762	-0.027461711
162	0xbae46226	-0.001742427
163	0xbdef296a	-0.11677821
164	0xbddf2d0f	-0.10897266
165	0x3df4d1b9	0.11954064
166	0xbe0b1729	-0.13583054
167	0xbd81bdd3	-0.06335034
168	0x3d48e5e4	0.049047366
169	0x3c254a6a	0.0100885425
170	0x3db56731	0.08857573
171	0x3ddf1174	0.10892001
172	0x3d53ab02	0.051676758
173	0x3d80713b	0.06271597
174	0x3db88755	0.090101875
175	0x3d416dd1	0.04722387
176	0x3d913737	0.070906095
177	0xbc9e76e1	-0.019343795
178	0xbd8c0f94	-0.06838909
179	0xbc320682	-0.010865809
180	0xbd548853	-0.05188782
181	0x3d7cc95d	0.061715472
182	0x3c32e07c	0.010917779
183	0xbd04dcf7	-0.03243729
184	0xbce57c8b	-0.028013488
185	0xbd54a1ce	-0.05191212
186	0x3db0e894	0.08638111
187	0xbc010ff3	-0.007877338
188	0x3b9eb01f	0.0048427726
189	0x3d6c346d	0.057667185
190	0x3d5a6b5f	0.053325053
191	0x3d901516	0.07035272
192	0xbcfbaba8	-0.0307215
193	0x3d9d0b19	0.07668132
194	0xbc1a5403	-0.009419444
195	0xbd481467	-0.048847582
196	0x3d81a001	0.063293464
197	0xbdc16e69	-0.09444887
198	0x3c3e4092	0.011612074
199	0xbb4b2634	-0.0030998113
200	0x3dfcb96d	0.12340055
201	0xbd53dbbe	-0.051723234
202	0xbcc9fa61	-0.024655523
203	0x3d2d7ca3	0.04235519
204	0x3d31908a	0.043350734
205	0xbd3c93d8	-0.046039432
206	0xbda6d11b	-0.081453525
207	0xbd4ded15	-0.050274927
208	0xbca0afc3	-0.01961506
209	0x3d8c0ea6	0.068387315
210	0xb9c29565	-0.0003711387
211	0xbcaebd9f	-0.021330653
212	0xbd54df1d	-0.05197059
213	0xbdb1acad	-0.086755134
214	0xbcb28a92	-0.021794591
215	0x3bf30447	0.0074162814
216	0x3de1ffea	0.1103514
217	0x3cb9f6f3	0.022700762
218	0x3d485009	0.048904452
219	0xbd58f0b9	-0.052963946
220	0x3c8737de	0.016506132
221	0x3b9c9c86	0.0047794012
222	0x3d01482a	0.03156296
223	0x3d37a5ae	0.04483574
224	0xbdb6d59a	-0.0892746
225	0xbe083732	-0.13302305
226	0xbe076c08	-0.13224804
227	0xbc0e54b8	-0.008687191
228	0xbb56afd9	-0.0032758622
229	0x3c16c011	0.009201066
230	0xbcd55863	-0.026043123
231	0x3daee8d9	0.08540506
232	0xbd791106	-0.06080725
233	0xbc8e01e5	-0.017334888
234	0xbcba065b	-0.022708109
235	0xbdd208a3	-0.102555536
236	0xbddca5b6	-0.10773794
237	0x3d5eaf8a	0.054366626
238	0xbc69144e	-0.014226032
239	0x3dd99aee	0.106252536
240	0xbdcd048a	-0.100106314
241	0x3ce06858	0.027393505
242	0x3d9308b2	0.07179393
243	0xbd863621	-0.06553293
244	0xbd787c5b	-0.06066547
245	0xbd9f1bf2	-0.07769002
246	0x3da18012	0.078857556
247	0xbd72c4bd	-0.059269655
248	0xbd6982f1	-0.05700964
249	0xbd0d4a19	-0.034494493
250	0x3dba9608	0.091106474
251	0x3dc29fee	0.095031604
252	0x3cf30a08	0.02966787
253	0xbc5e4fe4	-0.013568852
254	0x3dbd4dc7	0.092433505
255	0x3d6c72f1	0.057726804

linear_2.bias f4 [2]
0	0xbdb44fbc	-0.088042706
1	0xbd4aaa3b	-0.04947875
