project_3_inny/models/iris_mlp.pth (torch, 6232 bytes, 4 tensors)

linear_1.weight f4 [128, 4]
000000 c5 ea 34 be 17 42 36 3e 83 a5 ed be 26 87 34 3e
       -0.17667682 0.17798649 -0.46415338 0.1762968
000010 b2 66 f1 b9 80 f5 9c be a6 28 07 3e 50 dd 89 be
       -0.00046043616 -0.30656052 0.131991 -0.2692666
000020 44 e7 e9 3d 2a 01 9e 3e 3e 28 72 be c2 38 a9 3c
       0.114210635 0.30860263 -0.23648164 0.020656947
000030 5e 3f 12 3d 9f 17 d7 be 60 36 0b bb 52 e9 9f 3e
       0.035704963 -0.4201021 -0.0021242127 0.31232697
000040 af 7d 2a be 31 2f 8e bd e8 63 9c be b0 31 65 3e
       -0.16649507 -0.06942595 -0.30544972 0.22382236
000050 5b a8 31 3e 5d 1e 29 3d a0 c0 7c 3e f6 73 b3 3d
       0.17349379 0.041288722 0.24682856 0.08762352
000060 fb 5e a3 3e f0 b7 8c bd af 17 34 3e b7 05 22 be
       0.31908402 -0.06871021 0.1758716 -0.15822493
000070 f6 e3 d5 bd 9c 84 df 3e c4 93 a0 3e 3c c3 63 be
       -0.10443871 0.4365586 0.31362736 -0.22242445
000080 68 07 ff 3b 6e 81 e3 be 75 b2 7e 3e 62 77 8f be
       0.0077828653 -0.44434685 0.24872763 -0.2802077
000090 2d c1 8b be 5f b4 00 3f 83 77 fb be 6b fb a7 be
       -0.2729582 0.50275224 -0.49114618 -0.32809004
0000a0 b2 02 e4 bd 06 7b d4 be 2c 5e d7 be 1a f9 5b 3e
       -0.111333266 -0.4150011 -0.42064035 0.21481743
0000b0 36 61 91 3e 15 84 2c 3e 06 95 8c 3d 31 ac 8f 3e
       0.2839448 0.1684726 0.068643615 0.2806106
0000c0 b3 31 f3 be 55 30 a2 3d 57 8e cc 3b 41 ae d8 bc
       -0.47498855 0.07919375 0.006242554 -0.026450278
0000d0 e8 32 f5 be 66 d0 fe be d8 f2 42 3c 95 e3 a9 be
       -0.478904 -0.4976837 0.011898719 -0.33181444
0000e0 39 31 41 3d 82 33 a7 bd 55 a4 de 3e 7b e4 ba 3e
       0.047166083 -0.08164121 0.4348475 0.36502442
0000f0 4e 15 82 3b d5 19 f5 3e 1f bf 37 3e 85 12 4d 3e
       0.003969825 0.4787127 0.17944 0.20026596
000100 6b d6 30 be f6 97 77 be 16 49 e1 3e d0 1e f0 3e
       -0.17269294 -0.24179062 0.44001073 0.46898508
000110 94 b0 b0 3e f0 40 e7 bd 9a da ec 3d 85 9f 4d be
       0.34509718 -0.11291683 0.115651324 -0.20080383
000120 5e c2 c3 3e b7 9d 23 3e e8 ea e1 3e b8 b9 c7 be
       0.38234228 0.15978132 0.44124532 -0.3900888
000130 19 18 c7 3e 87 8a 1f be 98 e5 e1 3e 35 15 ef 3a
       0.38885573 -0.15580188 0.4412048 0.0018240573
000140 f4 dc 66 be 90 bb d2 3e 7d 65 bb bd cd 49 66 3e
       -0.22545224 0.41158724 -0.09150217 0.2248909
000150 0d 43 c6 bd c4 b3 a0 3c f6 0a b2 be 5f dc 74 be
       -0.09680758 0.019616969 -0.34773988 -0.2391219
000160 d6 6d ce 3e b7 27 1c bd 38 9f 2c be 6a 6e 92 be
       0.40318173 -0.038123813 -0.16857612 -0.28599864
000170 7e 1b c6 3e 79 70 5e be d8 86 3a be ee fa 39 be
       0.3869285 -0.21722592 -0.18215501 -0.18162128
000180 ad c8 25 be f7 7b bb be 9a b5 ba 3e 7e 48 d1 be
       -0.16189833 -0.36618015 0.36466676 -0.4087562
000190 3c 3c 66 3c bd cb cb be 29 15 b9 be d7 b7 0c 3e
       0.014052447 -0.39803877 -0.36148956 0.13742004
0001a0 03 08 fa 3e a3 dd bb be f6 09 2d 3e ea 04 a3 be
       0.48834237 -0.36692533 0.16898331 -0.31839687
0001b0 a4 23 ce 3e 88 22 41 be 90 da 6c 3d 80 42 93 be
       0.40261567 -0.18860829 0.057825625 -0.28761673
0001c0 76 ad f1 3e 98 47 e6 be c2 b3 c7 be 09 48 de be
       0.47202653 -0.44976497 -0.39004332 -0.43414333
0001d0 32 85 f3 be c3 6d b6 be 90 f1 de be fc f7 47 be
       -0.47562557 -0.35630617 -0.43543673 -0.19528192
0001e0 31 f0 9a 3e 3e 82 43 3e e0 1a 2c 3e 95 73 28 be
       0.30261377 0.19092652 0.16807127 -0.16450341
0001f0 43 f0 49 3e b0 cd 79 be 6d 99 c4 be d5 4a ce be
       0.19720559 -0.2439487 -0.38398305 -0.40291467
000200 92 3e e4 be 1e 80 1f be 66 00 15 3e ff ff 87 bd
       -0.44578987 -0.15576217 0.14550933 -0.06640624
000210 63 06 96 3e e4 ba c9 be 14 eb 19 3e 11 ea b0 3e
       0.29301748 -0.394004 0.15031081 0.34553578
000220 b6 f2 12 3d a6 28 4d 3e c6 35 de bd a8 2a fe bc
       0.035876 0.20035037 -0.108501 -0.0310262
000230 68 60 13 3e 89 6a 7c bd c7 1b 65 be 69 4b 83 3e
       0.14392245 -0.061625037 -0.22373877 0.2564347
000240 e6 de 8f be 85 05 cc bd 0d 69 93 be b2 b2 b5 be
       -0.28099746 -0.0996199 -0.28791085 -0.35487896
000250 27 e3 41 3e 79 bc ee 3e 5a 2a 03 3e ad a1 8b be
       0.18934308 0.46628168 0.12809125 -0.27271786
000260 8a 38 24 3d 73 47 7b 3e af 2d 50 be 04 be fd bd
       0.040092982 0.24538974 -0.20329927 -0.12389758
000270 4f b9 09 3d 48 89 25 be f8 5f f5 bc c2 9c 03 3f
       0.03362399 -0.1616565 -0.029952988 0.5141107
000280 95 b3 91 3e 01 13 28 bc 53 df 59 be f1 0a eb 3e
       0.28457323 -0.010258437 -0.21276598 0.45906785
000290 40 15 c3 3e 71 63 72 be e8 f8 bc bd 90 8e 9d be
       0.3810215 -0.23670746 -0.092271626 -0.3077283
0002a0 db f9 63 3e 45 c9 17 be e0 70 b0 be c6 49 51 3d
       0.22263281 -0.14822872 -0.34461117 0.051095746
0002b0 b3 95 ec be 82 d3 b6 3d d0 a8 ae 3e f2 28 b0 bd
       -0.4620796 0.08927061 0.3411317 -0.0860156
0002c0 65 ac 83 3e 7c dd fd bd 05 6d 97 be 83 fd b6 be
       0.25717464 -0.123957604 -0.29575363 -0.3574029
0002d0 2b 33 dc 3c d8 59 da 3e 1f 6a 67 be d3 ff 7d be
       0.026879868 0.4264667 -0.22599076 -0.2480462
0002e0 f5 88 a0 3d 66 cc 3f be 45 0c 73 3d 92 bd e9 bd
       0.078386225 -0.18730316 0.059337873 -0.11413111
0002f0 2e e3 b1 3d 89 a5 50 bd 30 8a 02 bf c1 6f 75 3e
       0.08685909 -0.050939117 -0.5099211 0.23968412
000300 db 18 2c 3d e4 34 da 3e b4 59 b2 3d d2 1e d3 be
       0.04201589 0.42618477 0.08708516 -0.41234452
000310 0c 1e dc 3e 04 c3 1a be 8d 63 db 3d c0 22 86 3e
       0.42991674 -0.15113455 0.10712347 0.26198387
000320 ff a2 dd 3d 68 b8 79 3e 4e d8 c1 be a3 b2 48 be
       0.10822105 0.24386752 -0.3786034 -0.19599395
000330 73 98 ac 3e a9 5a 38 be d6 c2 c4 3e 36 c7 de 3c
       0.3371006 -0.18003334 0.38429898 0.0271946
000340 cb 39 d9 3e 02 8d 8f be 3f 8f 96 be 23 91 21 3e
       0.42426905 -0.28037268 -0.29406163 0.15778022
000350 9a ea dc 3d 05 50 8a be e9 03 a9 3e 50 81 d6 3e
       0.10786934 -0.27014175 0.33010796 0.41895533
000360 0a aa 8b be e6 4f 84 be 9f 37 87 3e a8 20 70 3e
       -0.27278167 -0.25842208 0.26409623 0.23449957
000370 b9 eb e1 be b5 d9 c4 bd c3 77 c4 bd 46 93 41 be
       -0.44125155 -0.09611837 -0.09593155 -0.18903837
000380 a6 93 5c 3e b4 e1 8e 3c 90 6e 70 3e a4 59 a1 bd
       0.21540698 0.017441608 0.23479676 -0.07878426
000390 e8 90 11 bd f7 71 9a be 56 39 e1 3d ad 47 ed 3e
       -0.035538584 -0.30165073 0.10997264 0.46343747
0003a0 3e f1 ee be 45 9c cf bd d6 34 19 be 7e 74 ae 3e
       -0.46668428 -0.10137228 -0.14961562 0.3407325
0003b0 12 57 34 be 74 77 a9 be 35 dd 16 3e 6a 71 d9 bd
       -0.1761134 -0.33098948 0.14732821 -0.10617335
0003c0 0e 33 2a 3d 2a 85 f6 be 3a 58 dd be 73 ad 1d 3d
       0.041552596 -0.4814847 -0.43231374 0.038495492
0003d0 36 d3 88 bd b6 3d 65 bd c6 2a 83 3e 4e 22 26 3e
       -0.0668091 -0.055967055 0.2561857 0.16224024
0003e0 9d d2 ad be 70 a7 a2 be aa 36 71 be e0 20 dc be
       -0.33949748 -0.3176837 -0.23556009 -0.42993832
0003f0 b6 02 5d be e3 aa 18 3e 8e b9 88 be e4 79 a5 3e
       -0.21583065 0.14908938 -0.26704067 0.32319558

linear_1.bias f4 [128]
000000 16 d1 69 3d 5f c4 24 3e 6d 07 90 be 52 85 e5 be
       0.057084166 0.16090535 -0.28130665 -0.44828278
000010 88 99 d1 be aa 7b 30 be f1 91 81 bd 66 59 17 3e
       -0.40937448 -0.17234674 -0.06326664 0.14780197
000020 e5 21 d7 3d 52 d9 42 3e 27 ec 7e be 3f 4a 09 3e
       0.10504512 0.19028214 -0.24894772 0.13407229
000030 60 83 b7 3e 3d 97 ac 3e 8e dc bd be 0d bf 50 3e
       0.3584242 0.33709136 -0.37082332 0.2038538
000040 23 8f 54 be 5b ff 1c 3e ba fd 3f 3e 8c 7a 04 bf
       -0.20757727 0.15331785 0.18749133 -0.5174949
000050 20 b3 b9 3e 4f 78 92 bd ec c3 ea bc 51 56 d4 3e
       0.36269474 -0.07151853 -0.028657876 0.41472104
000060 f2 5a 12 3e c8 c7 83 be 25 2d 60 be 8d 5c 6c be
       0.14292505 -0.25738358 -0.21892221 -0.2308218
000070 48 aa c1 be b3 8a f0 3e 65 82 9e 3d ab 00 76 bc
       -0.37825227 0.4698082 0.077397145 -0.015014808
000080 25 2f 9c be a4 3b a6 be 82 a8 d6 bd 1d d2 93 3d
       -0.30504718 -0.32467377 -0.10481359 0.0721781
000090 ef 44 ad 3e d3 d4 c9 3e e1 8a 23 be 6a f8 f2 be
       0.33841655 0.39420184 -0.15970947 -0.4745515
0000a0 4a 1c ac bd 6d f2 1e 3e 31 9b 51 be 08 49 05 be
       -0.08403833 0.15522166 -0.20469357 -0.1301614
0000b0 06 30 c6 3e 1b 33 dc be c7 5a 3c 3e 30 a0 bd 3e
       0.38708514 -0.4300774 0.18394004 0.37036276
0000c0 1c 8f f8 3c 03 ec 9f 3d 4b 29 ed be b5 8b 59 3e
       0.030341677 0.078086875 -0.46320567 0.212447
0000d0 5c 7e 8a 3e 4c bf 23 3d 13 18 98 3e ec 32 58 3d
       0.2704953 0.039977357 0.29705867 0.052782938
0000e0 96 68 d8 3e 3b 9c f6 bd 51 78 e4 3e 9d 9b e2 be
       0.42267293 -0.12041517 0.44623044 -0.4425935
0000f0 8e 02 b0 be a7 2a 5e be e7 85 f0 3c a2 30 66 3e
       -0.3437695 -0.21695958 0.029360725 0.2247949
000100 db 7d f6 3e 4a af 06 3e 79 fc 98 3e 49 2c e6 be
       0.48142895 0.13152805 0.2988012 -0.44955662
000110 0a 5a b4 be cc 1f f3 be 7e 4a 9c be de e2 a3 bc
       -0.35224944 -0.47485197 -0.30525583 -0.02000564
000120 cd c0 37 be 07 3d 63 be c9 e3 23 3e f4 be e5 3d
       -0.17944641 -0.22191249 0.16004862 0.11218062
000130 f8 d0 ee be 43 fe 33 3c 5f 30 5c be 61 a5 3a 3e
       -0.46643806 0.010985914 -0.21502827 0.1822715
000140 14 22 d1 3d 57 39 a7 3d 39 5f 97 be 6e 0f fc bd
       0.10211578 0.081652336 -0.29564837 -0.123076305
000150 c9 82 14 3e db 86 89 3d 3f 03 25 3e 75 0f 3e be
       0.14503016 0.06715175 0.1611452 -0.18560584
000160 51 48 57 be 5d fb 3c 3e 38 07 b0 3e 79 8c 59 be
       -0.2102368 0.18455262 0.34380507 -0.21244992
000170 c6 cb 50 bd 15 31 a5 be 05 39 13 be 71 c2 72 be
       -0.050975583 -0.3226401 -0.1437722 -0.23706986
000180 c0 0c bb be 86 a9 79 be 74 1d e5 3e fa a2 3e be
       -0.36533165 -0.24381074 0.44749033 -0.18616858
000190 89 eb 10 be 35 fb a6 3d d3 4b 80 bc 28 dc b3 3e
       -0.1415235 0.08153383 -0.015661156 0.35128903
0001a0 9c f9 f7 3e 1d aa 22 be 1d d8 96 be 29 d3 23 3d
       0.48432624 -0.15885206 -0.29461756 0.0399963
0001b0 89 37 81 3e 73 8d 5b 3e 5f b5 b8 3e 37 1f 29 be
       0.25237682 0.21440677 0.36075875 -0.16515814
0001c0 85 18 61 3d 31 d3 b0 bd d6 b6 87 3e 2f 9b dd be
       0.054955024 -0.086340316 0.2650668 -0.43282458
0001d0 ab 98 ab bd c1 86 6e be 36 67 87 be 24 2a e9 3e
       -0.083787285 -0.23293592 -0.2644593 0.45539963
0001e0 54 90 d3 bc e1 e1 d8 be f1 bc f7 3e 0e 32 36 be
       -0.025825657 -0.42359832 0.48386338 -0.17792532
0001f0 72 44 94 bd 01 7e 1e be 17 77 cc 3e 1e f8 d0 be
       -0.072396174 -0.15477754 0.39934608 -0.40814298

linear_2.weight f4 [3, 128]
000000 18 a3 b4 bc 22 80 be bd de 1c b9 3d c3 df 65 bd
       -0.022050425 -0.09301783 0.09038709 -0.0561216
000010 38 58 e0 3a 39 1c 79 3d 9d 4e 16 3d 9e 5e 5c 3d
       0.0017116135 0.06081793 0.036696065 0.05380117
000020 89 59 2c bd 20 ad 2d 3d 23 e4 8e bc 37 20 21 bd
       -0.042077575 0.042401433 -0.017442768 -0.039337363
000030 8b be 77 3d 5f a9 28 bc 5d 0b 49 3d ec 08 87 bd
       0.06048445 -0.010294287 0.049083102 -0.065934986
000040 19 e0 ee bc bc 7a 82 3d f4 6d bf 3c 7d fd 1c 3b
       -0.029159592 0.06371066 0.02336786 0.0023954802
000050 51 8c b0 bc 82 2d 04 bd c2 9f 31 3d 9b db 61 bb
       -0.021551283 -0.032269962 0.043365248 -0.003446317
000060 77 28 bf bd 37 fc 1f 3c 07 bc 87 3d 3a 73 c9 bd
       -0.0933389 0.009764723 0.0662766 -0.09836431
000070 b2 8e 1a 3c fa 5a d0 3d 39 6a 12 3d 8f a1 17 3d
       0.009433435 0.101736024 0.035745833 0.03701931
000080 ef 17 4d bd f8 2b 7a 3c c5 26 08 3c 52 6e 5c 3d
       -0.050071653 0.015269272 0.008310025 0.053816147
000090 fe f5 3c 3d aa 80 19 3d 6f d3 85 bc 34 48 84 bd
       0.046133034 0.03747622 -0.016336171 -0.06459084
0000a0 26 0c b4 bd 2b 72 87 3c c2 0c d6 bc d4 46 49 3d
       -0.0879138 0.016533932 -0.02612913 0.049139813
0000b0 00 08 9d 3d c8 6f ab 3d 1b 3e ba bd cf 01 35 bd
       0.076675415 0.0837093 -0.09093877 -0.044191178
0000c0 f0 b6 4d 3d fe 86 61 3d 5f 81 55 bc b4 93 bd bd
       0.05022329 0.05506038 -0.013031333 -0.09256688
0000d0 05 3b 9c bd e4 8b 84 3d 94 01 d5 bd f7 94 3f bb
       -0.076284446 0.064719945 -0.10400692 -0.0029233077
0000e0 45 62 4a 3d cd a4 4b bc d3 10 81 bd f4 96 7b 3c
       0.049410123 -0.012429428 -0.06302037 0.015355814
0000f0 71 21 8b 3d 0d 6e 7a 3d 1e 44 c2 3d 58 b6 1d 3d
       0.06793488 0.06114011 0.094856486 0.038503975
000100 96 58 2e bd 42 ec 44 bd 49 01 b3 bc c1 ec 8b 3c
       -0.04256495 -0.048076876 -0.021851199 0.017080666
000110 5e 08 d7 3c 33 5a 01 bd b9 24 52 3c 5c 81 bc 3d
       0.026249107 -0.03158016 0.012826138 0.09204361
000120 5c bf 1c 3b f6 d5 cb 3a 07 65 04 bd 8e 9e 4d bd
       0.002391777 0.0015551436 -0.03232291 -0.050200038
000130 fe 94 00 3d b2 dd 48 bd 31 1f 00 bd f2 6c 93 bd
       0.03139209 -0.04903955 -0.031279746 -0.07198514
000140 9d af 17 3d 96 21 8b 3d 06 84 50 3d 31 f2 8d 3d
       0.037032712 0.067935154 0.050907157 0.0693096
000150 6d 62 55 bd eb 4b bf bc 81 5c ab bd c1 45 fc 3c
       -0.05209582 -0.02335163 -0.08367253 0.03079498
000160 f0 8c 44 3c 3f 9a 10 bd 5c 5e 34 bd 3a 3b e4 bc
       0.011996493 -0.03530335 -0.0440353 -0.027860273
000170 36 38 83 bd 94 9a 80 bd 67 44 a0 bd f8 24 aa bd
       -0.06407206 -0.062794834 -0.07825547 -0.083078325
000180 31 aa 8c 3d 2a 0d 84 bd ab 89 c6 bd ca f8 9a 3d
       0.06868399 -0.06447823 -0.09694227 0.07566984
000190 d0 63 84 3b e2 94 95 3d d1 7c 79 bd cc 9b 27 3d
       0.004040219 0.07303788 -0.06091005 0.040920064
0001a0 43 b2 8a 3c b8 94 ec bc 90 29 85 bd b6 67 21 bd
       0.016930705 -0.028879508 -0.06502068 -0.039405547
0001b0 75 66 2c 3c 21 b8 87 bd 95 ba 84 bd 53 35 3d bd
       0.010522475 -0.06626917 -0.064809 -0.046193432
0001c0 4d 3a d6 bd f2 97 12 bd c6 a2 a2 bd 65 93 81 bd
       -0.10460339 -0.035789438 -0.07941203 -0.063269414
0001d0 b1 e4 44 bd 5f d6 85 3c 67 50 c8 3c 5f 91 01 bd
       -0.04806966 0.016337572 0.024452401 -0.031632777
0001e0 10 d2 94 3d 6c c0 8b bd 55 30 60 3d 40 8f bd bb
       0.07266629 -0.06823811 0.054733593 -0.005784899
0001f0 3f ae d5 bc 60 7f bb bd 7b 69 2c 3d 1e b1 2b 3d
       -0.026084064 -0.09155154 0.04209278 0.04191696
000200 7b 4d c3 bd b2 81 c1 bc de 37 00 bd e3 00 70 3c
       -0.095362626 -0.023621414 -0.03130328 0.014648649
000210 4c 66 4e bd 6c cc 86 3d 9c 45 29 3d a9 b9 39 bd
       -0.050390527 0.06581959 0.04132615 -0.045343075
000220 06 f1 cb bc 93 0e 96 bd 22 d7 16 3c e2 81 2c 3d
       -0.024895202 -0.073269986 0.009206565 0.042116053
000230 f4 bd a5 bb 41 93 42 3c 3a da 32 bd 5e 55 70 bd
       -0.0050580446 0.011875928 -0.04366515 -0.058675162
000240 23 fd 61 3d 6c 8f 09 bb d8 15 9d bc 26 54 b9 bd
       0.05517305 -0.0020990027 -0.019175455 -0.09049253
000250 d3 f6 6f 3b 37 2a 90 bd 9a 52 3e bd a6 2d c9 bc
       0.0036615625 -0.07039302 -0.046465494 -0.0245579
000260 b4 c7 50 bd f1 6e 63 bd b1 f0 31 bb e7 db b3 3d
       -0.0509717 -0.055525724 -0.002715152 0.087821774
000270 af a7 8e 3d 1d 17 19 bd 45 b5 80 bd 1c 6c c5 bd
       0.06965577 -0.03737556 -0.062845744 -0.09639761
000280 c8 c6 ab 3c 03 30 dd bb cc 86 e3 39 17 f9 4d 3c
       0.02096881 -0.006750108 0.00043397245 0.012571595
000290 b3 50 3d bd 8b 32 5a bd 8a b4 4b 3c 96 e7 66 bc
       -0.04621954 -0.053270858 0.012433181 -0.0140933
0002a0 46 7e 7e bd ea 5d 81 bc af e5 e8 bc 8c bf 80 bd
       -0.062132142 -0.015791852 -0.028429834 -0.06286535
0002b0 92 ba 92 3d 9c 3c ae bc ed ab 95 3d 28 a9 cb bc
       0.07164492 -0.021269135 0.07308183 -0.024860933
0002c0 cd 2c 2a bd b2 26 eb 3c 9f 1b d7 bc 45 49 10 bd
       -0.04154663 0.028704975 -0.026258288 -0.035226125
0002d0 f7 53 7b bc ba 55 c3 bd 18 be ca 3d f2 d6 30 3d
       -0.015339843 -0.095378354 0.09899539 0.043173738
0002e0 31 b0 11 3d b0 a7 92 bc 6e a2 a3 bd 47 8e ca 3c
       0.03556842 -0.017902225 -0.079899654 0.024726046
0002f0 be f5 d0 3b 49 a5 b0 3c 41 3d cd bd 2c 1b 09 bc
       0.006376951 0.02156319 -0.10021449 -0.008368295
000300 48 7e 48 bd 29 f5 eb 3c 45 90 de bc 23 1d 10 bd
       -0.048948556 0.028803425 -0.027168402 -0.035184037
000310 ed 76 03 bd 0b d4 c0 bd 3a 7f 22 bc c0 37 31 bc
       -0.03209584 -0.09415444 -0.0099180285 -0.0108165145
000320 05 d2 92 3c 7b 52 76 3d 73 b6 02 bd d5 66 80 bc
       0.01792241 0.060137253 -0.03191228 -0.015674034
000330 2d 7c 00 bd 17 d0 4b 3c 49 e2 3e 3d e9 30 ac 3c
       -0.031368423 0.012439749 0.04660252 0.021019416
000340 fc de fd bb c2 64 f7 3b 69 b0 31 bd fb af 69 3d
       -0.007747529 0.007549853 -0.04338113 0.057052594
000350 c3 08 8c 3d 61 03 ac bd f5 75 90 bc ce 41 d6 bc
       0.06837609 -0.08399082 -0.017634371 -0.026154425
000360 55 77 12 3d 9a b0 77 3b cb 84 63 bd 4c c9 30 bd
       0.035758335 0.0037794472 -0.055546563 -0.04316072
000370 c9 ee 6f bd 10 ff c4 3d 21 fd 9b 3d 73 3d b2 3c
       -0.058577333 0.09618962 0.0761664 0.021757817
000380 57 55 80 3d d0 db 83 bd 6b 69 6e 3d 4e 7b 8b bd
       0.06266277 -0.0643841 0.058206003 -0.06810628
000390 16 9b 5c 3c e6 5a d1 3c bc f5 02 3d c4 30 09 3d
       0.01346471 0.025556039 0.03197263 0.033493772
0003a0 86 be 87 3d 06 47 d6 bd 20 92 57 3d be 75 ca bc
       0.06628136 -0.104627654 0.05262959 -0.024714347
0003b0 28 36 80 bc df 19 cb bd 70 a2 83 3d d1 95 90 bd
       -0.015650824 -0.09917044 0.06427467 -0.07059825
0003c0 c9 5f b2 3d fe d9 c5 3d ca 96 d9 bc 49 b9 94 bd
       0.08709676 0.09660719 -0.02656116 -0.07261903
0003d0 6e 93 28 3d 8c 9b 2e 3d 6a ba d3 3d 1e 00 e5 bc
       0.041156225 0.04262881 0.1033829 -0.027954157
0003e0 ce a2 a8 bd 50 98 7c bd 90 97 e8 b8 7b f7 07 bd
       -0.082341775 -0.061668694 -0.00011090853 -0.033195
0003f0 8c 3b e4 3c 5b 5b 33 bd f7 55 b9 bd 84 6e 86 bd
       0.027860425 -0.043788295 -0.090495996 -0.06564048

linear_2.bias f4 [3]
000000 03 54 87 bd c4 e6 87 3d aa 16 8f bd
       -0.06607821 0.06635812 -0.06986745
