project_3_inny/models/mnist_cnn2.pth (torch, 112290 bytes, 24 tensors)

feature_extractor.0.weight f4 [32, 1, 3, 3]
000000 9a d0 d1 3e c9 93 fe bd 3b fa 90 be 90 3a 77 bc
       0.40979463 -0.124305315 -0.2831591 -0.015089646
000010 3c 9b eb be 2b 7e 72 3d 5a c6 2f bd e1 68 fa bd
       -0.46016872 0.059202354 -0.042913772 -0.12227035
000020 c7 41 a7 3e 98 53 9f 3e 6d 5f a5 be c2 c0 99 3e
       0.32667372 0.31118464 -0.32299367 0.30029875
000030 ed 1b 91 be d8 fe 3d be 77 71 b4 3e 9f 56 a4 be
       -0.28341618 -0.18554246 0.35242817 -0.32097337
000040 ec 7f 97 3d 2b ab 8b 3e f9 a8 9e be 4e 42 a1 3e
       0.07397446 0.27279028 -0.3098829 0.314959
000050 56 6a f5 3a 50 f5 d6 b9 04 5c c2 be 1a 0f e3 bc
       0.0018723707 -0.00041000033 -0.37960827 -0.027717162
000060 64 95 75 3e ed e7 d0 3c d6 f4 50 be a7 60 a2 be
       0.23982769 0.025501216 -0.20405897 -0.31714365
000070 ca b7 0f be 30 11 f3 3d 75 a8 90 bd 0c 59 8d be
       -0.14034954 0.11868513 -0.07063381 -0.27607
000080 5c 03 8a be d8 a9 ce 3e a0 ec dc bd 4c a5 99 bd
       -0.26955688 0.40363955 -0.1078732 -0.07502231
000090 b7 2d 80 be dd c7 c5 bd 18 ae 0b be 8c e8 36 3e
       -0.25034878 -0.096572615 -0.1364063 0.17862147
0000a0 74 66 8d 3e cc 01 b1 3e 2e 5e 24 3e 7d ab af be
       0.27617228 0.34571683 0.16051552 -0.34310523
0000b0 f6 14 51 be f6 dc ad bd 98 8a 9c 3e 85 82 ce be
       -0.20418152 -0.084894106 0.3057449 -0.40333953
0000c0 f4 0d 01 3e c5 b7 25 3e 18 4f 92 be fe 06 c6 3d
       0.12602979 0.16183384 -0.2857597 0.096693024
0000d0 35 07 5a be ff 4d 07 be 84 5c 78 be 65 06 3d be
       -0.21291812 -0.13213347 -0.24254042 -0.1845947
0000e0 d3 da 96 be c9 64 22 3d 4f b0 2b 3e 37 08 7c be
       -0.29463825 0.039646897 0.16766475 -0.24612509
0000f0 16 12 06 3e 5d 84 a7 3c ce 40 d2 3e 87 83 84 3e
       0.13092837 0.020448858 0.41065067 0.25881597
000100 85 d2 43 3e e0 2d 0d 3e fa c1 12 3d b1 59 8e bd
       0.19123276 0.13787031 0.03582952 -0.06950701
000110 50 5b 5f 3e 8b 81 95 3d e4 de e6 bd 1c e6 dc 3e
       0.21812177 0.07300099 -0.11272982 0.4314431
000120 41 cf 22 be 50 0f 22 be e8 70 14 3e 93 ba 40 be
       -0.15899374 -0.15826154 0.14496195 -0.18821172
000130 a7 42 15 be 6e 0d a1 3e 7f f0 98 be 46 59 21 3e
       -0.14576207 0.3145556 -0.29870984 0.15756711
000140 c8 33 08 3e b5 40 18 bd 7e 15 d4 3d f3 c0 4a 3e
       0.13301003 -0.037171084 0.10355662 0.19800167
000150 dd 06 a6 3e bd 1c c1 3e 4c 37 e0 bd 50 7e 3c bd
       0.3242711 0.37717238 -0.10948047 -0.0460189
000160 e5 72 b8 be 81 84 ad be 99 b6 80 be e6 01 80 3e
       -0.36025158 -0.33890155 -0.2513931 0.25001448
000170 f9 8c 83 3e d2 48 93 be 94 2c 3a 3e 01 c1 3f be
       0.2569349 -0.28766495 0.18181068 -0.18725969
000180 9a 17 b0 3e da bf 68 3e 5f 93 89 3e ab 9f 54 3e
       0.34393007 0.22729436 0.26870248 0.20764033
000190 fc e6 df be 13 9d 0e 3d b6 f0 b1 be 9d 9f 13 3c
       -0.43730915 0.034817766 -0.3475396 0.009010223
0001a0 9f 48 80 3e e1 e9 a6 3e 1c e0 2f bd 8e c2 cb 3d
       0.25055405 0.3260031 -0.042938337 0.09949218
0001b0 4e bc c5 ba d8 e1 22 3e db 4f 48 3e 6c 97 99 3d
       -0.0015086026 0.15906465 0.19561712 0.074995846
0001c0 af 63 f2 bb 59 68 90 3e 92 60 4d be dd a3 64 be
       -0.007397137 0.2820461 -0.2005637 -0.22328134
0001d0 ea fb da be c6 8f bf 3c 8c 03 b6 be e9 d9 c4 bd
       -0.4277032 0.023383986 -0.3554958 -0.096118756
0001e0 db e5 6c 3e 87 90 f0 bd 37 35 a9 3d 49 2e 89 3e
       0.23134558 -0.117463164 0.08262103 0.26793125
0001f0 99 3e 8a bc d1 35 04 3c 73 88 85 be a3 1b 6e be
       -0.016875552 0.008069471 -0.26080665 -0.2325273
000200 47 3e 32 3d d9 6e 92 3e ff 56 3a be 6e 21 cc bd
       0.043516424 0.28600195 -0.18197249 -0.09967314
000210 44 3e 05 be f1 d3 40 3e 3d c8 1f 3e d1 2e 12 be
       -0.13012034 0.18830849 0.15603729 -0.14275672
000220 6f fa 16 be b1 e6 b3 be 40 e9 0a be ff 24 59 be
       -0.1474397 -0.3513694 -0.1356554 -0.21205519
000230 20 24 52 3c c9 b8 cc be 48 10 c5 3d 5d 11 c8 3e
       0.012825996 -0.3998473 0.09622246 0.39075747
000240 00 b4 5d 3e 71 48 25 be 7a e5 92 be 49 29 93 3e
       0.21650696 -0.16140915 -0.28690702 0.28742436
000250 f5 70 30 be b1 ef da be 70 27 eb 3e 79 79 94 3e
       -0.1723059 -0.42760995 0.45928526 0.28998926
000260 67 db 48 be b7 b7 4f 3d d9 f7 36 bd cd 7a b7 3d
       -0.19614945 0.050712314 -0.04466996 0.08958969
000270 9e 39 26 be 40 8e 47 be c3 f5 66 be 84 ce 22 3e
       -0.16232917 -0.19487858 -0.22554688 0.15899092
000280 15 11 b8 bd 8c 2a 8f 3e 31 7e 99 3e 3a 0c 50 3e
       -0.08987633 0.27962148 0.2997909 0.20317164
000290 84 8b 88 be 3f 89 11 3e 75 2a e6 bd 20 b1 62 bd
       -0.26668942 0.14212511 -0.11238567 -0.0553447
0002a0 b3 d5 9e 3e d2 40 9e be 2d 54 6a 3e 4b 21 b4 be
       0.31022415 -0.3090883 0.22883673 -0.3518165
0002b0 e1 2b 83 3c d7 a1 32 3e 95 1a b2 3e d8 93 42 be
       0.016012134 0.1744455 0.34785905 -0.1900171
0002c0 a9 95 06 3e 5b 9e 8a 3e ac 14 b3 be f7 8a 02 be
       0.13143028 0.2707394 -0.3497671 -0.12748323
0002d0 4a 85 64 be dd e8 8d bd 76 60 cd 3e dc d3 71 be
       -0.2231647 -0.06929181 0.40112656 -0.23615974
0002e0 f0 c3 1b be ae 13 52 3e a5 7d a4 be b7 ce 63 3e
       -0.15211463 0.2051532 -0.3212711 0.22246824
0002f0 20 dd 15 be 60 a1 23 be ec da 91 be 2a ce bd be
       -0.14635134 -0.15979528 -0.28487337 -0.37071353
000300 0a 2b 8b 3e 38 e5 b3 3e 2b 4f aa be 64 5b 3e be
       0.27181274 0.35135818 -0.33263525 -0.1858955
000310 74 de c7 3e df 06 8d be 4b f7 a1 be 0c d3 96 be
       0.39036906 -0.27544305 -0.31633982 -0.2945789
000320 3d 9b 54 3e c5 9a c3 bd 1c 88 80 3e d3 77 75 3e
       0.20762344 -0.09551004 0.25103843 0.2397149
000330 66 c5 1f 3d 7d 51 72 3e d1 ea e7 bd f5 9b d8 3d
       0.039006613 0.23663898 -0.113240846 0.105766214
000340 d5 39 5d 3e 3e 9f dd bc 89 4b 94 be f3 94 e2 3e
       0.21604092 -0.027053472 -0.2896388 0.44254264
000350 75 2e e8 3d 5c 08 bb be 16 82 f9 bd 56 7e 24 3e
       0.11336986 -0.36529815 -0.12183015 0.16063818
000360 4b 2e 21 3c fd 5c aa be 58 4f fc bd ff 49 c5 3e
       0.009837697 -0.3327407 -0.12319821 0.38533017
000370 86 68 5f 3e a8 d3 c6 be 04 a1 44 be 14 0c a2 3e
       0.21817216 -0.38833356 -0.19202048 0.3164984
000380 14 44 9e 3e 34 5f b3 3d ae 18 93 3e 13 da a8 3e
       0.30911314 0.08758393 0.28729767 0.32978877
000390 e3 3d ae be 6a de 8f bc 39 fd 88 be 46 b6 57 be
       -0.3403159 -0.01756211 -0.26755694 -0.21065626
0003a0 5b fa d2 bd bf cd ef bd 52 64 35 be 1e e8 8f 3e
       -0.10301658 -0.11709165 -0.1771405 0.2810678
0003b0 6a 8f 8a bd 95 56 6b be 95 5f 60 be 2e ac fa 3c
       -0.06765635 -0.22982247 -0.21911462 0.03059968
0003c0 05 e0 1d 3e 4b 70 74 bc 71 e7 85 be 19 c7 3c 3e
       0.15417488 -0.014919351 -0.26153138 0.18435325
0003d0 2a bf eb 3d e0 ca e4 bd de bd 34 bd 8c f8 2a 3e
       0.11511071 -0.11171508 -0.044126384 0.16696376
0003e0 a3 26 4a 3e 6b c4 b9 3e 03 78 9b 3d e5 1c 69 be
       0.19741301 0.36282668 0.0759125 -0.22764929
0003f0 a2 a2 b6 3e 13 5e d2 3e 4e 38 24 be 38 ba 00 3e
       0.35670954 0.41087398 -0.16037104 0.12571037

feature_extractor.0.bias f4 [32]
000000 56 c4 20 3e 7f d6 5c 3d de 9e e3 3c 93 48 8e be
       0.15699896 0.053915497 0.027785715 -0.27789745
000010 9c b2 05 3e b6 3f 18 3d ee 3f af bd 83 12 42 be
       0.13056415 0.037170134 -0.085571155 -0.18952374
000020 43 81 1d 3d 6d 4b 28 3c 4a d6 12 be 43 60 bb 3c
       0.03845335 0.010271889 -0.14339557 0.02287305
000030 2a a0 a1 3e d2 01 51 3e 09 c2 02 3e 01 92 98 be
       0.31567508 0.2041085 0.12769331 -0.29798892
000040 d2 e5 48 3d a6 33 47 be 75 c6 8b be a5 15 a1 be
       0.0490473 -0.19453296 -0.27299848 -0.31461826
000050 21 f8 40 3e da 19 9b 3d 51 f5 bf be 17 4b db be
       0.18844654 0.0757329 -0.3749185 -0.42830727
000060 37 e8 98 be 38 88 80 3c 40 27 b4 3d b1 8c ae 3c
       -0.29864666 0.015689954 0.08796549 0.021307321
000070 15 26 8a 3e ed ae 9b be 6a 2f a4 bd 1a 92 66 3e
       0.2698218 -0.30406895 -0.08016856 0.22516671

feature_extractor.1.weight f4 [32]
000000 27 bd b2 3f dd 22 9a 3f 29 fe 9d 3f c0 7b a8 3f
       1.3963975 1.204189 1.2343189 1.3162766
000010 85 f4 6d 3f 06 53 9a 3f 67 b5 8d 3f 8f d8 46 3f
       0.9295123 1.2056587 1.1070985 0.7767419
000020 a1 6e 91 3f 1e 23 9e 3f af b4 57 3f dc 2b 88 3f
       1.1361886 1.2354467 0.84260076 1.0638385
000030 ca dc a5 3f 36 f3 88 3f 56 4e 8a 3f 14 3c a2 3f
       1.2958004 1.0699222 1.0805156 1.2674584
000040 47 2a 9c 3f 89 ea 8a 3f 20 ae 2e 3f ac 17 9a 3f
       1.2200402 1.0852824 0.68234444 1.2038474
000050 12 f3 93 3f e9 03 b8 3f 93 d0 71 3f d2 f7 97 3f
       1.1558554 1.4376193 0.94458884 1.1872504
000060 e0 67 9a 3f 7d 78 97 3f 68 5b 94 3f 07 81 42 3f
       1.206295 1.1833645 1.1590395 0.7597813
000070 88 c9 8b 3f c8 36 84 3f 9e 48 8d 3f 1d 7d a1 3f
       1.0920877 1.0329218 1.1037786 1.2616307

feature_extractor.1.bias f4 [32]
000000 b5 20 0b bd 1b bb 43 be 83 be 21 bd 51 a4 c3 bd
       -0.03396674 -0.19114344 -0.039488327 -0.09552825
000010 d9 df 96 be 6a 5b 4b bd 89 d0 1e be 39 5c a3 be
       -0.29467657 -0.049647726 -0.15509237 -0.31906298
000020 bd 7a 22 be 04 0e 02 bd 37 fd 9a be bc 35 8e be
       -0.15867133 -0.031751648 -0.30271313 -0.2777537
000030 3b 55 3d be 88 07 0c be ec 81 0c be c4 d8 07 bd
       -0.18489544 -0.13674748 -0.13721436 -0.03316571
000040 3e 06 9b 3d 8b 16 af bd cd ca 6b be 17 d0 2c be
       0.0756955 -0.085492216 -0.23026581 -0.16876255
000050 52 8a 04 be e0 3c c7 3b bf 35 46 be e9 45 ac be
       -0.1294339 0.006080255 -0.1935644 -0.33647087
000060 c6 0f 0f bd ca cd 83 be 82 02 ff bc d9 e1 b8 be
       -0.034927152 -0.25742942 -0.031129126 -0.36109808
000070 f4 11 1a bd 99 f6 97 be 85 c1 7b be 52 e9 db 3d
       -0.037614778 -0.29680327 -0.2458554 0.10737862

feature_extractor.1.running_mean f4 [32]
000000 d6 ce d8 3e 36 07 b5 3e 4d ca cf 3e 45 38 66 3e
       0.42345303 0.35357064 0.4058403 0.22482403
000010 5d a4 2d 3e e8 57 f4 3e 24 b4 4d 3e 5a e0 25 bf
       0.16957231 0.47723317 0.2008825 -0.6479546
000020 4f 0a 98 3e 78 17 2c 3e fc 22 1b bf 38 57 31 3d
       0.29695365 0.16805828 -0.60600257 0.04329607
000030 db 16 e5 3e 59 1a 89 3e 08 d9 ea 3e 21 d6 4a 3e
       0.44744 0.26777914 0.45868707 0.19808246
000040 89 17 ea 3d 7c e2 39 bc 4f 5c 39 bf 05 bc 16 be
       0.1143027 -0.011345502 -0.72406477 -0.14720161
000050 31 00 13 3f 72 e9 e3 3e d8 30 a5 be 29 19 9c be
       0.5742217 0.44514042 -0.32263827 -0.30487946
000060 10 87 0f be 9d 57 a8 3e 78 76 f4 3e 57 0c b1 be
       -0.14016366 0.32879344 0.47746634 -0.34579727
000070 cc bf 08 3f cf 99 69 be 25 5c b1 3c 17 ae 06 3f
       0.5341766 -0.2281258 0.021650383 0.5260939

feature_extractor.1.running_var f4 [32]
000000 73 e4 b0 3d c9 f8 09 3e 18 92 8a 3d a1 c0 01 3e
       0.08637323 0.1347381 0.067661464 0.12671138
000010 fe 84 56 3d 3a 5f 09 3e 1a 57 a4 3d 6a 51 39 3e
       0.052372925 0.13415232 0.08024426 0.18097463
000020 53 57 c6 3d 05 5e 94 3d d2 34 83 3e ac d1 3d 3d
       0.096846245 0.07244495 0.25626236 0.046342537
000030 b0 90 84 3d c0 6d db 3c 8b 8a 9c 3d ce f5 56 3e
       0.064729095 0.026785731 0.076436125 0.20992205
000040 9c 46 32 3e 7c 3f f0 3c 26 54 6f 3e f5 d7 29 3d
       0.17409748 0.029327147 0.23371944 0.04146572
000050 78 c5 f9 3d db 89 04 3e 6d d7 9f 3d fd 32 fe 3c
       0.12195867 0.12943213 0.07804761 0.031030172
000060 87 04 80 3d 86 6f c9 3d 66 b9 87 3d d6 9a 57 3e
       0.062508635 0.098357245 0.06627159 0.21055159
000070 a1 53 24 3e 90 b3 d6 3d 35 2f 22 3d f6 b7 0f 3e
       0.16047527 0.104834676 0.0395958 0.1403502

feature_extractor.5.weight f4 [64, 32, 3, 3]
000000 1d 01 e7 3a 68 6c 56 be 79 14 33 be 8b 22 c7 bc
       0.0017624233 -0.20939791 -0.17488278 -0.024308464
000010 b3 71 ea bd 51 2f 1b 3e d8 aa 48 3d b9 62 14 3c
       -0.11447468 0.15154769 0.048991054 0.00905674
000020 46 b1 be 3c 4c 66 3f be e4 f2 e7 bb e3 5e ad be
       0.02327789 -0.18691367 -0.0070785154 -0.33861455
000030 dc 23 11 3d 95 bf a0 3d d9 d6 41 bd 17 07 f5 bd
       0.03543459 0.078490414 -0.047324035 -0.11964243
000040 c3 57 f4 bd fc 79 fd 3c 88 84 b0 3c 87 70 31 3c
       -0.11930802 0.030941956 0.02154757 0.010830051
000050 54 3a 5e bc ea fb 35 3e 14 4c c8 3c fa 5c ca bd
       -0.013563711 0.17771879 0.02445034 -0.09881015
000060 db 12 d6 3b 95 85 52 be c4 27 14 bc f1 6a 1d 3e
       0.0065330095 -0.2055877 -0.009042684 0.15372826
000070 a7 6f 1b 3e 15 24 c0 3d 10 a2 2c 3e 66 69 60 3d
       0.1517931 0.09381882 0.16858697 0.054788016
000080 d2 a8 05 be 57 96 c1 bd 3b 5a 05 be ac c2 9f 3d
       -0.13052681 -0.09452503 -0.13022701 0.078008026
000090 5f c7 14 bd b7 7c 3a bd ef d7 94 bc f4 a9 b4 3d
       -0.036322948 -0.045529094 -0.018169371 0.088214785
0000a0 ac f3 98 bc 2c 1b 6b bd fc 3f 0d 3e 7b 23 1f 3b
       -0.01867088 -0.05739896 0.1379394 0.0024282623
0000b0 1c f5 95 3d b2 ad d8 bd 50 43 c7 bd b9 a8 60 3d
       0.073221415 -0.10580005 -0.09729636 0.054848406
0000c0 b5 ba 46 3d f0 1e cf 3d ed 59 2d 3c 33 0f 7a bb
       0.0485179 0.10113323 0.010580522 -0.0038156032
0000d0 4c 2e ec 3d b0 35 4f be 0c 76 f2 3d f2 69 bd 3d
       0.11532268 -0.20235324 0.11838922 0.09248723
0000e0 f3 f8 e8 3d 88 a4 07 3e 7d c8 a2 3d cc ea 15 bd
       0.11375608 0.13246357 0.07948396 -0.036600873
0000f0 9a 39 90 bd de e1 04 3e 67 8a 72 bc d3 4b 9a bd
       -0.070422366 0.12976786 -0.0148035055 -0.075339936
000100 d1 48 e0 bd 3e b6 b8 be 66 1b 65 bd 20 5b 8d bd
       -0.109513886 -0.3607654 -0.055934332 -0.06902146
000110 5b 19 0c be 44 ff 40 3d ac 81 e7 bc ce 30 df bd
       -0.13681547 0.04711844 -0.028260075 -0.10897981
000120 90 57 d0 bd 83 a0 ee 3c f4 54 7f be ac 94 ad 3a
       -0.10172951 0.029129272 -0.24934751 0.001324316
000130 27 d8 7f 3d 35 08 00 bc f5 db 5e bd cb aa 7d 3a
       0.062462 -0.007814457 -0.054408986 0.0009676634
000140 46 1c 24 3d 07 96 7a bd 0d d1 17 be 69 2b 0d bd
       0.040066026 -0.061178233 -0.1482584 -0.034465227
000150 3c a9 71 bd 14 0e 4c 3c 0c 01 ed bc 91 ed fd 3d
       -0.058999285 0.012454528 -0.028931163 0.12398828
000160 f2 74 07 3e ce 97 22 bd b4 2b 18 be 9e 78 03 be
       0.13228205 -0.039695553 -0.14860421 -0.1283898
000170 5b 6a 42 be 6a bb 1d 3e b8 86 85 3c 5c 58 06 be
       -0.18985884 0.15403524 0.01629959 -0.13119644
000180 cf a1 51 3e f3 ce b0 3d 83 95 4e bd b7 2d 4e bd
       0.20471881 0.086332224 -0.050435554 -0.050336566
000190 5c 16 d5 bc 63 36 47 be b6 10 4d 3e 09 b8 fa 3c
       -0.026011638 -0.1945434 0.20025906 0.030605333
0001a0 19 ea 39 bb cf 20 e9 bd 26 96 14 be c3 3d 8f bc
       -0.0028368293 -0.11383211 -0.14510402 -0.017485505
0001b0 b8 a7 3d 3d f2 29 1c 3d 96 89 84 3d eb 9c be bd
       0.046302527 0.03812594 0.06471555 -0.093072735
0001c0 6d a3 d9 3c 2a 0c 11 3e ad d1 54 bb b9 fb c0 3d
       0.026567185 0.14164796 -0.003247361 0.09423012
0001d0 df eb 01 3e dc 11 a4 bd 95 74 bd bc 91 63 13 3e
       0.12687634 -0.08011219 -0.02312688 0.1439345
0001e0 d8 cd 00 3c ef 5a de bc 7b 60 22 bd 1a a5 a8 bc
       0.007861577 -0.02714297 -0.039642792 -0.020586539
0001f0 73 78 05 bd ec a0 00 3e 24 69 a6 3d 21 ec 99 3d
       -0.032585572 0.12561387 0.08125523 0.07515741
000200 42 b3 36 3c 53 6f 99 3d 41 c2 0b 3d ba 5f 87 bc
       0.011151137 0.074919365 0.0341208 -0.016525138
000210 b5 b0 ed bd bc a1 5a bd 08 6e 85 3c 93 75 3b 3e
       -0.1160597 -0.0533769 0.016287819 0.1830657
000220 8f ed 12 bd a6 87 40 3d 23 43 7e 3d 40 8c f7 3a
       -0.035871085 0.047004364 0.062075745 0.0018886402
000230 9f d3 8c 3d 9b 44 06 bc a6 74 b3 bd 70 bd 60 3d
       0.06876301 -0.008195068 -0.08762483 0.05486816
000240 85 d0 dc bd 4e 5b 80 3d 5f 2e 3b 3d 51 1f 04 bd
       -0.107819594 0.06267415 0.04569852 -0.03225643
000250 8d 05 1a bd af ec 10 bd d7 c6 c5 bc c1 ca 32 bb
       -0.03760295 -0.03538197 -0.024142666 -0.0027281495
000260 14 3b 69 3d e0 7c 0a 3e 61 07 ae 3d 4d 07 07 3d
       0.056941107 0.13524199 0.08497501 0.032965947
000270 d8 c0 a1 3d 72 c4 4e 3d bf f9 a5 3d 42 71 28 be
       0.0789811 0.050480314 0.08104276 -0.16449454
000280 e5 d9 86 bd f8 9e 73 bb d0 e2 c0 bd ae eb 4a be
       -0.06584529 -0.003717361 -0.09418261 -0.19816467
000290 90 ee 8e bc ed 87 71 bb e9 2e b5 bd 97 6d ab bd
       -0.01744774 -0.00368547 -0.08846838 -0.08370512
0002a0 d8 64 0b 3e 07 17 8d bd 59 dd 61 bd c7 8b 35 be
       0.13612688 -0.06889158 -0.055142734 -0.17729102
0002b0 19 c5 1a bd fd f3 a7 3d 34 c2 ab 3d 3d 5a 56 bd
       -0.037785623 0.08200834 0.08386651 -0.05233215
0002c0 20 27 b2 bd 40 bd 08 be be d8 4d be 33 68 62 3c
       -0.08698869 -0.13353443 -0.20102212 0.013818788
0002d0 ed fb 6d be b3 fa a4 3d ef 8f 7b 3d c0 f4 b0 bd
       -0.23240633 0.080556296 0.061416563 -0.08640432
0002e0 9c 45 65 3d ca 13 77 bd 9e 91 c7 3c f1 55 93 bc
       0.055974588 -0.060321607 0.024361428 -0.017985316
0002f0 ec 03 b6 3d 4a 0a ac 3d 77 8e 40 3e 9e d3 90 3d
       0.08887467 0.084004 0.18804346 0.07071613
000300 d9 d4 b6 3c 7e d0 0f 3e 3a cf 91 be 99 10 f0 bd
       0.02231829 0.14044377 -0.28478414 -0.11721916
000310 43 ae a3 3d eb 6b c1 bc ff ff 02 be c6 3f b4 bc
       0.07992222 -0.02361103 -0.12792967 -0.022003066
000320 6f 17 33 be 29 d3 58 bc 06 46 7b bd 7d b8 30 bd
       -0.17489408 -0.013233938 -0.061346076 -0.04314469
000330 b3 60 36 3d 27 ad 32 bd 44 fa d2 ba 1e 9a 64 be
       0.044525813 -0.043622162 -0.0016096313 -0.22324416
000340 60 82 61 bd 0d f5 02 be bb 75 94 bd 19 1f 1e be
       -0.055055976 -0.12788792 -0.07249018 -0.1544155
000350 df 50 c9 bd a7 2f 11 be 1b be f2 bd ac 16 62 3d
       -0.09829878 -0.14178334 -0.11852666 0.055197403
000360 b9 a1 0c 3d f8 69 1b 3d 09 7a 87 3d 2b 66 31 bd
       0.03433392 0.037942857 0.06615073 -0.043310326
000370 60 7b 36 3d 51 e2 3a 3c 4f 15 cc bd 44 ad 2d 3d
       0.044551253 0.011406497 -0.09965002 0.042401567
000380 f2 9c ab bd 04 35 5c bc 43 80 08 3e 09 7d 5f 3e
       -0.08379544 -0.013440374 0.13330178 0.21825041
000390 f1 b6 97 bd a8 d9 c6 bd 81 47 c2 bb 2a 03 fa bd
       -0.0740794 -0.097094834 -0.005928934 -0.12207635
0003a0 82 f3 dc 3c 9f 8d 32 3e 87 5d 73 3d 2e bf c2 3d
       0.026971582 0.17436837 0.059415367 0.09509121
0003b0 db 27 f0 3c 99 41 04 3e a4 68 7a bd 76 d5 c9 bd
       0.02931588 0.12915649 -0.06113495 -0.098551676
0003c0 15 93 fb bc 64 33 bf bd 89 a1 24 3d 4b 37 0a be
       -0.030709783 -0.09335974 0.040193114 -0.13497655
0003d0 6c d3 06 be 7d 4c ad bd 3f 9b 69 3c 72 0d 0b 3d
       -0.13166589 -0.084618546 0.014258205 0.03394837
0003e0 d4 c0 99 bc d1 b0 10 3e 05 0b 83 3c d5 f8 d0 bd
       -0.018768705 0.1412995 0.015996465 -0.10203711
0003f0 d9 2e 14 be d0 c1 db bd 3c ab 5e 3a 80 d0 b2 bd
       -0.14470996 -0.10730326 0.0008494144 -0.087311745

feature_extractor.5.bias f4 [64]
000000 76 f2 9d bc a9 c2 e0 3c dc 3b 70 bd af ff 9a 3d
       -0.019280653 0.027436571 -0.058650836 0.07568299
000010 07 15 23 bd 47 0e 1e 3d f1 3b f6 bd d0 61 4b 3c
       -0.039814975 0.038587835 -0.12023152 0.012413457
000020 78 b3 81 bd 98 b6 7d bd 78 d0 96 bc 35 1a 93 bd
       -0.06333059 -0.061941713 -0.018409953 -0.07182733
000030 da 90 b8 3d 6f 29 c1 bd 27 2c 8e bd ec 20 28 3d
       0.09012003 -0.09431731 -0.06942015 0.04104702
000040 35 1a 29 3c f2 a5 11 3c f2 00 3d bc 44 93 16 be
       0.01032119 0.008889662 -0.01153587 -0.14704615
000050 26 bb 5e bd 1e 65 f5 bd d5 51 1d be 36 5c 86 3d
       -0.054377697 -0.11982177 -0.15363248 0.065605566
000060 42 62 2c 3d c2 be 60 bc 42 cc 91 bd e1 d1 29 3d
       0.042085893 -0.013717355 -0.07119037 0.04145992
000070 4a 1a a7 bd 9b ac 44 be 6c ea dd bd 8b 33 d3 3b
       -0.08159311 -0.19206469 -0.10835728 0.0064453534
000080 b5 c3 e8 bd e8 f1 69 3d 4e fe f9 bd 4c 76 7b 3b
       -0.11365453 0.057115465 -0.12206708 0.003837007
000090 a4 bc 9e bd 6f 92 78 3d 90 07 bc 3d 40 09 59 bd
       -0.07750824 0.060686525 0.0918113 -0.052987337
0000a0 29 a8 be 3b a7 68 28 bd 18 74 fd 3b 85 cc 8f 3c
       0.005818386 -0.04111543 0.0077347867 0.017553577
0000b0 1a e7 b7 bd 10 9a 88 3c 6a be f6 3d 99 e2 bf bd
       -0.08979626 0.016675025 0.12048037 -0.09369392
0000c0 ab 2c 8e bd 8d 9e c6 bc 30 30 9b 3d d0 9e e5 bc
       -0.069421135 -0.024245525 0.075775504 -0.02802983
0000d0 c0 58 36 bd 5b 9f b4 bd de c9 5e 3c 6d 89 60 3b
       -0.044518232 -0.08819457 0.013597934 0.00342616
0000e0 3e 37 58 bc db af ec 3d 22 88 39 3d 47 d2 a0 bc
       -0.0131967645 0.11556979 0.045295842 -0.019631518
0000f0 fb 87 c2 bd 00 ea 86 bd fe 8e fa bd 02 33 d9 3c
       -0.094985925 -0.06587601 -0.12234305 0.02651358

feature_extractor.6.weight f4 [64]
000000 37 fe 80 3f 2e d6 91 3f 09 37 70 3f 63 4a 9d 3f
       1.007758 1.1393487 0.93833977 1.2288326
000010 54 ea 79 3f 19 fa 8b 3f 9f 55 8e 3f c9 60 8a 3f
       0.9762318 1.0935699 1.111988 1.0810786
000020 44 c5 7a 3f 63 f4 82 3f 63 b8 9c 3f 9a 16 86 3f
       0.97957253 1.0230831 1.224377 1.0475647
000030 26 58 7d 3f db bb 87 3f dd 3b 9b 3f 39 0c 84 3f
       0.9896263 1.0604204 1.2127644 1.031623
000040 54 d6 75 3f 14 0a 89 3f 51 cd 74 3f 03 f7 94 3f
       0.96030164 1.0706201 0.9562579 1.1637882
000050 38 91 90 3f c5 00 84 3f c0 68 8b 3f 52 9d 9f 3f
       1.1294317 1.0312735 1.0891342 1.2469885
000060 73 3e 79 3f d6 00 89 3f 99 e5 65 3f 1e dd 8d 3f
       0.97360915 1.070338 0.89803463 1.1083105
000070 2b 31 85 3f 96 e8 66 3f 82 a5 a0 3f 2b f7 72 3f
       1.040563 0.9019865 1.2550509 0.949084
000080 5a 00 86 3f 0b 9c 72 3f 2f b2 89 3f df 8a 82 3f
       1.0468857 0.9476935 1.0757502 1.019863
000090 23 38 91 3f 10 f1 8a 3f 61 e5 8e 3f 52 15 88 3f
       1.1345257 1.0854816 1.1163751 1.0631506
0000a0 10 76 8c 3f 4d 0f 90 3f 45 b4 87 3f 4e f6 8d 3f
       1.097353 1.125467 1.0601889 1.1090791
0000b0 6b 2b a7 3f a7 68 8f 3f ac ba 94 3f 0b 1f 6d 3f
       1.3060125 1.1203812 1.1619468 0.9262549
0000c0 37 17 82 3f 1d 08 7f 3f 6a d3 90 3f 35 e2 93 3f
       1.0163335 0.99621755 1.1314518 1.1553408
0000d0 21 46 9b 3f f4 27 95 3f 53 28 8c 3f e6 0a 64 3f
       1.2130777 1.1652818 1.0949806 0.8907913
0000e0 fd fd 95 3f 15 9c 74 3f 52 7c 70 3f 25 b9 9a 3f
       1.1718136 0.9555066 0.939397 1.2087752
0000f0 6f d3 6e 3f 97 b1 91 3f 3b 09 92 3f 4b 18 92 3f
       0.9329137 1.1382321 1.1409067 1.1413664

feature_extractor.6.bias f4 [64]
000000 18 00 fa bd 38 2c 21 be 3d 06 3b be a1 43 c6 bd
       -0.12207049 -0.15739524 -0.18264098 -0.09680868
000010 e0 98 d6 bd 7d 6f 24 3b ac 33 55 be ce 6c 0c be
       -0.10478377 0.0025090866 -0.20820493 -0.1371338
000020 46 1a c4 bd d3 0b 66 bd 35 8e 13 be 60 73 63 be
       -0.09575324 -0.05616362 -0.14409716 -0.22211981
000030 22 06 77 bc a6 e8 b5 bd fd a5 22 3b 99 fc 82 bd
       -0.015077146 -0.08882265 0.0024818175 -0.063958354
000040 13 d3 84 bd 96 b0 49 bd 3f 48 1e be ec d1 b3 be
       -0.06485572 -0.04924067 -0.15457247 -0.35121095
000050 4b 89 d4 bd b5 93 6b bb 16 7f 8d be f8 52 e7 bd
       -0.10377749 -0.0035946195 -0.2763602 -0.11295122
000060 ca ca 32 3d 2f a9 98 bd 06 38 00 be 7c d1 70 be
       0.043650426 -0.07454144 -0.12521371 -0.23517412
000070 71 bc 8a bd 3b c3 7c be 9a dc b0 be cf c2 6a be
       -0.067742236 -0.2468385 -0.34543306 -0.22925876
000080 c2 a9 68 be bb b7 59 be c5 24 82 be 0b f9 29 be
       -0.22721007 -0.21261494 -0.25418678 -0.16598909
000090 56 34 27 be c3 66 b0 bd 15 75 82 bd d2 b4 76 bd
       -0.16328558 -0.0861335 -0.06369988 -0.060231037
0000a0 15 6d 2c be cc e0 01 be b6 dd 8a 3c 66 aa 10 be
       -0.16838486 -0.1268341 0.016951423 -0.14127502
0000b0 90 5a 4b be 7d 28 aa bd 4c 74 b6 bd 16 d5 30 be
       -0.19858766 -0.08308504 -0.089089006 -0.17268786
0000c0 0f a0 71 be 13 c3 07 be e3 9a be bd 6a 51 58 be
       -0.23596214 -0.13258009 -0.09306886 -0.21124807
0000d0 c5 13 10 be 98 f8 65 be 38 4b 05 be 3e e5 e4 bd
       -0.14070041 -0.22458112 -0.13016975 -0.11176537
0000e0 1b e6 25 be 93 e2 8b 3d 7e 51 b5 bd 4c 5a 1e be
       -0.1620106 0.06830325 -0.08853434 -0.15464133
0000f0 e0 7a 3f be 0a cf b4 bd e9 7c 5a be 73 b9 61 be
       -0.18699217 -0.08828552 -0.21336712 -0.220434

feature_extractor.6.running_mean f4 [64]
000000 39 e1 19 bf 84 14 af be 8b fb 6f bf b7 fb f7 bf
       -0.6010929 -0.3419534 -0.937432 -1.9373692
000010 a0 5b a7 bf d4 8e 1a c0 a2 c1 b1 be dd a1 c8 bf
       -1.3074837 -2.4149675 -0.34718043 -1.5674397
000020 e9 be 2f 3e ad ab a3 bf ff b1 9b bf c5 bf 00 bf
       0.1716267 -1.2786766 -1.2163695 -0.5029262
000030 4d 3b c6 be ea 5b 84 bf 5b 3b cd bf f1 55 a4 bf
       -0.38717118 -1.034055 -1.6033739 -1.2838727
000040 9a 9d de be 9f 99 05 3e 29 a5 19 3f 68 7d 92 bf
       -0.43479615 0.13046883 0.6001764 -1.1444521
000050 74 e8 61 bf 6b 45 8a bd cc 9e 5d bf 0e b8 af bf
       -0.8824532 -0.06751522 -0.8657043 -1.3728044
000060 e5 3e a0 bf 15 c6 fd bf 8d 85 87 bf cd aa ab bf
       -1.2519194 -1.9826075 -1.0587631 -1.3411499
000070 e9 63 d8 bf b3 67 fd 3f 0f 49 82 bf d7 89 cd bf
       -1.690549 1.9797271 -1.0178546 -1.605769
000080 bc 71 de bf 9d c4 e3 bf ec c4 bb be 80 a0 89 bf
       -1.7378459 -1.7794377 -0.36673677 -1.0752106
000090 2b e9 a8 be 3d 4f b3 bf bf 74 a1 bf 64 d8 72 bf
       -0.32990393 -1.4008557 -1.2613753 -0.94861436
0000a0 0a 25 e9 be 96 9e c3 bf 46 d1 ae bf 64 87 d1 bf
       -0.4553607 -1.5282772 -1.3657615 -1.6369443
0000b0 3b eb 6a bf 64 97 65 bf 8e 71 4a bf de f5 e5 be
       -0.91765183 -0.8968413 -0.7907952 -0.44914144
0000c0 b7 dd 43 bf 5a 10 b2 bf c1 60 1c bf b1 62 fe bf
       -0.76510185 -1.391124 -0.61085135 -1.9873868
0000d0 76 0c 6b bf cc 71 53 bf dc e0 96 bf 5c 15 ea bd
       -0.9181589 -0.82595515 -1.1787372 -0.11429855
0000e0 8a 48 d7 be 8c 51 c4 bf 74 d5 9f be 61 0c 40 bf
       -0.4204753 -1.5337386 -0.3121754 -0.7501889
0000f0 cf 08 3f bf b1 03 03 c0 86 b5 a5 be 5c 64 68 bf
       -0.74622816 -2.0471003 -0.32365054 -0.90778136

feature_extractor.6.running_var f4 [64]
000000 21 3c ed 3f 11 01 dd 3f 8a be 66 3f d9 40 28 40
       1.8533975 1.726595 0.9013449 2.628958
000010 1c fd e2 3f dd 84 17 40 ff 38 2d 3f a4 21 2f 40
       1.7733493 2.3674843 0.67665094 2.7364283
000020 f6 81 a2 3f 51 6b 18 40 51 d0 bb 3f 72 a4 9f 3f
       1.2695911 2.38155 1.4672948 1.247206
000030 bb f1 94 3f 68 36 af 3f cf 2a 98 3f 3b 99 fe 3f
       1.163627 1.3688478 1.1888064 1.9890512
000040 82 4f cc 3f 21 6e b3 3f 2f a3 32 40 89 57 03 40
       1.5961764 1.4017984 2.79121 2.0522177
000050 61 fd a6 3f 34 62 a6 3f f9 a4 0f 40 70 74 06 40
       1.3046075 1.2998719 2.2444441 2.1008568
000060 8c 9a c0 3f 60 9e 46 40 bc b9 50 3f 76 1c ac 3f
       1.5047164 3.1034164 0.8153341 1.3446186
000070 c6 fa 12 40 3e 74 bd 3f f7 e6 23 40 bf 16 1f 40
       2.296556 1.4801099 2.560972 2.4857633
000080 92 15 46 40 e6 8b cc 3f fa ef fe 3f ed 37 13 40
       3.0950665 1.5980194 1.9916985 2.3002884
000090 1a f9 d1 3f a1 09 35 40 18 fe ba 3f b5 20 b5 3f
       1.6404145 2.8287127 1.4608793 1.4150606
0000a0 08 34 43 3f cc 78 18 40 0d 4b 85 3f d9 fb be 3f
       0.7625127 2.3823729 1.0413529 1.4920608
0000b0 15 e6 30 40 29 44 03 40 7d dd ef 3f bd a1 b6 3f
       2.764043 2.0510352 1.8739468 1.4268109
0000c0 92 25 05 40 2f c9 b7 3f fa 3b 11 40 3e dc 3f 40
       2.080418 1.4358271 2.2692857 2.9978175
0000d0 fc 5a f9 3f 9d 9b f1 3f a0 b7 c3 3f 7c bb d4 3f
       1.9480891 1.8875614 1.5290413 1.6619716
0000e0 f2 15 1b 40 59 4e df 3f f8 ad 96 3f 78 92 1c 40
       2.4232144 1.7445785 1.1771841 2.4464397
0000f0 58 3c d1 3f 9f 25 1e 40 a1 96 da 3f 17 bd 00 40
       1.634654 2.4710462 1.7077218 2.0115411

feature_extractor.10.weight f4 [2, 64, 3, 3]
000000 3a 33 9e bd 5d a3 07 3e 7a e8 4a bd cf fb 56 bd
       -0.077246144 0.13245912 -0.049538113 -0.052486237
000010 2a 74 13 bd ab bb 36 bd 6f 24 c0 bd c7 06 b0 3d
       -0.035999455 -0.044612568 -0.09381949 0.08595043
000020 d6 48 06 be 36 62 3e bd a0 eb 98 3d 47 aa 4f bd
       -0.13113722 -0.04648038 0.07466817 -0.0506995
000030 3c 2f 9a bd 3a 00 03 3e 3a 48 ff bc 69 a8 89 3d
       -0.075285405 0.12793055 -0.03116237 0.06721575
000040 6b 90 51 be af 6b 35 be 21 70 ff 3d 9c 86 9b 3c
       -0.20465247 -0.1771686 0.12472559 0.018985085
000050 70 e3 fd 3d 82 6f 16 bb 32 e9 60 3b 92 8e 4d bd
       0.12396896 -0.0022954647 0.0034318683 -0.050184794
000060 e2 12 18 3d db d8 9d 3b 94 0e 38 bd da df de 3c
       0.037127383 0.004817111 -0.044935778 0.02720635
000070 37 ff 0b 3b ef 29 61 bd e3 c0 9f bd 93 fe bf bb
       0.0021361837 -0.05497163 -0.07800462 -0.005859205
000080 82 62 a9 bd 47 e1 98 be a2 21 bb 3d cf 4b 04 be
       -0.08270742 -0.29859373 0.09137274 -0.12919544
000090 78 4e ff 3d 11 7f ac 3d 4e 04 ea 3d 42 77 d6 3c
       0.124661386 0.084226735 0.11426602 0.026179913
0000a0 4a b8 ff bd d2 c5 d4 bd f2 30 1d 3e 52 57 10 be
       -0.12486322 -0.10389294 0.15350702 -0.1409581
0000b0 58 af 95 3c 6f a1 ea 3d c5 3e ce bd ef 40 ea 3d
       0.018272087 0.11456572 -0.10070566 0.11438166
0000c0 51 c7 7c 3b b8 6e 85 bd 5d 5a ab 3b 0e 28 9a bd
       0.003857095 -0.065152586 0.005229278 -0.07527171
0000d0 0a 9e 83 be 36 9f 8d bc da 58 20 be bb c0 5b 3b
       -0.25706512 -0.017287832 -0.15658894 0.0033531624
0000e0 c5 aa a7 3d a9 83 17 bd ac e4 5f 3d 40 1f d3 3d
       0.081868686 -0.036990795 0.054661438 0.10308695
0000f0 6a 94 de 3c b1 9f e4 3c d9 79 17 3d 8c 18 36 bd
       0.027170379 0.027908178 0.036981437 -0.044457003
000100 74 37 43 be cb 75 d2 bc ac eb a9 bd ca d4 88 bb
       -0.19064122 -0.025690934 -0.08296904 -0.004175757
000110 e1 49 0e 3e b7 b4 31 bc 75 9e 8c bc 42 d0 b7 3d
       0.1389537 -0.010846308 -0.017165402 0.08975269
000120 9f ef f3 3d dd 07 a5 3c e1 07 0e be c0 57 d4 bd
       0.119109385 0.020145351 -0.13870193 -0.103682995
000130 cc 34 85 bd bc 90 c2 3b b9 5e c8 3d b0 07 d0 3d
       -0.06504211 0.005937664 0.09783692 0.10157716
000140 20 a3 40 3b 0d 63 18 3e 09 35 bf 3d 1b be 90 3d
       0.0029394105 0.14881535 0.093362875 0.0706751
000150 c5 fa 43 3d 22 6f 8b 3c 0f 36 0b be 7f 56 6d bd
       0.047846574 0.017020766 -0.1359484 -0.057943817
000160 97 05 95 3b 18 a4 c5 bb 9a cf 48 3e 91 06 77 3d
       0.0045477855 -0.0060315244 0.19610444 0.060308997
000170 50 7f 64 3c d9 06 ef 3c e7 03 ee 3b 3b 81 30 bd
       0.013946369 0.02917807 0.007263649 -0.043091994
000180 19 79 03 3e 01 d7 08 be 6a 7e cf bd 98 70 90 3d
       0.12839164 -0.13363267 -0.101315334 0.070527256
000190 0d 2f 20 3d 29 f9 ea 3d 5c 65 4f bd 15 2d 6b bc
       0.03910737 0.11473305 -0.050633773 -0.01435401
0001a0 9d bc 4e 3d 9e 92 4a ba 56 f5 18 bd 0b 36 01 3d
       0.050472844 -0.0007727536 -0.037343346 0.03154568
0001b0 63 e4 c1 3d cd 84 92 bb 34 8a 15 3e c8 8b 2a 3c
       0.094673894 -0.0044713975 0.14603502 0.010409303
0001c0 ad 49 c4 bd 1b 5c b0 bd fb 16 8a bd 32 ad 63 bd
       -0.09584365 -0.08611318 -0.067426644 -0.055585094
0001d0 7a 29 a8 bd be 81 08 3e f7 36 85 bc 11 bc f8 3b
       -0.08211036 0.13330743 -0.01626156 0.0075907786
0001e0 f8 ad 96 bd a4 e1 bb bd 97 31 ef bd 5c dc f8 bd
       -0.07357401 -0.09173897 -0.116793804 -0.12151405
0001f0 20 70 9e 3d 33 4a 4b 3e 95 96 81 3e ef 23 76 3e
       0.0773623 0.19852524 0.25310197 0.24037145
000200 bc 11 6c bb 6c a8 7c bd 5a e9 9f bd 78 bc 62 3b
       -0.0036021313 -0.061684057 -0.0780818 0.00345972
000210 68 00 0e 3d 5c d0 5b 3b 35 4f 01 3d ae 23 cc 3c
       0.034668356 0.003354094 0.03156968 0.024919357
000220 05 02 a2 bd 97 71 dc bb 4a 36 76 bc bb c8 c1 bc
       -0.079105414 -0.006727408 -0.015027592 -0.023655286
000230 f5 31 24 3d be e3 6e bc 07 e7 f0 3d ef fe ac 3d
       0.040086705 -0.014580665 0.11762815 0.08447062
000240 10 2d 0e 3d c0 5f a4 3d f3 90 1d 3e b1 f1 28 bc
       0.034710944 0.08026075 0.15387325 -0.01031153
000250 05 8b b2 bd b8 e4 92 bd 5d bc 0f 3e 66 eb 00 bd
       -0.08717922 -0.07172531 0.14036699 -0.031474493
000260 8c 9e e6 bd fd 84 74 3c 7e 8e 92 3d fe cf 50 3d
       -0.11260709 0.014924285 0.071560845 0.050979607
000270 f0 29 95 3c c4 bc 17 3e 5c b2 7b 3b ad 02 de 3d
       0.018208474 0.14818102 0.003840587 0.10840354
000280 6e c6 a5 bb a2 0d 58 be 7d 78 86 3d fd 79 eb bd
       -0.005059055 -0.2109895 0.0656595 -0.11497877
000290 2a ab 8d bd 45 a7 e7 3d 67 ff 07 3c 77 89 84 bd
       -0.069174126 0.11311201 0.008300639 -0.06471532
0002a0 ab 72 46 3d e3 80 de 3d 9b 09 d6 3c 12 34 fe 3c
       0.0484492 0.10864427 0.026127627 0.031030688
0002b0 4e f8 c0 3c 55 f3 8d bc 1d 6a ee bd d3 a5 db bd
       0.0235559 -0.017327944 -0.11641333 -0.10724988
0002c0 55 21 fd 3c 14 b1 c9 3b b5 a9 8c bc 1c 51 09 3e
       0.030899683 0.0061551426 -0.017170766 0.13409847
0002d0 6a 97 6d 3e f6 20 53 3d 40 09 21 3d 0b b7 b5 3c
       0.23202291 0.051545106 0.039315462 0.022182008
0002e0 95 d2 3c 3d 70 96 93 bc 95 ae 85 3d 64 f4 64 3d
       0.046099264 -0.01801607 0.065274395 0.05589713
0002f0 2d 51 3d 3c 5b d3 a0 3d f1 e3 a2 3d 5b 8a 2a 3d
       0.011554998 0.07852813 0.079536326 0.041635852
000300 73 f8 a1 bc 43 3e 05 be d4 a4 6e bd c1 b4 29 b8
       -0.01977179 -0.13012032 -0.05826266 -4.046108e-05
000310 bc b7 28 3d 19 dc 69 be fb b5 b2 3d 01 0b 06 be
       0.041190848 -0.22837867 0.08726116 -0.13090135
000320 1a c8 f5 3d 66 80 99 bd 4a 10 68 3d 5e 03 2f 3e
       0.12001057 -0.07495193 0.05665616 0.17091128
000330 56 55 33 3d ef 2b 89 bd b6 66 6d 3e fc f9 92 be
       0.043782555 -0.06697833 0.23183712 -0.28706348
000340 c8 8d 32 be 52 a7 c8 bc 8a 3f 06 3e 80 c3 ad 3d
       -0.17436898 -0.024493847 0.13110176 0.08484554
000350 f4 bc c5 3d 4f a2 74 3e 00 18 77 3d c5 76 7f 3b
       0.096551806 0.23890041 0.060325623 0.0038980704
000360 be 9c 0c 3e 04 e5 13 3e 1f 01 02 3e b9 22 f6 bd
       0.13731667 0.14442831 0.1269574 -0.120183416
000370 07 64 84 bc f6 a4 e7 bd b5 cc e6 bc 8d e4 79 bd
       -0.016160978 -0.11310761 -0.028173784 -0.06100898
000380 8f 51 ad bd dc 30 9c 3d 2b 54 06 be 53 64 44 3d
       -0.08462822 0.07626507 -0.13118045 0.04794724
000390 8a 19 ff bd 3f 67 a2 bd 8c 3e 0d bd f1 2f 9e 3d
       -0.12456043 -0.07929849 -0.034483477 0.07723988
0003a0 06 76 a7 bd 70 cf 7e 3e fb fc ef 3c fd cf ed bd
       -0.08176808 0.24883819 0.029295435 -0.11611936
0003b0 b6 a5 4a bd 3b c4 89 3d fb 39 66 3b c1 7a 1a 3e
       -0.04947444 0.06726881 0.0035129774 0.1508589
0003c0 20 84 bf 3d 35 9b bb bc 4f a5 e1 bd 7a a5 86 bd
       0.09351373 -0.022901157 -0.11017858 -0.06574531
0003d0 ec 8c 95 bd 6a 20 ba 3a 4c e8 e7 3d fc d2 ee 3d
       -0.07302269 0.0014200334 0.11323604 0.11661336
0003e0 01 b8 08 3e 21 d2 81 3e ff 1f 7b bc 0f ab 51 3d
       0.13351442 0.25355628 -0.015327453 0.051188525
0003f0 1a 63 6a 3d 77 51 82 3c 12 cc b7 3d 6d e9 55 be
       0.057223417 0.015907986 0.0897447 -0.20889826

feature_extractor.10.bias f4 [2]
000000 d7 c9 45 bd 5b d9 53 3d
       -0.048288193 0.05172096

feature_extractor.11.weight f4 [2]
000000 f3 d7 d9 3f 01 eb d9 3f
       1.7019027 1.7024843

feature_extractor.11.bias f4 [2]
000000 a1 c0 54 3e 97 1d 51 3e
       0.20776607 0.20421444

feature_extractor.11.running_mean f4 [2]
000000 e8 bb dd 3e 2c a1 44 3f
       0.43307424 0.7680843

feature_extractor.11.running_var f4 [2]
000000 61 e3 13 40 86 1f 1a 40
       2.310753 2.408174

feature_reduction.1.weight f4 [256, 18]
000000 66 8d b3 bd 1c e3 24 be e3 e9 7e bd 5d f7 8e 3d
       -0.08767204 -0.1610226 -0.06223477 0.069807746
000010 4f f8 93 3d e6 43 ef bd f5 8a 3f 3e ef e9 c7 3d
       0.072250955 -0.116828725 0.18705352 0.09761416
000020 d7 99 c4 be 14 ae 88 3e 27 66 60 be 86 3e 0b bd
       -0.3839862 0.2669531 -0.21913968 -0.033995174
000030 3c 30 83 3c a4 32 7d 3e 36 17 82 3e 4c d8 7b 3a
       0.01601421 0.24726349 0.25408334 0.0009607121
000040 87 c0 73 3e 50 42 13 bf a9 22 53 b9 88 ae 1e bd
       0.23803912 -0.5752306 -0.0002013544 -0.038740665
000050 de a2 b7 be aa 27 07 3e 02 cf 33 be 91 5d 73 3e
       -0.35866445 0.13198724 -0.17559436 0.23766162
000060 22 b0 58 be 72 bd 5a be a7 13 3c 3e 8b cb b5 3c
       -0.2116094 -0.2136133 0.18366872 0.022191783
000070 2b 3f 23 3e f8 0a 8d 3d 61 89 9c 3e cf f2 30 be
       0.15942065 0.06886858 0.30573562 -0.17280124
000080 25 42 11 bf 0a c1 50 bd 3d 8a bd be 0c 26 02 3e
       -0.56741554 -0.050965346 -0.3701953 0.12709826
000090 14 09 74 3d f1 a0 10 be 5e 39 21 bf 70 c4 03 bf
       0.05957897 -0.14123894 -0.6297816 -0.51471615
0000a0 85 6a 4f 3c 82 31 1e 3e 39 a4 de bd 14 cf cd 3c
       0.012659674 0.15448573 -0.10871167 0.025123157
0000b0 8f 20 43 3d 2b ae 09 3e 97 61 a6 bc 24 ba 51 bd
       0.047638472 0.13445346 -0.020310206 -0.05120291
0000c0 13 b2 8c be ad 1d 73 3d ac 00 83 be 66 f9 9f be
       -0.2747961 0.059354473 -0.2558645 -0.31244963
0000d0 be 47 89 3e c1 31 46 3e 3c 3d d7 bd 42 e0 3b 3e
       0.26812547 0.19354917 -0.105097264 0.18347266
0000e0 2f 1d b8 be 1a df 48 3e e2 c6 01 3e e3 da 33 be
       -0.35959765 0.19616356 0.12673524 -0.17563967
0000f0 ab 23 69 3d ba ce 22 3d e5 2b d6 be b1 23 c1 3d
       0.05691878 0.03974793 -0.41830364 0.09430636
000100 ae 2c da bd 19 48 01 3e f2 0e ad bc 2f 48 cc 3d
       -0.10653053 0.1262516 -0.02112529 0.099747054
000110 ca 12 43 be 3e 26 8c be c0 e2 42 3e d9 2c 02 be
       -0.19050136 -0.27372926 0.19031811 -0.1271242
000120 5d 51 01 be 34 cf dc bd de 5e 5c 3e 8a 17 bf 38
       -0.12628694 -0.10781708 0.21520564 9.111974e-05
000130 d6 c4 07 3d 8b e5 45 be f4 03 ea 3d 1b fa e7 ba
       0.0331467 -0.19325845 0.11426535 -0.0017698439
000140 28 d5 0c 3e da bd 41 be 86 8d 0e 3d 00 c9 2d be
       0.13753188 -0.18920079 0.034802936 -0.16971207
000150 a4 1e 21 3e 05 19 59 3d 18 c7 f9 3d 5b 71 c4 3b
       0.15734345 0.053002376 0.12196177 0.0059949583
000160 47 16 49 3e 3d 20 cb 3d 59 0e 39 3e 58 70 27 3e
       0.19637404 0.09918258 0.1807188 0.1635145
000170 0d 2f b4 bd 51 ba 78 be 27 c2 1b 3c ba 53 42 be
       -0.08798037 -0.24289824 0.009506739 -0.18977252
000180 da b7 b6 bd 27 38 b2 3e 31 c5 b4 be a3 16 ba 3e
       -0.08921786 0.34808466 -0.35306695 0.36345395
000190 14 80 2b bd 45 e5 54 be dd 61 b9 3c 7c a7 8e bc
       -0.04187019 -0.20790584 0.022629673 -0.017413847
0001a0 fe 6e de 3d ce 30 5f be 03 e9 0e 3f 10 a5 8f be
       0.10861014 -0.21795961 0.558243 -0.2805562
0001b0 f5 90 9a 3e 95 22 f0 3e d3 07 69 bd 32 95 26 bd
       0.30188718 0.46901384 -0.056892227 -0.040669627
0001c0 2c 96 96 be 3e b6 0c bf 0b d5 2d bd 2e 41 07 be
       -0.29411447 -0.5496558 -0.0424395 -0.13208458
0001d0 d4 cb f3 be a6 fa aa be e0 27 b3 3e 3c ce 55 bd
       -0.47616446 -0.33394355 0.3499136 -0.052198634
0001e0 85 63 94 be 7b ad 50 bd cc 01 85 3d 7c 1d 91 3e
       -0.28982177 -0.050946694 0.06494483 0.28342807
0001f0 9b 4c 06 3e a2 d1 77 bc 97 44 29 3c 8f 86 6b be
       0.1311516 -0.015125664 0.0103312945 -0.23000549
000200 3e fc ef bd 85 e6 a6 bd 77 cc b7 bc a8 0b 57 3d
       -0.11718033 -0.08149437 -0.022436364 0.05250135
000210 ed 8a 42 3e 92 9a 10 3e 51 21 a4 be f6 33 90 3b
       0.18998308 0.14121464 -0.32056668 0.0044007255
000220 4b cd 9a 3c 85 7b 35 be 2c 12 db bd 7a 4b 41 be
       0.01889672 -0.177229 -0.106968254 -0.18876448
000230 58 cc e5 bd c6 b1 81 3e 34 32 a8 3d cc 46 97 bd
       -0.11220616 0.25330943 0.082127005 -0.0738655
000240 5a 74 b8 bc 53 f5 95 3d 22 29 3e bf f7 e8 4b be
       -0.022516418 0.073221825 -0.74281514 -0.19913088
000250 82 ca 64 bd bf 14 30 3e a3 a8 89 bd 4b 6e 78 3e
       -0.05585719 0.17195414 -0.06721618 0.24260823
000260 66 5b 08 3e e3 ba bd bb 30 d7 8f 3e a6 92 35 bd
       0.13316116 -0.005790101 0.28093863 -0.044329308
000270 58 bd d7 bd 8d 31 a9 3d 7b 36 f1 be b2 9e f1 be
       -0.10534161 0.08261404 -0.47111878 -0.47191387
000280 0b 1f 5f bd b5 90 4b 3e 12 d0 40 3e 8c bf ce be
       -0.054472964 0.1987942 0.18829373 -0.40380514
000290 53 17 b5 be 44 85 b0 be a8 dd 2b be 99 78 3b 3e
       -0.35369357 -0.34476674 -0.16783774 0.18307723
0002a0 3f 16 0f be f9 b4 83 3e 46 7d 39 3e c0 6b 4f 3e
       -0.1397333 0.2572401 0.18114194 0.20255947
0002b0 e9 5e 82 3d e4 0f 74 3e f0 44 9e be fc 26 3a bd
       0.06365759 0.23834187 -0.3091197 -0.045447335
0002c0 da 79 86 be 65 06 72 be e7 80 c9 3c f2 89 11 3e
       -0.2626484 -0.23635252 0.024597598 0.14212778
0002d0 be 68 7c bd 2d 62 f1 bc 4d fb 3e 3e a4 e8 5b be
       -0.061623327 -0.02946576 0.18650551 -0.21475464
0002e0 49 ec e9 3c cf 76 3f be b8 db c3 3d 57 d1 30 3c
       0.028555052 -0.18697666 0.095633924 0.010792098
0002f0 eb ec a5 bd c2 cf e2 bc c8 89 7f be 42 32 4f 3e
       -0.08101829 -0.027686957 -0.24954903 0.20234016
000300 2a b9 d3 bd 54 c2 be bd 1e 0b e7 3d f6 9a 2e be
       -0.103380516 -0.09314409 0.11281417 -0.170513
000310 3f 51 4c bd b0 2b 87 3b 64 cc 0d bd f9 62 15 be
       -0.04988217 0.004125081 -0.03461875 -0.14588536
000320 0d ed c5 bd 3f e6 67 3e de 93 29 3d 2d 5f a6 bd
       -0.096643545 0.22646426 0.041400783 -0.08123622
000330 71 52 cd be 80 f4 19 3e b7 ba 44 bd f8 f8 d2 37
       -0.4010196 0.15034676 -0.048029628 2.5149886e-05
000340 0f 65 87 3d c9 1e 9c be 03 e1 e4 3d 74 90 94 bd
       0.06611072 -0.30492237 0.1117573 -0.07254115
000350 57 bb 5d be af 7d af 3d 91 e0 4b 3e 25 41 9e 3d
       -0.21653496 0.08568894 0.19909884 0.07727269
000360 9e ba 84 3d e7 00 6c be a0 c8 db 3d 9e 88 c4 3c
       0.06480907 -0.23047219 0.107316256 0.023990925
000370 a9 eb ac bd 5a 5e 41 3c 59 5f 1e be b8 2b fa 3d
       -0.08443386 0.01180228 -0.1546606 0.1221537
000380 07 25 4d bd 29 65 33 3e e9 ca 4f be ee f0 0c be
       -0.05008414 0.17519058 -0.20292248 -0.13763782
000390 ff 14 68 bd 30 e9 f7 bd 30 75 b1 3d 23 59 80 be
       -0.05666065 -0.12105024 0.0866493 -0.25068006
0003a0 f9 9d a1 3c f0 2a c6 3c 22 b5 a7 be a4 3c c3 bc
       0.019728648 0.024190396 -0.3275538 -0.023832627
0003b0 e9 36 40 3e dc 0a 8f 3e a1 25 3f 3c a6 5d ea be
       0.18770947 0.27937973 0.011666686 -0.45774573
0003c0 0d c8 9b 3e 65 73 c6 bd ee 7c 98 bd ba c2 84 be
       0.30426064 -0.096899785 -0.074457034 -0.25929815
0003d0 a3 04 67 bd a6 19 2f 3a ed 79 25 3e 3c 6b 91 3e
       -0.056400906 0.0006679542 0.16159792 0.28402126
0003e0 db 89 b0 bc a8 c0 2b 3e 36 78 47 3d ea 89 b6 bd
       -0.02155011 0.16772711 0.048698626 -0.08913024
0003f0 c1 1f 36 be 2b f5 91 3c d5 58 db 3c 68 e5 7c be
       -0.1778555 0.0178171 0.026775757 -0.24696887

feature_reduction.1.bias f4 [256]
000000 b7 8c 16 be 46 8a 52 be 2f 77 c6 3d bb 26 82 be
       -0.14702116 -0.2056056 0.09690701 -0.25420174
000010 cf 82 89 bd 0c 28 8f be 07 a6 cd bd 76 d6 a4 bd
       -0.06714403 -0.2796024 -0.10041433 -0.08048718
000020 f8 ae 29 3e 21 7e d8 bd 29 6d 5e bc d1 e0 44 3d
       0.16570652 -0.10570932 -0.0135758305 0.048065964
000030 72 d1 6d be 2d 8f be 3b ed ab 9b be 33 3f a7 be
       -0.23224428 0.0058154077 -0.30404606 -0.32665405
000040 9d f1 1b 3c 09 aa b5 3d cd 2f 14 3e 73 43 d4 bd
       0.009518054 0.08870322 0.1447136 -0.103644274
000050 40 08 12 be 91 b5 57 bd 67 57 0f 3e 97 47 cf bc
       -0.1426096 -0.05266339 0.13998185 -0.025302691
000060 12 b2 11 be 1f 3a 20 3d 91 43 3b be e5 8e 1a 3e
       -0.14228085 0.03911793 -0.18287493 0.15093572
000070 32 53 d5 3d 04 78 b3 3e a6 95 0a bd f4 35 ab bb
       0.10416259 0.35052502 -0.033834122 -0.0052249376
000080 b1 61 65 3e c7 ad 72 be 95 1f 80 be bb c4 16 be
       0.22400548 -0.23699103 -0.25024095 -0.14723484
000090 6e 34 43 3e 4a 6f e5 bd b2 f1 d4 3d 83 a3 62 be
       0.19062969 -0.11202867 0.10397662 -0.22132687
0000a0 96 24 10 be 42 b3 98 be 1d b0 85 3e 08 98 63 be
       -0.14076456 -0.29824263 0.26110926 -0.22225964
0000b0 62 cd 38 be d9 80 96 be 72 1d 80 be c6 e4 49 be
       -0.18047097 -0.29395178 -0.25022465 -0.19716176
0000c0 94 47 d9 bd a9 29 33 be e6 e5 d3 bd f2 96 0a be
       -0.106093556 -0.17496361 -0.10346584 -0.13534144
0000d0 2e 78 23 3c 50 9b 99 be 02 25 87 3e 8f f3 db 3e
       0.009977384 -0.30001307 0.26395422 0.42959258
0000e0 fa 8a 0a 3d 20 db 88 3e b0 62 9d bd 0f df 24 3e
       0.033823945 0.2672968 -0.07684839 0.16100715
0000f0 55 ef 51 3d d1 89 1f be 42 79 7f be e7 cf 8e be
       0.051253635 -0.15579917 -0.249486 -0.27892992
000100 b9 38 e6 bc 4d b0 e8 3c 10 f4 8c 3d e1 e8 5f be
       -0.02810322 0.02840438 0.06882489 -0.2186618
000110 eb 67 8c bd 08 5b 37 bd e4 97 5a be cb 47 5f be
       -0.06855758 -0.04476455 -0.21347004 -0.2180473
000120 07 3c ab be d9 ea 11 be 25 3a 41 bd 82 9a 97 be
       -0.33444235 -0.14249744 -0.04717459 -0.29610068
000130 bf de a3 be b5 51 b2 bd ba ac 1b be e8 89 2e bc
       -0.3200588 -0.08706991 -0.15202609 -0.010652997
000140 d3 89 80 be 34 c5 ba be 07 84 fc bc 44 07 a6 3d
       -0.25105152 -0.3647858 -0.030824674 0.081068546
000150 9c ab 4b 3d a4 5f ae 3b 96 36 60 3e aa f3 25 bd
       0.049724206 0.00532146 0.21895823 -0.04051558
000160 ea fe b6 3e 4d 8f d0 3d 01 9d ff 3d 5e 46 83 be
       0.3574136 0.101835825 0.12481118 -0.25639623
000170 a8 8c 57 be 78 73 a6 bd 81 dc 85 3d 5e e3 42 be
       -0.2104975 -0.08127493 0.065361984 -0.19032046
000180 c6 4c d4 3d 49 68 35 bc 0f e8 2c 3e fa a0 d0 3d
       0.10366206 -0.011072227 0.16885398 0.10186954
000190 74 ec 23 3e 52 c2 32 3e 29 87 d3 3d 9e c2 4f be
       0.16008168 0.1745694 0.10328514 -0.20289084
0001a0 2a 71 3b 3e 3b 92 e8 bd e3 be de be a6 65 43 be
       0.18304887 -0.11356016 -0.4350501 -0.19081745
0001b0 25 b4 7d 3e 55 60 09 be b8 e9 ef bd c4 14 01 be
       0.24775751 -0.13415654 -0.117145 -0.12605578
0001c0 b4 3b 9a 3c 0f 02 86 3d bb 4c 96 3e 22 d3 b2 bc
       0.018827297 0.065433614 0.29355416 -0.021829192
0001d0 4e 5d 9f 3d 5e 05 85 bc 30 c9 50 be fe be 54 3d
       0.07781468 -0.01623791 -0.20389247 0.051939957
0001e0 8d 3e 1b be f8 af 95 3d 2a 61 cc bd 1c 33 aa 3e
       -0.1516058 0.07308954 -0.0997947 0.33242118
0001f0 12 cd 9d bc b1 37 9f bc 75 d0 cf 3d 66 6b 76 3e
       -0.019262824 -0.019435735 0.10147182 0.24064407
000200 e0 ce 28 3d 2a 80 1b 3c c3 e1 99 3d 0a f6 35 3e
       0.041212916 0.009491006 0.07513764 0.17769638
000210 50 a9 50 bd 02 33 05 3d 92 eb 5a 3e 7e 6f 0a be
       -0.05094272 0.032519348 0.21378925 -0.13519093
000220 b6 ae 52 3e d3 7b 60 bd e9 ed 0c 3e 04 91 56 bd
       0.2057446 -0.054805588 0.1376263 -0.05238439
000230 00 43 4a 3d 7f 1e f1 3d 6a 58 fc 3d 60 89 7c bd
       0.049380302 0.11773395 0.12321551 -0.06165445
000240 a3 d7 10 3e 88 88 73 3d ba 92 5c 3d 01 3d aa bd
       0.14144759 0.05945638 0.053850867 -0.08312417
000250 5a 7c 64 be af 13 cb 3d 17 15 39 3e ee 0c b0 3e
       -0.22313061 0.09915864 0.18074451 0.34384865
000260 fc 39 02 be a8 4b ac be b1 c2 00 3d 28 9d 55 3e
       -0.12717432 -0.3365147 0.031435672 0.20860732
000270 35 8c 80 3c 70 2d 59 38 21 8e 6b be 7a 10 36 be
       0.015691856 5.177915e-05 -0.23003437 -0.17779723
000280 44 14 39 3e 59 9d 88 3e 86 21 e3 bc 85 66 61 be
       0.18074137 0.26682547 -0.027725946 -0.22011764
000290 aa b6 05 be a5 82 a4 3e b6 37 91 be df 48 30 3d
       -0.13057962 0.32130924 -0.28362817 0.043038245
0002a0 91 a7 45 3e 09 dd a5 3e 34 13 7e be 0c f8 03 3d
       0.19302203 0.323952 -0.24812013 0.032218978
0002b0 0b 21 12 3d e4 3f 29 3d 3a a4 27 3e c5 f2 29 bd
       0.035676043 0.041320696 0.16371241 -0.04149129
0002c0 06 81 78 be e6 31 4f bd d2 b2 81 3e e2 7b d7 3c
       -0.24267969 -0.050584696 0.25331742 0.02630419
0002d0 28 e1 8f 3e 04 33 7b 3d 44 df 87 bc 96 8e bd bd
       0.28101468 0.06132795 -0.016585954 -0.09255712
0002e0 2d 76 46 be 76 6e 57 be 30 e7 52 be cc 92 cd bd
       -0.19381018 -0.21038231 -0.20596004 -0.10037765
0002f0 8a 8c 77 3e 2d d6 94 bd 59 35 b5 3e 50 97 ab be
       0.24174705 -0.07267413 0.35392264 -0.3351388
000300 5a 10 5e be 5b 50 1b 3d 72 d2 d2 3c b8 bb 11 3d
       -0.21685925 0.03791843 0.025735114 0.035579413
000310 96 4d 91 3e ea 49 37 3d 24 3e 3d bd 34 65 01 be
       0.28379506 0.044748224 -0.04620184 -0.12636262
000320 3c 5e d3 be ca 1e 38 be ac 3f 2a 3e 56 cb 14 3d
       -0.41282833 -0.17980495 0.16625851 0.03632673
000330 44 5e 47 3e 7d bc 52 3d 93 e2 85 3d 3d fa a2 bd
       0.19469553 0.051449288 0.06537356 -0.079578854
000340 d5 59 2e 3e 6f 65 a4 bd fa 44 7f bd 4a 57 ef bd
       0.17026456 -0.080271594 -0.06232164 -0.11686571
000350 ef fe 28 3e 56 61 fd bc d6 c6 00 3d 13 58 be 3e
       0.165035 -0.030930202 0.031439625 0.3717657
000360 88 9e 79 be 49 82 37 3d 69 08 8e 3e 45 a6 ee 3c
       -0.24376881 0.044801984 0.2774079 0.029132018
000370 d0 59 b7 bd 71 01 a3 3d 3c 28 17 3e 36 93 86 3e
       -0.08952677 0.07959259 0.14761442 0.26284188
000380 57 49 9d be d5 3a 91 bd ea b9 66 bd 5e 55 22 3e
       -0.30720016 -0.070912994 -0.056329645 0.15852877
000390 86 b6 9f 3d 6f 76 27 be 23 63 a1 3e 11 c5 8e 3c
       0.077984855 -0.16353773 0.31520948 0.017427953
0003a0 89 b2 39 3c df 8a 44 3e 4e 80 cc 3d 4a fd 81 3d
       0.01133407 0.191936 0.0998541 0.06347139
0003b0 53 a6 bd bd 5a 4a 90 be 98 d7 0c be d9 45 67 be
       -0.092602395 -0.28181726 -0.13754117 -0.22585239
0003c0 da 3d 04 3d 1a 67 5d bd 15 7d d8 3c 02 af 0d 3e
       0.03228555 -0.054053403 0.026426831 0.13836291
0003d0 1d dd 4d be 67 55 36 bd 8e eb 42 3e 96 3e 2e 3d
       -0.2010388 -0.04451504 0.1903517 0.042540155
0003e0 b0 26 c8 bc 7f bf b3 3d 9b a5 b5 be 71 87 d8 bd
       -0.02443251 0.08776759 -0.3547791 -0.105727084
0003f0 69 9a 21 be ce 9f b0 bc eb fd 1d be d2 b2 a2 3d
       -0.15781559 -0.021560576 -0.15428893 0.079442635
