project_3_inny/models/mnist_lda_mlp.pth (torch, 8832 bytes, 4 tensors)

linear_1.weight f4 [128, 2]
0	0x3eed0e19	0.46299818
1	0x3f165b6e	0.5873326
2	0xbdb30f41	-0.08743144
3	0xbf41781a	-0.75573885
4	0xbf0bd285	-0.546181
5	0xbefa2190	-0.4885373
6	0x3ecf5aaf	0.40498874
7	0xbf0f3672	-0.5594245
8	0xbe22b1e5	-0.15888174
9	0x3eb1cdda	0.34727365
10	0x3f061434	0.5237458
11	0xbf3a0575	-0.72664577
12	0x3ea8a5f7	0.3293912
13	0xbe4f812f	-0.20264123
14	0x3ecb2074	0.39673197
15	0x3eb9eeb2	0.36314923
16	0xbc7f838b	-0.015595327
17	0xbf2d3d64	-0.676718
18	0xbe9c7064	-0.30554497
19	0x3ee99382	0.45620352
20	0x3f3db8ce	0.74110115
21	0x3f09d917	0.5384688
22	0xbe428ee5	-0.18999822
23	0xbea5c658	-0.32377887
24	0xbf1c1879	-0.6097484
25	0x3e5769c1	0.21036436
26	0xbf3a54c6	-0.72785604
27	0x3e99c010	0.30029345
28	0xbd5f669b	-0.05454121
29	0xbccef713	-0.025264299
30	0x3d3ba4eb	0.045811575
31	0x3ee39bb6	0.44454736
32	0xbf44e3e1	-0.76910216
33	0x3d7a35a4	0.061086312
34	0xbd7ddf99	-0.061980817
35	0xbf4245f8	-0.75888014
36	0x3eb534a1	0.35391715
37	0x3bd7b9be	0.0065834215
38	0xbcaf1479	-0.021372067
39	0xbf307720	-0.6893177
40	0xbf21f7b6	-0.632686
41	0x3e87cce9	0.26523522
42	0xbed7f55b	-0.4217938
43	0x3e7bdd31	0.24596097
44	0xbdcdba86	-0.10045342
45	0x3ec77335	0.38955083
46	0x3eabd1be	0.33558458
47	0xbdcbb896	-0.09947316
48	0x3f2225b8	0.63338804
49	0x3e8d2691	0.27568486
50	0xbb865da7	-0.0041005197
51	0xbf375756	-0.7161764
52	0xbe4d97eb	-0.20077483
53	0xbf552dab	-0.8327281
54	0x3f2180bd	0.63087064
55	0xbdba0be4	-0.09084299
56	0xbefa12bf	-0.48842427
57	0x3eb668ab	0.3562673
58	0xbe826df1	-0.25474504
59	0xbef3ac69	-0.47592476
60	0xbe979483	-0.29605493
61	0xbc1a7ad2	-0.009428697
62	0xbe9bec42	-0.30453688
63	0xbf38e6e8	-0.72227335
64	0xbf04971e	-0.51793087
65	0x3d351519	0.044209573
66	0x3cd603ea	0.026124913
67	0xbd74b6a6	-0.0597445
68	0xbed6fecc	-0.4199127
69	0xbed11451	-0.40835813
70	0x3d3dd3bd	0.046344507
71	0x3eaa40a4	0.33252442
72	0xbea59127	-0.32337305
73	0xbf219ca4	-0.6312964
74	0x3eec099f	0.4610109
75	0xbd90355e	-0.07041429
76	0x3e1794bc	0.14802831
77	0xbf1f940c	-0.62335277
78	0xbeab0da5	-0.33408847
79	0xbf0152a0	-0.505167
80	0x3f11b72b	0.5692012
81	0x3de927f0	0.113845706
82	0x3d9d9fd1	0.07696498
83	0x3e740ba7	0.2383257
84	0x3f42a846	0.76038015
85	0x3e5bf66e	0.21480724
86	0xbf010384	-0.5039599
87	0xbf0aee93	-0.54270285
88	0xbe8869e1	-0.2664328
89	0xbd238102	-0.039917953
90	0xbec856d7	-0.39128754
91	0xbb013a1e	-0.0019718478
92	0x3ea7ed26	0.32798117
93	0xbbbe4633	-0.0058067082
94	0x3da187f2	0.07887258
95	0x3e98aa0c	0.29817235
96	0x3f1b51a7	0.60671467
97	0x3e36b870	0.17843795
98	0xbe7e3f54	-0.24828845
99	0x3e59ca41	0.2126856
100	0xbdaff233	-0.08591118
101	0x3ee2bc2a	0.44284183
102	0x3d5ac0a4	0.053406373
103	0x3f3135ac	0.6922252
104	0xbf2c4304	-0.6728976
105	0x3da6bcda	0.08141489
106	0x3f37d2c7	0.71805996
107	0x3ea64034	0.32470858
108	0x3e521f46	0.20519742
109	0xbdd1f89a	-0.10252495
110	0x3ce31379	0.027719246
111	0xbeaaf651	-0.3339105
112	0xbedb7b1c	-0.42867362
113	0x3ddffdfd	0.10937116
114	0x3ef1fe85	0.47264495
115	0xbf3d8682	-0.7403337
116	0x3f3540e9	0.7080217
117	0x3efce249	0.49391392
118	0xbf1972f5	-0.59941036
119	0xbdedf054	-0.116181046
120	0xbebc9893	-0.36835155
121	0xbf2f570a	-0.68492186
122	0xbf0275bd	-0.50960904
123	0x3f0a726c	0.54080844
124	0xbeec0107	-0.46094534
125	0xbf2f9edc	-0.68601775
126	0x3eb19c4c	0.34689558
127	0x3d8123f4	0.06305686
128	0x3ea79bc3	0.32736024
129	0xbe9cfd9b	-0.30662236
130	0x3d06a485	0.03287174
131	0xbf21ccd0	-0.63203144
132	0xbf2ae245	-0.6675151
133	0x3e72483b	0.23660366
134	0xbe3dbdee	-0.18529484
135	0x3ecd0acc	0.400473
136	0xbed467e1	-0.41485503
137	0xbe007dc7	-0.1254798
138	0xbf3b2b14	-0.73112607
139	0xbd1b6b32	-0.037944026
140	0xbde21b05	-0.1104031
141	0x3f244501	0.6416779
142	0x3f410ba4	0.7540839
143	0xbe0d5e1f	-0.13805436
144	0xbe27bef4	-0.16381437
145	0xbea34f9c	-0.31896675
146	0xbee4ddfa	-0.44700605
147	0x3d20f05c	0.039291725
148	0x3f050a81	0.5196915
149	0x3ef6ec12	0.48226982
150	0x3efbc89a	0.49176484
151	0x3ee0e88a	0.43927413
152	0x3e98e2e6	0.2986061
153	0xbdef643d	-0.11689041
154	0x3ec54393	0.38528118
155	0xbe2b44f1	-0.16725518
156	0xbedd9838	-0.43280196
157	0xbea38936	-0.3194062
158	0xbee18990	-0.44050264
159	0x3ef3badc	0.476035
160	0x3f04a8b7	0.5181994
161	0x3f141773	0.5784828
162	0x3d25124c	0.040300652
163	0xbf5c1a2e	-0.8597745
164	0x3d8ec881	0.06971837
165	0xbf1b6baf	-0.6071119
166	0x3f2529fc	0.6451719
167	0xbe7f3ac7	-0.24924766
168	0x3f1d5026	0.6145042
169	0x3f02b2b3	0.51053923
170	0x3f3d310f	0.7390298
171	0x3e40ee1d	0.18840833
172	0xbd82744a	-0.06369837
173	0xbeacc650	-0.3374505
174	0x3ea56ddb	0.32310376
175	0xbe42c9c0	-0.19022274
176	0x3eafc896	0.34332722
177	0xbef5093f	-0.47858617
178	0xbf27a675	-0.6548837
179	0x3dd52796	0.10407941
180	0xbe966c22	-0.29379374
181	0x3e83012c	0.25586832
182	0xbd5f8347	-0.054568555
183	0x3e87b8f1	0.26508287
184	0x3ec7cef8	0.39025092
185	0x3d94796a	0.072497204
186	0xbf0e6a8d	-0.55631334
187	0xbeffc5ad	-0.49955502
188	0x3e946b07	0.28987905
189	0xbf32fd1e	-0.69917476
190	0xbe8803bc	-0.2656535
191	0xbddf651c	-0.10907957
192	0x3efe9421	0.49722388
193	0xbdc9d4f7	-0.09855073
194	0xbe409631	-0.18807293
195	0x3f29544e	0.66144264
196	0x3ecd59a5	0.40107456
197	0x3f455464	0.77081895
198	0xbceed8fd	-0.029156202
199	0x3d85e25e	0.06537317
200	0xbf0c9517	-0.54914993
201	0x3f1f2ced	0.62177926
202	0x3e3f8658	0.18703592
203	0xbf2cafea	-0.67455924
204	0x3ec05674	0.37565958
205	0xbf25b759	-0.6473289
206	0xbe54e0b9	-0.2078885
207	0xbed947d5	-0.42437616
208	0x3eb1b63a	0.3470934
209	0xbe4cb061	-0.19989158
210	0x3f18eec4	0.5973933
211	0x3eef4ad3	0.46736774
212	0x3f0d9908	0.5531163
213	0xbe8a087c	-0.26959598
214	0x3ebb0f5b	0.36535153
215	0xbe6bc825	-0.23025568
216	0x3d03f253	0.03221352
217	0xbf30cdfd	-0.69064313
218	0xbf1f43bb	-0.62212723
219	0x3e40ed9b	0.1884064
220	0xbd435366	-0.047686957
221	0xbb986c9a	-0.004651618
222	0xbf1659cb	-0.58730763
223	0x3d21409c	0.039368257
224	0xbe905c4c	-0.28195417
225	0x3f1369c3	0.57583255
226	0x3e96716d	0.29383412
227	0xbeb57514	-0.35440886
228	0xbe6314f9	-0.22175969
229	0xbddd47f0	-0.108047366
230	0xbeb40eca	-0.35167533
231	0xbeb0c462	-0.34524828
232	0xbf171e2e	-0.59030426
233	0x3f0b874c	0.5450332
234	0xbe6e3bfb	-0.23265068
235	0x3f2a8488	0.66608477
236	0x3c8d92ed	0.017281974
237	0x3e0b0926	0.13577709
238	0x3eba7891	0.3642011
239	0xbe496bde	-0.19670054
240	0xbeb89bd3	-0.36056384
241	0xbf04f93a	-0.5194279
242	0xbdff1175	-0.124545015
243	0x3eebaa3b	0.46028313
244	0xbe5a5134	-0.21320039
245	0x3e954229	0.2915204
246	0xbf1f01e1	-0.6211224
247	0x3d796c89	0.060894523
248	0x3dba2e4a	0.0909086
249	0x3f17f731	0.5936156
250	0xbdbf098e	-0.09327994
251	0x3def2551	0.116770394
252	0x3eb90f84	0.3614465
253	0x3ed65dad	0.41868344
254	0x3ed61f35	0.41820684
255	0xbe71b6e6	-0.23604926

linear_1.bias f4 [128]
0	0x3efda9bd	0.49543563
1	0xbf51d4ab	-0.8196513
2	0xbd40040c	-0.04687886
3	0xbe410f81	-0.1885357
4	0x3f434dd1	0.76290613
5	0xbe5e5cbf	-0.21715067
6	0xbf66dc83	-0.90180224
7	0xbe216446	-0.15760908
8	0xbf309c26	-0.68988264
9	0x3e4bb735	0.19894107
10	0xbee482db	-0.44631085
11	0xbf0c216f	-0.54738516
12	0xbf1d6e15	-0.61496097
13	0xbf7864cb	-0.970288
14	0x3ebab3dd	0.3646535
15	0xbf1dd1ea	-0.6164843
16	0x3f037d02	0.5136262
17	0x3f2fa65f	0.6861324
18	0x3f40b90b	0.75282353
19	0x3f1ed95a	0.620504
20	0xbf2d22ec	-0.6763141
21	0xbed42c0f	-0.41439864
22	0x3f4a5406	0.7903446
23	0xbf6ab7dd	-0.91686803
24	0xbf2b1256	-0.66824853
25	0x3e896380	0.26833725
26	0x3efe1705	0.49626938
27	0xbe4828b7	-0.19546781
28	0xbe741533	-0.23836212
29	0xbedababb	-0.4272059
30	0x3f0a5c35	0.54046947
31	0x3eaf7aa6	0.3427326
32	0x3eb77c32	0.3583694
33	0x3f31e21b	0.69485635
34	0xbf1f4a91	-0.62223154
35	0x3eb15d6d	0.3464159
36	0x3e983e13	0.2973486
37	0x3eb2b308	0.34902215
38	0x3da6ecbe	0.08150624
39	0xbf52797c	-0.8221662
40	0xbf530bf4	-0.82440114
41	0xbe47cf63	-0.19512706
42	0xbe372924	-0.17886788
43	0xbe9d91fe	-0.30775446
44	0xbd776048	-0.060394555
45	0xbea46518	-0.32108378
46	0x3f328b94	0.6974423
47	0xbe5367a0	-0.20644999
48	0xbea0ec71	-0.3143039
49	0xbf3854c8	-0.72004366
50	0x3f5ca291	0.86185557
51	0xbf76c258	-0.96390295
52	0x3e6f364f	0.23360561
53	0xbf17599b	-0.591211
54	0xbf2adce1	-0.66743284
55	0xbf094520	-0.536211
56	0x3f078394	0.5293515
57	0xbefdc367	-0.49563143
58	0xbeffb929	-0.49945953
59	0x3f5fb098	0.87378836
60	0xbf10c868	-0.56555796
61	0xbe4b3ce1	-0.19847442
62	0xbf313305	-0.69218475
63	0x3f40d9f2	0.7533256
64	0xbd43dda5	-0.0478188
65	0xbf13b0f6	-0.57691896
66	0xbf14840f	-0.58014005
67	0xbeab4aa3	-0.3345538
68	0x3f4e1557	0.8050131
69	0x3f7f922a	0.99832404
70	0xbe4c8297	-0.19971691
71	0xbe74bc40	-0.23899937
72	0xbe0de4b0	-0.13856769
73	0x3f2614c4	0.64875436
74	0x3f42a2c2	0.760296
75	0x3de96df8	0.11397928
76	0x3e51327f	0.20429419
77	0x3e7e8de5	0.24858816
78	0x3f4d08c2	0.8009149
79	0xbe305edb	-0.17223684
80	0xbecbad64	-0.39780724
81	0xbf0b0225	-0.5430015
82	0x3e1fa0bc	0.15588659
83	0xbe380482	-0.1797047
84	0x3e8776df	0.2645788
85	0x3d29450f	0.041325625
86	0x3f23272a	0.63731635
87	0x3f41c40c	0.7568977
88	0xbf1c9e1f	-0.61178774
89	0x3e9ea201	0.30982974
90	0xbf3aac0f	-0.7291879
91	0x3eff8fe8	0.4991448
92	0xbf10e411	-0.56598
93	0xbe8e411c	-0.2778405
94	0x3e953706	0.29143542
95	0x3e014a9c	0.12626117
96	0xbd5a9743	-0.05336691
97	0xbd9a8a95	-0.07545964
98	0xbf389333	-0.7209961
99	0xbf12e6f4	-0.57383657
100	0xbcb64318	-0.02224879
101	0xbf28f9cb	-0.66006154
102	0xbe22dbce	-0.15904161
103	0xbe428aa4	-0.189982
104	0x3f52b085	0.823006
105	0xbda9a67f	-0.0828371
106	0x3f35b264	0.7097533
107	0x3f69b33e	0.91289127
108	0xbf465441	-0.7747231
109	0xbf25b5ec	-0.64730716
110	0x3ef7f4f6	0.48429078
111	0x3ed0c1d6	0.40772885
112	0x3f45206c	0.77002597
113	0xbf06090c	-0.52357554
114	0x3f3c71be	0.73611057
115	0xbf4e1f93	-0.8051693
116	0xbf0e73c0	-0.5564537
117	0xbe25fdb1	-0.16210057
118	0xbe94fa8a	-0.29097396
119	0x3f5d1c8a	0.8637167
120	0xbf0778dd	-0.529188
121	0x3f5feb79	0.8746868
122	0xbf1ec806	-0.6202396
123	0xbef9b709	-0.48772457
124	0xbf2f06bf	-0.6836967
125	0x3f2f95b5	0.6858781
126	0x3f00b759	0.50279766
127	0x3f67a216	0.904817

linear_2.weight f4 [10, 128]
0	0xbcf082ca	-0.02935924
1	0x3d169872	0.036766477
2	0x3e1f4cdd	0.15556665
3	0xbe78ea5c	-0.24308151
4	0xbdcfa3bb	-0.10138651
5	0xbead1fdf	-0.33813378
6	0xbe8c067a	-0.2734869
7	0x3d776afb	0.06040476
8	0x3e7e3050	0.24823117
9	0xbe3bae5d	-0.18328233
10	0x3d1f3012	0.038864203
11	0x3dc6ad0c	0.09700975
12	0xbc75a8f7	-0.014993898
13	0x3d884e85	0.066556014
14	0xbd8eeb22	-0.06978442
15	0xbd3e305a	-0.04643283
16	0x3cb918a9	0.022594767
17	0x3bdbf431	0.0067124595
18	0xbdcc8f6d	-0.09988294
19	0x3d52b40f	0.05144125
20	0x3d18fd2b	0.037350815
21	0x3db043ec	0.08606705
22	0xbe8c0eee	-0.2735514
23	0xc008a0f4	-2.1348238
24	0xbe4aa9cd	-0.19791336
25	0x3d91d137	0.07119983
26	0x3e0afb74	0.13572484
27	0xbe39aed9	-0.18133105
28	0xbc16e6a2	-0.009210261
29	0x3c949b9a	0.018140603
30	0x3d3b6960	0.04575479
31	0x3e12a677	0.14321314
32	0x3c5e35a9	0.013562598
33	0xbd3df307	-0.046374347
34	0x3e002754	0.12515002
35	0xbe046f6a	-0.12933126
36	0x3df0ab80	0.11751461
37	0x3d3383b0	0.04382676
38	0x3e306a33	0.17228012
39	0x3df0e8de	0.11763166
40	0xbe9b8c6d	-0.30380574
41	0xbdcf5561	-0.101237066
42	0xbdfbb251	-0.122898705
43	0x3da38ca3	0.07985809
44	0x3d4175c6	0.047231458
45	0x3b8b1eae	0.0042456007
46	0xbd4ee09d	-0.050507177
47	0xba73fbd9	-0.00093072426
48	0xbe622a95	-0.22086556
49	0xbc798857	-0.01523026
50	0xbe9aa34c	-0.3020271
51	0xbe1483ad	-0.14503355
52	0x3c0da24e	0.0086446535
53	0xbe2e8e44	-0.17046458
54	0xbeb49f9f	-0.3527803
55	0x3e3b8e55	0.18316014
56	0xbd200360	-0.03906572
57	0xbebeb72d	-0.37249127
58	0x3ce01310	0.02735284
59	0xbcb189c8	-0.021672145
60	0x3dc56c88	0.09639841
61	0xbe0d2ef2	-0.1378744
62	0x3e1a2de9	0.15056576
63	0x3d8017c9	0.06254537
64	0xbe6b7a79	-0.22995938
65	0x3e0c9aed	0.13730974
66	0x3dc34b29	0.0953582
67	0x3eeda49a	0.46414644
68	0x3c82027a	0.015870322
69	0x3adaee23	0.001670305
70	0x3ed9f4be	0.42569536
71	0xbda8dc59	-0.08245153
72	0x3dec2069	0.11529619
73	0xbd99676e	-0.07490431
74	0xbe3476f6	-0.17623505
75	0xbe37a222	-0.17932943
76	0xbc59ee01	-0.013301373
77	0xbe142bca	-0.14469829
78	0x3dc2a4d6	0.09504096
79	0xbe0d21ee	-0.13782474
80	0x3d83f928	0.06444007
81	0x3e164ca9	0.14677681
82	0x3e3061f2	0.17224863
83	0xbe171cc9	-0.14757074
84	0xbda792dc	-0.08182308
85	0xbe0a1709	-0.1348535
86	0xbcb098de	-0.021557268
87	0xbe304e87	-0.17217456
88	0xbf0de268	-0.55423594
89	0xbd5051fc	-0.050859436
90	0x3d49655b	0.049168926
91	0xbed3919a	-0.41322023
92	0xbe9e8fc6	-0.30969065
93	0x3de71215	0.11282746
94	0x3e0135ff	0.12618254
95	0x3ded6b81	0.1159277
96	0xbd80952d	-0.06278453
97	0x3e8b5b97	0.27218315
98	0xbe24cbc5	-0.16093357
99	0x3d91fa60	0.07127833
100	0xbe511931	-0.20419766
101	0xbd4c49fd	-0.04987525
102	0xbe6ae693	-0.2293952
103	0x3e0064ba	0.12538424
104	0xbe822abc	-0.2542323
105	0xbe01f78a	-0.12692085
106	0xbe3baa1d	-0.18326612
107	0xbe380be5	-0.17973287
108	0x3e02856e	0.12746212
109	0x3e1e7643	0.15474801
110	0xbded9d98	-0.11602324
111	0x3ab9d2e9	0.0014177236
112	0xbe27f89f	-0.16403435
113	0xbf07b0dc	-0.5300424
114	0xbd75d7a5	-0.060020108
115	0x3d15b6bf	0.036551233
116	0xbdbce9e9	-0.09224302
117	0x3eab5969	0.33466652
118	0xbd81ea16	-0.063434765
119	0xbe6297c2	-0.22128204
120	0xbc7b2dc9	-0.01533074
121	0xbebe48c2	-0.37164885
122	0x3eb0f65b	0.34562954
123	0x3dae2f61	0.085051306
124	0xbe302987	-0.17203341
125	0xbe06a213	-0.13147764
126	0xbe26bacf	-0.162822
127	0xbd90ba1e	-0.07066749
128	0xbd603538	-0.054738253
129	0xbcb4208c	-0.021988176
130	0xbd8fadff	-0.07015609
131	0x3d5f0bbd	0.054454554
132	0xbc983e47	-0.018584384
133	0x3d32af0d	0.043623973
134	0x3dc982b2	0.09839381
135	0x3dd22076	0.10260098
136	0x3d2b469c	0.041815385
137	0x3e1a9ffe	0.15100095
138	0x3db3bf79	0.08776755
139	0xbe28a28a	-0.16468254
140	0xbd052387	-0.032504585
141	0x3dcc8f32	0.0998825
142	0xbe42678b	-0.18984811
143	0x3d89a94d	0.06721745
144	0xbe645dcd	-0.22301407
145	0x3d44f5d0	0.048085988
146	0x3a65362b	0.00087437284
147	0x3affa053	0.0019502736
148	0xbcbe491e	-0.023228224
149	0x3d93ea77	0.07222455
150	0x3cb34016	0.021881144
151	0xbe8a61d7	-0.2702777
152	0x3e2b48b6	0.16726956
153	0x3da4cb8e	0.080466375
154	0x3db6a616	0.08918397
155	0xbf3cd245	-0.73758346
156	0x3cfcaa0f	0.030842809
157	0xbdb17cea	-0.086664036
158	0xbdd00ff8	-0.10159296
159	0x3a4792c7	0.0007613119
160	0xbe8db452	-0.27676636
161	0xbddf2bef	-0.108970515
162	0xbe04ebef	-0.12980627
163	0x3daa50df	0.08316206
164	0xbd1c1345	-0.038104314
165	0xbd23f90c	-0.04003243
166	0x3d43d900	0.04781437
167	0xbe843322	-0.2582026
168	0xbf39f30d	-0.7263649
169	0x3dee202e	0.116272315
170	0x3e8a65e0	0.2703085
171	0xbe402986	-0.1876584
172	0x3f10b1a7	0.56521076
173	0x3f199737	0.5999636
174	0x3cdae33f	0.026719688
175	0x3e00c9a1	0.12576915
176	0x3da9f6ba	0.082990125
177	0x3de3f311	0.111303456
178	0x3d876dbf	0.06612729
179	0x3e1700bd	0.14746375
180	0xbe8fe6fa	-0.2810591
181	0x3e8747cd	0.26421967
182	0xbdd9491c	-0.10609648
183	0x3e57f56c	0.21089715
184	0xbd8244a0	-0.063607454
185	0x3d1e48a6	0.0386435
186	0x3dfd26de	0.12360929
187	0xbe1c4030	-0.1525886
188	0xbcf11e3f	-0.029433368
189	0x3ddea29c	0.10870859
190	0xbe244d3a	-0.16045085
191	0xbd831f99	-0.06402511
192	0x3d299443	0.04140116
193	0x3cc7e5e3	0.02440161
194	0xbd2b8d95	-0.04188307
195	0x3e29d71f	0.16585968
196	0xbe50e560	-0.204
197	0xbe573594	-0.21016532
198	0x3e2c5a6a	0.16831365
199	0xbecb55fd	-0.3971404
200	0x3d75002d	0.05981462
201	0xbe2b1524	-0.16707283
202	0xbd454c3a	-0.0481684
203	0xbd1a9e4e	-0.037748627
204	0xbe3f8be3	-0.18705706
205	0xbe8f3820	-0.27972507
206	0x3d3254df	0.04353797
207	0x3c24d237	0.010059885
208	0x3ddbd4be	0.10733937
209	0x3e05b02e	0.13055488
210	0x3d114794	0.035468653
211	0xbdb1df26	-0.0868514
212	0x3d15fe92	0.03661973
213	0x3e70c45a	0.23512402
214	0x3ccb1308	0.024789348
215	0xbe4f3b03	-0.20237355
216	0x3e0bf3bd	0.13667198
217	0xbe63c4f4	-0.222431
218	0x3c7b0ac5	0.015322392
219	0xbb77950c	-0.0037778048
220	0xbf63c594	-0.88973355
221	0xbd889d27	-0.066705994
222	0x3e1721f5	0.14759047
223	0x3e717e5f	0.23583363
224	0xbee1ace5	-0.4407722
225	0x3dd1c5c4	0.10242799
226	0x3c34f831	0.011045502
227	0x3d3c52a8	0.045977265
228	0x3d657ad7	0.056025352
229	0x3e0dc305	0.13843925
230	0x3dd1416e	0.10217558
231	0xbd0a7378	-0.033801526
232	0xbe770f18	-0.24126852
233	0x3dba50b9	0.09097428
234	0xbe744314	-0.23853713
235	0xbe977401	-0.2958069
236	0x3cf49b5f	0.029859243
237	0x3d731805	0.05934908
238	0xbdf46ef3	-0.119352244
239	0xbeb6bbf6	-0.35690278
240	0x3de18f4b	0.11013659
241	0x3d8de7f9	0.06929011
242	0xbd5df27c	-0.05418633
243	0xbe726614	-0.23671752
244	0x3d95445f	0.072884314
245	0x3e310564	0.17287213
246	0x3d6c04df	0.057621833
247	0xbde085fd	-0.10963056
248	0xbdd2a836	-0.1028599
249	0x3c95c042	0.018280152
250	0x3d821722	0.063520685
251	0x3e97ffa5	0.2968723
252	0x3e1d2913	0.153477
253	0xbdcd2103	-0.10016062
254	0x3d443d7a	0.04791019
255	0xbe7b869d	-0.2456307

linear_2.bias f4 [10]
0	0xbe469837	-0.19394003
1	0xbd02d822	-0.0319444
2	0x3d9d10c0	0.076692104
3	0x3d264b9c	0.04059945
4	0x3dcb7c05	0.09935764
5	0xbd172b34	-0.036906436
6	0x3cf594cd	0.02997818
7	0xbe285855	-0.16439946
8	0x3e3211f2	0.17389658
9	0x3c814a98	0.01578264
