project_3_inny/models/mnist_mlp.pth (torch, 409184 bytes, 4 tensors)

linear_1.weight f4 [128, 784]
0.04034739 0.021831509 -0.00243304 0.04561597 0.036600336 0.048559636 0.04274007 0.044063106
0.012246367 0.022395205 0.05206056 0.011969603 0.008737436 0.0351659 0.033554398 0.03196652
-0.0031511027 0.020847872 0.034368016 -0.011927413 0.018757936 0.025324196 0.016382467 0.00246423
0.04080975 0.025639914 -0.0071195518 0.0013165637 0.042297766 0.030063855 0.05105909 0.018535484
0.03971052 0.036801584 0.018147659 0.05370559 0.035122305 -0.0039000583 0.013447894 0.010471911
0.0315938 0.005356182 0.0018935226 0.060730517 -0.01678577 -0.015074852 0.020428605 0.055965725
0.0054153036 -0.012018053 0.046102643 0.041420996 0.020402584 -0.013631076 -0.010004996 0.052123815
-0.010354691 -0.0014311562 0.003568678 -0.01625168 -0.006597425 -0.0017932307 -0.01034126 0.021712584
0.0434987 0.03138396 0.0017741341 -0.0018627174 -0.026109142 0.0060238354 -0.053697683 -0.042245306
-0.01399328 -0.025571901 0.047940608 0.06382141 0.049683064 0.030286703 0.048751794 0.05199598
0.054240495 0.02595366 0.025296912 0.0056612235 0.036502443 0.05100052 -0.014781452 0.018105106
-0.008744253 0.02541114 0.008387004 -0.0065332805 0.015461163 -0.070941396 -0.058423303 -0.04779816
-0.037855178 -0.08764049 -0.114566885 -0.042693835 0.0020234247 0.09441558 0.1540119 0.10641116
0.19264524 0.12045143 0.052323066 0.01932545 0.041752875 0.047075193 -0.0051941653 0.014383637
0.023673967 -0.0058347993 -0.013350235 0.022514174 0.0476924 0.04300446 0.024633711 -0.03978558
-0.09476688 -0.14364225 -0.24313487 -0.13796446 -0.10772083 -0.055938836 -0.10859422 -0.05120944
-0.06900498 -0.06623418 -0.06020713 0.07985369 0.061076295 0.11953763 0.08300633 0.10658345
0.08179121 0.012313585 0.011266949 0.014621017 0.0018380334 0.005336957 0.027863547 0.047373317
0.028901525 0.033266623 0.04350662 -0.041810844 -0.11763556 -0.09908538 -0.14164713 -0.14686765
-0.15111321 -0.024106726 -0.03521702 -0.07573151 -0.09553212 0.007165128 -0.045369443 -0.04262774
0.01088713 -0.09059578 -0.020793285 0.054204077 0.04637323 0.0133515615 0.032179218 -0.00089129474
0.015840936 0.0061905566 0.043998796 -0.010859178 0.008548541 0.04280407 0.017756272 -0.059237495
-0.07192993 -0.13286713 -0.08118401 -0.116263494 -0.2092753 -0.075441845 -0.11776686 -0.115238905
-0.04454916 0.05571227 0.13192806 0.14322667 0.17646593 -0.0383567 0.032271147 0.114891686
0.14569303 0.055683173 0.0133967595 0.026872681 -8.578309e-05 -0.010786663 0.047633827 0.032370247
0.034207184 -0.013034936 -0.08831141 -0.10301485 -0.23328404 -0.18682063 -0.08395754 -0.0989443
-0.12719837 -0.15303108 -0.006073514 0.097544186 0.07696471 0.14330271 0.13814342 0.12948416
0.10211712 -0.015907558 0.05675216 0.2206374 0.10095042 0.05647073 0.00406464 0.008642478
0.025965923 -0.008217198 0.034285713 0.027700827 -0.018632466 -0.03288924 -0.06701618 -0.151373
-0.2214784 -0.23884235 -0.1785786 -0.15538682 0.0073837605 0.018657617 0.13235012 0.25399315
0.22319669 0.18699929 0.1606841 -0.021396402 0.038384195 0.11724051 0.13361919 0.084363736
0.22338584 0.09680005 0.05635898 0.040730715 0.0041509597 -0.0026461028 0.015299964 -0.011802657
00000000: 4e43 253d fed7 b23c a373 1fbb d0d7 3a3d
00000010: 3cea 153d 78e6 463d 3610 2f3d 847b 343d
00000020: fca4 483c 2676 b73c 743d 553d 271c 443c
00000030: 7627 0f3c 1e0a 103d 5670 093d 53ef 023d
00000040: bb82 4ebb 28c9 aa3c 7ac5 0c3d 326b 43bc
00000050: 3eaa 993c b074 cf3c 8634 863c eb7e 213b
00000060: 2028 273d cc0a d23c 214b e9bb 8c90 ac3a
00000070: 6c40 2d3d 7948 f63c 5623 513d bad7 973c
00000080: 80a7 223d 42bd 163d 66aa 943c 65fa 5b3d
00000090: 68dc 0f3d 1f98 7fbb 8e54 5c3c 6192 2b3c
000000a0: 8068 013d e982 af3b 1330 f83a 90c0 783d
000000b0: 5082 89bc 83fc 76bc e459 a73c 513c 653d
000000c0: dc72 b13b 5ee7 44bc 20d6 3c3d 10a9 293d
000000d0: 5223 a73c e054 5fbc ffeb 23bc c87f 553d
000000e0: b9a6 29bc a295 bbba 7be0 693b 3e22 85bc
000000f0: 362f d8bb d60a ebba 636e 29bc 97de b13c
00000100: b12b 323d 788c 003d 108a e83a 6d26 f4ba
00000110: d7e2 d5bc 9863 c53b 1af2 5bbd 6a09 2dbd
00000120: 1244 65bc 2a7c d1bc 5f5d 443d cdb4 823d
00000130: 7880 4b3d d21b f83c f6af 473d bdf9 543d
00000140: 482b 5e3d c59c d43c 783b cf3c c981 b93b
00000150: 9683 153d ece5 503d e72d 72bc 2951 943c
00000160: 0e44 0fbc 062b d03c a569 093c 2115 d6bb
00000170: d150 7d3c b949 91bd 464d 6fbd 01c8 43bd
00000180: 080e 1bbd db7c b3bd 0ba2 eabd bbdf 2ebd
00000190: 6f9b 043b f55c c13d 4cb5 1d3e 18ee d93d
000001a0: cb44 453e 3daf f63d b650 563d 6850 9e3c
000001b0: 1005 2b3d ebd1 403d d133 aabb 59a9 6b3c
000001c0: e8ef c13c d831 bfbb f2ba 5abc a56f b83c
000001d0: 1b59 433d 7225 303d a3cc c93c 34f6 22bd
000001e0: 2315 c2bd f416 13be 59f8 78be 8e46 0dbe
000001f0: bd9c dcbd 1f20 65bd a566 debd fdc0 51bd
00000200: 7c52 8dbd c9a5 87bd c09b 76bd 558a a33d
00000210: 232b 7a3d 25d0 f43d 39ff a93d 6d48 da3d
00000220: 2682 a73d ebbe 493c 0299 383c fd8c 6f3c
00000230: 2bea f03a a4e1 ae3b 1842 e43c 860a 423d
00000240: e4c2 ec3c 9542 083d ff33 323d d941 2bbd
00000250: eaea f0bd 47ed cabd f20b 11be 7964 16be
00000260: 6cbd 1abe 787b c5bc b93f 10bd 1f19 9bbd
00000270: 58a6 c3bd 73c9 ea3b 4fd5 39bd 6d9a 2ebd
00000280: ef5f 323c 488a b9bd ae56 aabc 1805 5e3d
00000290: dbf1 3d3d 82c0 5a3c 5bce 033d c7a5 69ba
000002a0: dac4 813c 27da ca3b 1538 343d b2ea 31bc
000002b0: 2e0f 0c3c 5253 2f3d 9a75 913c 04a3 72bd
000002c0: 0050 93bd 520e 08be cd43 a6bd 8e1b eebd
000002d0: 444c 56be 4181 9abd c02f f1bd 6002 ecbd
000002e0: 2e79 36bd 8d32 643d 2618 073e 03aa 123e
000002f0: 7cb3 343e ea1b 1dbd c02e 043d 554c eb3d
00000300: 8e30 153e 0a14 643d 157e 5b3c 1924 dc3c
00000310: 72e6 b3b8 8bba 30bc b01b 433d aa96 043d
00000320: d51c 0c3d 7c90 55bc 9ddc b4bd 73f9 d2bd
00000330: 03e2 6ebe e84d 3fbe eef1 abbd 4fa3 cabd
00000340: 4a40 02be 2eb4 1cbe 5404 c7bb 3fc5 c73d
00000350: ad9f 9d3d f2bd 123e 7875 0d3e 7f97 043e
00000360: c822 d13d 9150 82bc f474 683d c5ee 613e
00000370: 18bf ce3d da4d 673d ac30 853b 2e99 0d3c
00000380: 7db6 d43c 6da1 06bc 2d6f 0c3d d8ec e23c
00000390: 1da3 98bc deb6 06bd c73f 89bd 8601 1bbe
000003a0: 3ccb 62be 1793 74be 4fdd 36be b91d 1fbe
000003b0: 79f3 f13b dcd7 983c ca86 073e 640b 823e
000003c0: ac8d 643e be7c 3f3e 5f8a 243e 8247 afbc
000003d0: bf38 1d3d cb1b f03d 78d3 083e e5c6 ac3d
000003e0: 42bf 643e 1b3f c63d acd8 663d 40d5 263d
000003f0: c604 883b 3d6a 2dbb b3ac 7a3c ee5f 41bc

linear_1.bias f4 [128]
-0.010957388 0.014792918 -0.029998528 -0.050901283 -0.038072623 -0.022429414 -0.004414473 0.007844312
0.02650127 -0.0357022 -0.020846546 -0.032704003 0.014366968 0.042229496 -0.038460094 -0.003962861
-0.043188367 -0.0047828555 -0.05422935 0.015386662 0.013320827 -0.003164646 -0.030251836 0.008096934
-0.016200557 0.0038457618 0.020379996 0.00506665 0.05281199 -0.047086477 -0.0077102305 -0.032876857
-0.009495105 0.024889503 -0.016865924 -0.026147343 0.045223862 0.025467237 0.008482945 -0.023141686
-0.0138897635 -0.015675249 0.044015966 -0.011985685 0.02877139 -0.0058965697 0.041355215 -0.0036757358
0.009606766 0.021267964 -0.03552556 0.026490487 -0.025395373 -0.01379159 0.009089722 0.012128982
0.010390144 -0.009454251 -0.03312416 -0.034342505 -0.02557215 -0.01779706 -0.014534244 0.018844668
0.023454392 -0.027609996 -0.012378271 -0.010459561 -0.05872655 0.037025265 0.013566869 0.0050884653
-0.015918944 0.030919902 0.011132312 -0.030223383 0.005595407 0.016878039 0.006988571 -0.022654312
-0.0104484735 0.0015340915 0.003420341 0.01905148 -0.013911103 -0.011070227 0.0014742909 0.006435689
0.006443487 0.003662076 -0.04119478 0.02878262 0.023867425 -0.017403336 -0.004116898 -0.012300696
-0.003248019 0.016502094 -0.04772204 -0.026205705 -0.010212306 -0.02115334 0.001993649 -0.017375687
-0.031841487 -0.024193553 -0.0015256939 -0.019865602 0.028022936 0.055551242 -0.02871881 -0.023738587
0.008222031 -0.024962226 0.024340872 0.005224316 -0.007716043 -0.028322997 -0.00087619387 -0.038781
0.02002671 -0.021557191 -0.034420338 -0.020286899 -0.026027335 -0.023255197 0.016031403 0.02715185
00000000: 9e86 33bc ff5d 723c 79bf f5bc dd7d 50bd
00000010: 0af2 1bbd e4bd b7bc 49a7 90bb 6e85 003c
00000020: 3119 d93c 783c 12bd 60c6 aabc a2f4 05bd
00000030: 6e63 6b3c d6f8 2c3d 5588 1dbd e3da 81bb
00000040: 49e6 30bd 80b9 9cbb 981f 5ebd 5718 7c3c
00000050: 993f 5a3c f365 4fbb b3d2 f7bc 01a9 043c
00000060: 08b7 84bc 2d09 7c3b f3f3 a63c 2406 a63b
00000070: 6351 583d c0dd 40bd 1aa6 fcbb e2a9 06bd
00000080: 5b91 1bbc 12e5 cb3c 682a 8abc f432 d6bc
00000090: a83c 393d aba0 d03c 0dfc 0a3c a293 bdbc
000000a0: e491 63bc 6169 80bc 164a 343d 9b5f 44bc
000000b0: fab1 eb3c 0338 c1bb 1664 293d 9de4 70bb
000000c0: b265 1d3c 273a ae3c 4083 11bd 9402 d93c
000000d0: f509 d0bc 1ff6 61bc 0fed 143c a3b8 463c
000000e0: 6c3b 2a3c 01e6 1abc 33ad 07bd baaa 0cbd
000000f0: af7c d1bc 24cb 91bc 0a21 6ebc 2260 9a3c
00000100: 6d23 c03c 5c2e e2bc 3bce 4abc 945e 2bbc
00000110: 408b 70bd cea7 173d 9347 5e3c 24bd a63b
00000120: 7268 82bc bc4b fd3c 4d64 363c 0797 f7bc
00000130: ad59 b73b d043 8a3c 6200 e53b 8995 b9bc
00000140: 1330 2bbc 9213 c93a cd27 603b d911 9c3c
00000150: 65eb 63bc e65f 35bc fe3c c13a 79e2 d23b
00000160: e323 d33b 71ff 6f3b dcbb 28bd 87c9 eb3c
00000170: 9e85 c33c 7191 8ebc 0be7 86bb dc88 49bc
00000180: b7dc 54bb 662f 873c 3078 43bd 59ad d6bc
00000190: 8451 27bc c549 adbc e1a7 023b 7557 8ebc
000001a0: 386c 02bd 8f31 c6bc cbf9 c7ba 30bd a2bc
000001b0: 5b90 e53c b389 633d b643 ebbc 6d77 c2bc
000001c0: b3b5 063c 957d ccbc 8266 c73c bd30 ab3b
000001d0: dcd6 fcbb a105 e8bc 60b0 65ba d3d8 1ebd
000001e0: 0e0f a43c b598 b0bc 57fc 0cbd b630 a6bc
000001f0: 4737 d5bc af81 bebc 4a54 833c 8e6d de3c

linear_2.weight f4 [10, 128]
0.13661213 -0.040178925 -0.00067577505 0.08643429 -0.1678741 0.024990533 0.06725217 0.094263956
-0.03690886 -0.421101 -0.20555204 -0.062257405 -0.07499293 0.09002986 -0.079910755 0.124273546
0.043617334 -0.053328887 -0.019843927 0.017907647 -0.081128664 -0.12437517 -0.34801078 0.013208385
0.033577364 0.016624747 -0.1674557 0.0578187 -0.12613036 -0.3830342 -0.020720912 0.017132118
0.042142548 -0.02529046 -0.019808618 -0.30299538 -0.16538301 -0.005510223 -0.17243332 0.13584547
0.0042091217 0.09516957 0.14623493 0.013864519 0.087368205 0.24553227 0.07383812 0.22610061
0.22340529 0.001291265 0.17379516 -0.04710298 0.038540937 0.113708176 -0.0707967 0.24486655
-0.2899721 -0.02339373 -0.030338129 -0.5337857 0.25073874 0.12708168 -0.06564543 0.18416074
-0.3839308 0.017409496 -0.07682362 -0.024181291 0.09390262 -0.3883735 0.07989049 -0.013004562
-0.08197515 -0.039271478 0.033361845 -0.00530438 0.062163208 0.072106354 0.13171278 0.018499302
0.13774535 -0.13186766 -0.032414604 -0.10656176 -0.058134127 -0.06311135 -0.049969226 0.005268426
-0.036009472 -0.07499054 0.12011564 0.01176711 -0.0122682685 -0.06755602 -0.008480554 -0.3217519
-0.02305194 0.19702463 -0.49658972 -0.3227671 -0.08566984 -0.081245475 -0.027085686 -0.18110985
-0.048911367 0.050409965 -0.29990038 -0.27699777 -0.064373165 -0.10634625 0.08252152 -0.012195516
0.13931309 0.05801772 0.0064083547 0.011541695 0.048476286 -0.025544522 -0.033953376 -0.06175968
-0.007752152 -0.013483744 0.05393028 0.03550625 0.0063598496 0.08522429 0.024865812 0.030646019
-0.09599675 0.03325344 0.01838087 0.23369597 -0.019982958 -0.07405537 0.044995435 0.06962807
0.0763463 0.14719833 0.05990332 0.06606187 -0.011812307 0.10424335 -0.048611686 0.37125924
-0.080328345 -0.01650794 0.1634917 -0.03779292 -0.057616904 0.11663101 0.29176065 -0.08581068
0.0031461804 -0.34108377 0.10074797 0.03762707 -0.122264355 0.05067111 -0.036436014 0.042952977
0.015029357 0.053826988 0.099834815 -0.014541736 -0.26030236 0.07592876 0.15083693 0.089938864
0.042206306 0.023770558 -0.47971377 0.018411927 -0.36213142 -0.18998724 -0.13689339 0.02103199
-0.11588593 -0.29506683 -0.21111186 0.039966416 0.023276815 -0.023236962 -0.03399116 0.22390759
-0.05628503 -0.10089695 0.0017047393 0.060619086 -0.056946468 -0.0038949822 -0.029748593 -0.11665456
0.15259816 0.0822642 -0.08283536 0.0066981437 -0.3197324 -0.31148222 -0.062271353 0.060267296
0.14904815 0.05158602 -0.12633568 -0.025999144 -0.07005385 -0.08928756 -0.2687404 -0.00048726084
-0.006760147 0.2321831 -0.0063145836 0.107774325 -0.0045796684 -0.010320514 -0.07299243 0.013371997
0.05761725 0.010042449 -0.27938735 0.02747046 0.057960756 0.042600982 0.047227122 -0.06968703
0.05943206 0.3180111 0.09529717 0.21319282 0.011189099 0.082818784 0.014386135 0.091922894
0.09078405 -0.08991025 0.14795025 0.13011263 0.011050348 0.029052783 -0.39517382 0.031543043
0.02511578 0.04289636 -0.071814 0.08017531 -0.049516328 0.0031119355 0.07739166 -0.05251843
0.37621778 0.040450133 0.4374155 0.08102858 0.03572078 0.18451466 -0.13578689 -0.0032916244
00000000: 0de4 0b3e a892 24bd 7f26 31ba 7604 b13d
00000010: 30e7 2bbe f2b8 cc3c 81bb 893d 760d c13d
00000020: bf2d 17bd 8d9a d7be 3c7c 52be 9f01 7fbd
00000030: e595 99bd 9361 b83d 40a8 a3bd 2183 fe3d
00000040: 17a8 323d 646f 5abd bb8f a2bc 0fb3 923c
00000050: c926 a6bd 69b8 febd 782e b2be fb67 583c
00000060: 6b88 093d 9f30 883c 8279 2bbe 4dd3 6c3d
00000070: 5128 01be 0f1d c4be e7be a9bc a858 8c3c
00000080: aa9d 2c3d f02d cfbc af45 a2bc 3622 9bbe
00000090: 2a5a 29be 1a8f b4bb 5c92 30be 131b 0b3e
000000a0: acec 893b 43e8 c23d 9cbe 153e 0228 633c
000000b0: 1aee b23d d06c 7b3e 7138 973d eb86 673e
000000c0: 5bc4 643e aa3f a93a 5cf7 313e 0eef 40bd
000000d0: 1add 1d3d d5df e83d dcfd 90bd 4cbe 7a3e
000000e0: 3977 94be 35a4 bfbc ab87 f8bc 2ea6 08bf
000000f0: d460 803e b321 023e 1c71 86bd a294 3c3e
00000100: 9492 c4be 5c9e 8e3c b455 9dbd d817 c6bc
00000110: 0450 c03d e4d8 c6be a09d a33d 1611 55bc
00000120: 96e2 a7bd 21db 20bd 6ea6 083d 5dd0 adbb
00000130: d99e 7e3d 7fac 933d b7df 063e d98b 973c
00000140: 1e0d 0d3e 5108 07be 2dc5 04bd 0d3d dabd
00000150: 0d1e 6ebd 8640 81bd 88ac 4cbd c3a2 ac3b
00000160: ab7e 13bd a494 99bd 30ff f53d d6ca 403c
00000170: d900 49bc d05a 8abd 06f2 0abc aabc a4be
00000180: 6cd7 bcbc d3c0 493e 0241 febe bb41 a5be
00000190: ab73 afbd 0764 a6bd cde2 ddbc dc74 39be
000001a0: 4957 48bd ae7a 4e3d 8b8c 99be a7d2 8dbe
000001b0: 14d6 83bd 10cc d9bd 0b01 a93d b4cf 47bc
000001c0: 17a8 0e3e fda3 6d3d 2dfd d13b 6119 3d3c
000001d0: 128f 463d bf42 d1bc b212 0bbd b8f7 7cbd
000001e0: c405 febb ecea 5cbc ffe5 5c3d 006f 113d
000001f0: 4966 d03b 138a ae3d 63b3 cb3c 5c0d fb3c
00000200: f299 c4bd c234 083d 7a93 963c ff4d 6f3e
00000210: 4db3 a3bc 58aa 97bd 224d 383d 2999 8e3d
00000220: 735b 9c3d 29bb 163e 2f5d 753d 724b 873d
00000230: 6888 41bc 8a7d d53d 0c1d 47bd b115 be3e
00000240: 3083 a4bd a93b 87bc 5e6a 273e c0cc 1abd
00000250: b4ff 6bbd 3ddc ee3d a761 953e 83bd afbd
00000260: 2630 4e3b 88a2 aebe f454 ce3d d81e 1a3d
00000270: bc65 fabd 838c 4f3d ee3d 15bd 76ef 2f3d
00000280: b13d 763c b079 5c3d 3276 cc3d 7640 6ebc
00000290: 5a46 85be 8a80 9b3d ff74 1a3e de31 b83d
000002a0: 85e0 2c3d 79ba c23c 0b9d f5be 9cd4 963c
000002b0: 4a69 b9be 048c 42be c82d 0cbe 484b ac3c
000002c0: 9a55 edbd 0013 97be b52d 58be d3b3 233d
000002d0: 05af be3c 715b bebc 513a 0bbd 0848 653e
000002e0: 228b 66bd 0fa3 cebd 8f71 df3a b84b 783d
000002f0: b340 69bd f542 7fbb 52b3 f3bc 96e8 eebd
00000300: b142 1c3e 227a a83d 96a5 a9bd 1a7c db3b
00000310: f7b3 a3be 997a 9fbe 3f10 7fbd d7da 763d
00000320: 14a0 183e dd4b 533d 245e 01be 28fc d4bc
00000330: 6578 8fbd 65dc b6bd 5798 89be 0b77 ffb9
00000340: 3984 ddbb 68c1 6d3e 91ea cebb c9b8 dc3d
00000350: 0b11 96bb 6017 29bc 0e7d 95bd 3816 5b3c
00000360: 1100 6c3d 1689 243c dc0b 8fbe bb09 e13c
00000370: 4268 6d3d 5e7e 2e3d 3a71 413d 13b8 8ebd
00000380: 086f 733d 5ad2 a23e 2a2b c33d 384f 5a3e
00000390: 7c52 373c e59c a93d d3b3 6b3c 1242 bc3d
000003a0: fdec b93d dd22 b8bd 4580 173e 3f3c 053e
000003b0: 850c 353c 1a00 ee3c 3954 cabe 4733 013d
000003c0: 9cbf cd3c 18b4 2f3d 3813 93bd f432 a43d
000003d0: a2d1 4abd 9df1 4b3b 857f 9e3d 911d 57bd
000003e0: 9e9f c03e 0aaf 253d edf4 df3e 50f2 a53d
000003f0: f44f 123d 69f1 3c3e b80b 0bbe 4bb8 57bb

linear_2.bias f4 [10]
-0.04507552 -0.15286894 -0.045799788 -0.0022962624 0.10466888 -0.08951484 -0.002398966 -0.090934485
0.13875586 -0.08357648
00000000: 1ca1 38bd ad89 1cbe 8f98 3bbd e47c 16bb
00000010: a35c d63d 8e53 b7bd f937 1dbb dc3b babd
00000020: 0416 0e3e 252a abbd
