project_3_inny/models/mnist_hog_mlp.pth (torch, 81536 bytes, 4 tensors)

linear_1.weight f4 [128, 144]
-0.14006473 -0.15517063 -0.20148782 -0.2086912 0.26017463 0.075273305 -0.28794217 -0.30317098
-0.40697446 -0.40903565 -0.29080492 -0.25184232 0.027783817 0.5244642 0.4859291 0.3516428
0.033334985 -0.34489703 -0.15975918 -0.21033746 -0.24961951 -0.14978449 0.3934358 0.10771217
-0.15229183 -0.013981037 -0.10140541 -0.037037387 0.037247017 -0.044965062 -0.02648868 0.043950908
0.104234904 0.06328578 0.04977536 -0.16753088 -0.60815185 -0.46489027 -0.34590602 0.18190975
0.7176138 0.41702038 0.38967934 -0.002746246 -0.46923393 -0.6348495 -0.8007123 -0.5108086
0.07227671 0.25182608 0.19353117 -0.20061831 -0.3520597 -0.29668579 -0.0837205 0.06592487
-0.0064814435 0.013685269 0.11125895 0.056267913 0.1399704 0.031241994 -0.030484907 -0.16162772
-0.14927885 -0.24292105 0.07601198 0.2990716 -0.014080335 -0.000696048 -0.18216622 -0.12113653
-0.0510802 0.035020575 0.008359576 0.16082916 0.24398284 0.016793529 -0.13670598 -0.012007891
-0.05638039 0.04340059 0.30412278 0.123210676 0.12005314 0.14399356 0.08977991 0.052130975
0.0055985753 -0.0076461025 -0.39820296 -0.19808057 -0.07997792 0.38780367 0.10763899 0.019717485
-0.33946058 -0.10116143 -0.03199422 -0.039354026 0.06242142 0.11775699 0.22098677 -0.26338625
-0.0131347375 -0.057054516 -0.004380194 -0.2011844 -0.048180036 0.03856438 -0.13423827 0.095180824
0.15876105 0.03648007 -0.033632044 0.07942482 0.037314743 -0.080608994 0.08970964 -0.33288592
0.0026762583 0.2214797 0.08196265 0.012535339 0.0026205492 -0.07494822 -0.0004761602 0.030695628
0.057408743 0.16060455 -0.1509485 -0.09660631 -0.10772014 -0.07479939 0.051839042 0.1740042
0.18269935 -0.18352234 0.083129846 0.10541389 0.14038852 0.37667844 0.20823139 0.23081127
-0.4690129 -0.12254002 0.09995049 -0.03424894 -0.08127588 -0.0871551 0.18002161 0.2170476
-0.016978698 -0.1060308 -0.004783988 0.13964438 0.036867984 -0.22536574 -0.26477897 -0.12925676
-0.031405807 0.013652787 0.2815034 0.23467055 0.26758048 0.077654205 -0.65446407 -0.19174415
-0.0065817726 0.1455125 0.14620896 0.08607174 0.1956429 0.07713664 -0.0075620343 0.0015309709
0.047320962 0.012346466 0.043433078 0.010828612 0.1385647 0.31801465 0.3825477 -0.19679755
-0.2401854 -0.17225559 -0.11238913 0.09303528 0.09955471 -0.041604657 -0.05344981 0.14298302
-0.2567562 -0.3370991 -0.21439058 0.08988069 0.16666427 -0.083398744 0.20543551 0.1857951
0.11288117 0.07525711 0.07235782 0.076019354 0.1172762 0.10562012 0.1444488 0.4694585
0.09366442 -0.12645693 -0.31276575 -0.3492368 -0.09652623 -0.034676287 0.044462986 0.16009381
0.13153383 0.018941093 0.1270775 -0.20279592 -0.54096115 -0.11264652 0.2356609 0.14656602
0.1187883 0.088458896 -0.076454856 -0.0516409 -0.0051199063 0.056170236 0.10997011 0.13425082
0.1208515 0.072546534 0.026523916 0.25572246 0.09795595 -0.14303774 -0.1882442 0.07128535
-0.051631987 -0.17520796 -0.11653116 0.18484715 -0.25017002 -0.39003894 -0.14420408 -0.01926009
0.19012944 0.09694286 0.046731673 0.1408443 0.1212006 0.1425918 0.172027 -0.03394372
00000000: 216d 0fbe 0de5 1ebe d352 4ebe 25b3 55be
00000010: 9c35 853e e428 9a3d 286d 93be 3a39 9bbe
00000020: f55e d0be 1f6d d1be 62e4 94be 7af1 80be
00000030: e39a e33c 4943 063f b3cb f83e 860a b43e
00000040: 448a 083d 5896 b0be e997 23be b462 57be
00000050: 429c 7fbe 1b61 19be 6b70 c93e 3398 dc3d
00000060: 64f2 1bbe b810 65bc a4ad cfbd 84b4 17bd
00000070: 5490 183d 492d 38bd cafe d8bc de05 343d
00000080: 1c79 d53d fa9b 813d 3fe1 4b3d 378d 2bbe
00000090: d7af 1bbf 1906 eebe 981a b1be 8d46 3a3e
000000a0: 8ab5 373f b283 d53e 0d84 c73e 5dfa 33bb
000000b0: 6e3f f0be 7f85 22bf 7bfb 4cbf 5ac4 02bf
000000c0: d005 943d 59ef 803e 092d 463e e36e 4dbe
000000d0: 2b41 b4be 33e7 97be a775 abbd 9e03 873d
000000e0: 4a62 d4bb 2e38 603c bbdb e33d 2f79 663d
000000f0: 6754 0f3e 36ef ff3c 7cbb f9bc bd81 25be
00000100: 8edc 18be 4cc0 78be 2bac 9b3d ea1f 993e
00000110: 35b1 66bc fe76 36ba c889 3abe 6e16 f8bd
00000120: 7939 51bd bc71 0f3d 9af6 083c 66b0 243e
00000130: a3d6 793e 9592 893c a7fc 0bbe bfbc 44bc
00000140: 20ef 66bd d1c4 313d fbb5 9b3e e155 fc3d
00000150: 6cde f53d 0c73 133e 88de b73d 4a87 553d
00000160: 4174 b73b 288c fabb 42e1 cbbe a2d5 4abe
00000170: 77cb a3bd 348e c63e d571 dc3d 9086 a13c
00000180: c7cd adbe b92d cfbd 5f0c 03bd b031 21bd
00000190: 9aad 7f3d 942a f13d 5b4a 623e 90da 86be
000001a0: 1533 57bc ffb1 69bd bb87 8fbb 4903 4ebe
000001b0: 6e58 45bd aff5 1d3d c275 09be 2aee c23d
000001c0: 4292 223e 206c 153d c1c1 09bd 7ba9 a23d
000001d0: 58d7 183d 5416 a5bd b0b9 b73d 0670 aabe
000001e0: 2a64 2f3b 93cb 623e 09dc a73d 0661 4d3c
000001f0: 85bd 2b3b 747e 99bd 24a5 f9b9 6675 fb3c
00000200: 6e25 6b3d 8575 243e 3e92 1abe 87d9 c5bd
00000210: 609c dcbd 6c30 99bd 2d55 543d 282e 323e
00000220: 8a15 3b3e 48ed 3bbe fb3f aa3d 3de3 d73d
00000230: 02c2 0f3e ffdb c03e 9c3a 553e ca59 6c3e
00000240: 7522 f0be 43f6 fabd d8b2 cc3d 9e48 0cbd
00000250: f873 a6bd 607e b2bd 9657 383e ba41 5e3e
00000260: e916 8bbc ad26 d9bd 00c3 9cbb f0fe 0e3e
00000270: e202 173d 47c6 66be 1c91 87be e25b 04be
00000280: 60a3 00bd f0af 5f3c 3721 903e 7a4d 703e
00000290: 4f00 893e 2b09 9f3d f58a 27bf 9458 44be
000002a0: e9ab d7bb 3b01 153e cdb7 153e 6146 b03d
000002b0: 9d56 483e d1f9 9d3d f1ca f7bb dcaa c83a
000002c0: a0d3 413d d548 4a3c e2e6 313d 7e6a 313c
000002d0: e8e3 0d3e d1d2 a23e 4bdd c33e 4c85 49be
000002e0: 29f3 75be c563 30be 462c e6bd 4889 be3d
000002f0: 57e3 cb3d a569 2abd 30ee 5abd 246a 123e
00000300: 8c75 83be 4198 acbe 3489 5bbe 5e13 b83d
00000310: 0aaa 2a3e f6cc aabd b05d 523e 1241 3e3e
00000320: 3e2e e73d 6620 9a3d 5630 943d 09b0 9b3d
00000330: 812e f03d 5d4f d83d 63ea 133e dd5c f03e
00000340: 22d3 bf3d ed7d 01be d522 a0be 2acf b2be
00000350: 8baf c5bd b908 0ebd d21e 363d a2ef 233e
00000360: ceb0 063e 5a2a 9b3c 9b20 023e bca9 4fbe
00000370: 6e7c 0abf 38b3 e6bd 1751 713e 6715 163e
00000380: 4847 f33d f029 b53d 5d94 9cbd 6985 53bd
00000390: e3c4 a7bb c312 663d 0238 e13d 0c79 093e
000003a0: fe80 f73d 4793 943d af48 d93c 0eee 823e
000003b0: 219d c83d 7c78 12be 16c3 40be 0efe 913d
000003c0: 107c 53bd b769 33be e4a7 eebd 9248 3d3e
000003d0: 4916 80be 2fb3 c7be 3caa 13be 56c7 9dbc
000003e0: 4bb1 423e fa89 c63d b669 3f3d 7d39 103e
000003f0: 0538 f83d 9603 123e d927 303e 9208 0bbd

linear_1.bias f4 [128]
0.14695916 0.15267015 -0.21877006 -0.048717104 0.086202994 0.113198705 0.034878694 -0.13596785
0.08409197 -0.021342365 -0.066775896 -0.09286905 0.08745746 -0.17374945 -0.16048746 -0.074900106
0.16878629 -0.07146159 0.1092927 -0.024525717 0.063957244 -0.047594454 -0.014957756 0.16104457
-0.17166166 0.028431846 0.007946506 -0.019360114 0.10771621 -0.07085854 0.12708195 0.20507355
-0.16023351 -0.22606713 -0.2441966 0.19615953 0.07064197 0.22604254 -0.02162885 0.17856613
0.060310364 0.10060113 0.021397673 0.041319888 0.23678532 0.22614516 0.05654905 0.082648106
0.11619307 -0.032274175 0.21560848 0.02580372 0.10812008 -0.1794522 -0.016364606 0.11763742
-0.11395209 0.071438335 -0.21860425 -0.19677256 -0.26468104 -0.07586064 -0.06817371 0.19287847
0.28569245 0.24722974 0.116485074 -0.057370584 0.07458106 -0.050870482 -0.23498796 -0.036199547
0.04867546 0.2680701 0.089747 0.084785506 -0.11796454 0.20302565 -0.14085896 -0.048006404
0.42709473 -0.18241382 0.08642858 0.24448441 0.06129571 -0.045710616 0.03321928 -0.13439636
0.15072039 0.08517798 -0.15050903 -0.02392864 0.25347188 -0.05404936 0.14732285 -0.21349335
-0.059394494 0.25363988 0.2804718 0.0007161634 -0.030185979 0.13500047 -0.08866051 -0.05608262
0.073986836 0.10986566 -0.22046284 -0.056950964 0.15240248 0.32199812 -0.0787403 -0.082369015
0.08332104 0.029934341 -0.0075747194 -0.05654021 -0.10342234 -0.33790466 0.32320496 0.28841105
0.2751542 0.16835456 0.05482675 -0.12665614 -0.096759394 0.25934264 0.00864179 -0.16315891
00000000: 767c 163e 9055 1c3e 4205 60be 968b 47bd
00000010: 328b b03d b9d4 e73d f6dc 0e3d 283b 0bbe
00000020: 6938 ac3d 2fd6 aebc cdc1 88bd 2132 bebd
00000030: e61c b33d 60eb 31be d356 24be 3a65 99bd
00000040: 50d6 2c3e 745a 92bd dad4 df3d 28ea c8bc
00000050: 04fc 823d 67f2 42bd 6011 75bc dee8 243e
00000060: 13c8 2fbe e7e9 e83c 1032 023c 1a99 9ebc
00000070: 519a dc3d 481e 91bd c521 023e cdfe 513e
00000080: 4114 24be 247e 67be ac0e 7abe 0bde 483e
00000090: bdac 903d b277 673e fc2e b1bc 0ada 363e
000000a0: 0008 773d f707 ce3d 2c4a af3c 0b3f 293d
000000b0: da77 723e 9992 673e fa9f 673d 6943 a93d
000000c0: a2f6 ed3d ed31 04bd 78c8 5c3e 5362 d33c
000000d0: 0f6e dd3d 51c2 37be 110f 86bc e3eb f03d
000000e0: b75f e9bd 434e 923d cbd9 5fbe bf7e 49be
000000f0: 4684 87be d35c 9bbd a89e 8bbd ef81 453e
00000100: 4846 923e cb29 7d3e ba8f ee3d 6bfd 6abd
00000110: f4bd 983d 915d 50bd afa0 70be fa45 14bd
00000120: eb5f 473d 7c40 893e 46cd b73d 06a4 ad3d
00000130: 6597 f1bd f5e5 4f3e 553d 10be 5da2 44bd
00000140: 29ac da3e b0ca 3abe 7801 b13d 1f5a 7a3e
00000150: 3611 7b3d 0e3b 3bbd f110 083d 339f 09be
00000160: 7256 1a3e cb71 ae3d 0a1f 1abe ff05 c4bc
00000170: 11c7 813e dd62 5dbd cddb 163e 009e 5abe
00000180: a447 73bd 16dd 813e 009a 8f3e eabc 3b3a
00000190: 9648 f7bc 903d 0a3e a493 b5bd e4b6 65bd
000001a0: 6986 973d 3f01 e13d 03c1 61be 6a45 69bd
000001b0: 650f 1c3e f0dc a43e 9842 a1bd 16b1 a8bd
000001c0: 39a4 aa3d dd38 f53c 5a35 f8bb b596 67bd
000001d0: 17cf d3bd d701 adbe 1f7b a53e 9daa 933e
000001e0: 03e1 8c3e 2365 2c3e 0492 603d 26b2 01be
000001f0: ca29 c6bd 8fc8 843e 4b96 0d3c 2113 27be

linear_2.weight f4 [10, 128]
-0.25636247 0.14209424 -0.49281898 -0.44977224 -0.4164103 0.50558496 0.10177905 -0.45591536
-0.6068675 -0.10819857 0.34925258 -0.2310865 -0.1959723 -0.09210199 -0.11794866 0.2199425
-0.08541426 -0.059242733 0.18612663 -0.13204263 -0.11340748 -0.46627113 -0.5856228 0.45028955
-0.27508804 0.14448681 -0.5697999 0.19877063 0.43730485 -0.40879324 0.20233187 0.4508064
0.22120361 0.19518134 -0.42102888 0.11308856 -0.56166416 -0.399941 -0.36572626 0.081127375
0.70924616 -0.496228 0.039083626 0.2806254 0.3516986 0.42259315 0.067367636 0.24307756
0.2652627 -0.40364978 -0.76557195 0.16684736 0.5958766 0.36400214 0.04458661 -0.5056224
0.3456694 -0.49291128 0.2915303 0.02647116 0.25051296 0.08919228 0.3085251 -0.7304217
0.22618812 -0.38794458 0.3152357 0.26130953 -0.28252837 -0.033460423 -0.7148741 -0.11821748
-0.61251855 0.25409666 0.16443129 0.25349897 0.09480192 0.5594941 0.21923557 0.061488513
0.08677568 -0.34248766 0.37319097 -0.30345172 0.30357483 0.18729049 -1.0725608 -0.13458654
-0.05107292 0.14050785 0.2948344 0.28015286 -0.16220792 -0.40375662 -0.20655322 -0.2767568
-0.02438742 0.36853066 0.5237595 0.1875672 0.19067633 0.2302361 -0.49925876 0.32783967
-0.1201071 0.24564506 -0.2902069 -0.791599 0.13343546 -0.12439851 -0.07562059 -0.11822275
-0.88695717 -0.08471402 -0.6841401 0.07333711 -0.6190689 -0.16827726 0.5393583 0.4642866
0.46657383 -0.6747217 0.3094041 -0.5107784 -0.8412293 -0.88374895 0.22166756 -0.9666456
0.05329854 0.2803734 -0.58340037 -0.5007193 0.13535562 -0.5295689 0.16540676 -0.19330424
0.26397923 -0.21864356 -0.16260986 -0.636131 -0.39177102 -0.28172347 -0.5612869 -0.329866
0.41731092 -0.021846892 -0.37744978 0.22212596 0.29690498 -0.06436911 0.51031786 -0.3643023
-0.34834677 -0.10314777 -0.05061151 -0.3908202 -0.0582387 -0.42192662 -0.01409476 -0.29551482
-0.3099235 -0.63477033 -0.5749748 0.19719778 -0.040389497 0.36494932 0.19529587 0.09074751
0.4659256 -0.13055407 -0.047834594 -0.4373696 -0.2608743 0.52528155 0.16994542 -0.40998676
0.034009553 -0.26451802 0.3405482 -0.13589141 -0.21697442 -0.74394804 -0.056138076 0.2965907
-0.47992098 0.2247075 -0.680573 0.22530009 -0.5461432 -0.12022714 -0.5893557 0.40463614
0.448213 0.34230784 0.4404313 0.20117077 0.26553935 0.016923066 -0.3252167 -0.47844574
0.32635945 0.18554772 0.3446895 -0.06251792 -0.7817633 0.9068741 -0.5708142 0.05952319
0.7706544 -0.03155517 0.060804993 0.26790088 0.3090089 0.29149574 -0.2983533 -0.21383849
0.29345798 -0.28283614 -0.40288794 -0.5037443 -0.0578919 0.31121767 0.3632535 0.15694302
-0.07974635 0.29328266 0.44045195 -0.51726323 -0.040503312 -0.085060544 -0.48753574 0.13462965
0.23228787 0.029055262 -0.27351847 0.18919913 -0.6943264 0.40012783 -0.071111575 -0.48519287
0.198547 -0.5220916 -0.23440701 -0.16888824 -0.16469352 -0.6836634 0.63596046 0.40724114
0.39928877 0.32770824 -0.23786989 -0.3527115 0.1479993 0.34237427 -0.14422381 0.49877733
00000000: f141 83be 2781 113e c552 fcbe 8c48 e6be
00000010: bb33 d5be 046e 013f 8971 d03d bd6d e9be
00000020: ab5b 1bbf 3697 ddbd 3cd1 b23e f1a1 6cbe
00000030: f6ac 48be f89f bcbd 118f f1bd 9b38 613e
00000040: aced aebd 82a8 72bd fb97 3e3e 2f36 07be
00000050: 2e42 e8bd 17bb eebe 60eb 15bf 5a8c e63e
00000060: 57d8 8cbe 5af4 133e 68de 11bf 878a 4b3e
00000070: 6ce6 df3e 594d d1be 1630 4f3e 19d0 e63e
00000080: 3383 623e 9edd 473e 1991 d7be fa9a e73d
00000090: 39c9 0fbf 11c5 ccbe 7940 bbbe 1c26 a63d
000000a0: 2891 353f 9911 febe 2716 203d 22ae 8f3e
000000b0: d711 b43e 215e d83e 0bf8 893d 53e9 783e
000000c0: 83d0 873e 2fab cebe 86fc 43bf 09da 2a3e
000000d0: 5e8b 183f 7d5e ba3e 73a0 363d 7870 01bf
000000e0: 94fb b03e de5e fcbe 7643 953e 0cda d83c
000000f0: 3c43 803e 71aa b63d 00f7 9d3e ebfc 3abf
00000100: dc9d 673e aca0 c6be 9366 a13e 5dca 853e
00000110: 8fa7 90be cc0d 09bd fd01 37bf 021c f2bd
00000120: 04ce 1cbf f518 823e ad60 283e 9eca 813e
00000130: 8227 c23d 013b 0f3f 4a7f 603e 61db 7b3d
00000140: 73b7 b13d 8b5a afbe e312 bf3e 065e 9bbe
00000150: 296e 9b3e 14c9 3f3e ac49 89bf 0ed1 09be
00000160: d731 51bd 4ae1 0f3e 89f4 963e 3270 8f3e
00000170: d519 26be 30b9 cebe b082 53be 11b3 8dbe
00000180: 20c8 c7bc 0db0 bc3e 1a15 063f 9e11 403e
00000190: a840 433e 03c3 6b3e d89e ffbe 9ada a73e
000001a0: b6fa f5bd 618a 7b3e 0096 94be 3ba6 4abf
000001b0: 4ea3 083e a5c4 febd f8de 9abd c51e f2bd
000001c0: a00f 63bf 8b7e adbd ce23 2fbf c431 963d
000001d0: 4d7b 1ebf e050 2cbe 6313 0a3f f9b6 ed3e
000001e0: c4e2 ee3e 90ba 2cbf 376a 9e3e 60c2 02bf
000001f0: ce5a 57bf 5f3d 62bf d2fc 623e 1676 77bf
00000200: 924f 5a3d 1a8d 8f3e ba59 15bf 242f 00bf
00000210: aa9a 0a3e d491 07bf 6460 293e 8cf1 45be
00000220: 4928 873e 19e4 5fbe 3383 26be 7bd9 22bf
00000230: 3696 c8be 0f3e 90be 80b0 0fbf 32e4 a8be
00000240: c7a9 d53e 41f8 b2bc 1941 c1be fd74 633e
00000250: ee03 983e f4d3 83bd 31a4 023f d585 babe
00000260: 825a b2be 233f d3bd 044e 4fbd 9619 c8be
00000270: b48b 6ebd c406 d8be b5ed 66bc b84d 97be
00000280: 4bae 9ebe 4f80 22bf 8c31 13bf 37ee 493e
00000290: 756f 25bd a3da ba3e a4fb 473e d5d9 b93d
000002a0: cd8d ee3e f7af 05be 35ee 43bd e9ee dfbe
000002b0: 5191 85be da78 063f 2c06 2e3e c9e9 d1be
000002c0: 9a4d 0b3d e86e 87be 555c ae3e 1e27 0bbe
000002d0: 8b2e 5ebe 6173 3ebf 0af1 65bd bcda 973e
000002e0: 34b8 f5be b919 663e 083a 2ebf 11b5 663e
000002f0: 0ad0 0bbf a639 f6bd 04e0 16bf 782c cf3e
00000300: 2d7c e53e f942 af3e 3680 e13e b6ff 4d3e
00000310: c6f4 873e 3ea2 8a3c ce82 a6be d7f6 f4be
00000320: 9618 a73e 3900 3e3e 247b b03e 6509 80bd
00000330: a421 48bf e728 683f e120 12bf 97ce 733d
00000340: 9b49 453f fe3f 01bd a80e 793d 4e2a 893e
00000350: 6a36 9e3e ee3e 953e c4c1 98be 7af8 5abe
00000360: 2040 963e e6cf 90be 5447 cebe 63f5 00bf
00000370: 0f20 6dbd ec57 9f3e 5dfc b93e acb5 203e
00000380: 0e52 a3bd 2529 963e eb82 e13e 5d6b 04bf
00000390: cde6 25bd 3934 aebd 499e f9be 5bdc 093e
000003a0: dfdc 6d3e 4d05 ee3c 9d0a 8cbe 6bbd 413e
000003b0: 60bf 31bf 8edd cc3e f2a2 91bd 336b f8be
000003c0: e84f 4b3e cca7 05bf 6408 70be 0af1 2cbe
000003d0: 6ba5 28be 9104 2fbf 4ece 223f e981 d03e
000003e0: 946f cc3e 60c9 a73e 2a94 73be 9a96 b4be
000003f0: 218d 173e ae4b af3e 68af 13be be5f ff3e

linear_2.bias f4 [10]
0.10198764 0.26918387 -0.041354846 0.0029250123 -0.08263654 0.15470047 0.046363015 0.06478432
-0.18580237 0.07287624
00000000: e5de d03d 78d2 893e b363 29bd 90b1 3f3b
00000010: 593d a9bd cd69 1e3e 25e7 3d3d a4ad 843d
00000020: fa42 3ebe 2340 953d
