project_3_inny/models/mnist_cnn.pth (torch, 211845 bytes, 22 tensors)

feature_extractor.0.weight f4 [32, 1, 3, 3]
000000 29 f1 64 be 8e 6d 90 bd ce db f6 3d ad ac 48 be
       -0.2235762 -0.07052146 0.12053643 -0.1959712
000010 24 ff 5f be f6 34 b7 be d8 9f bb 3e 88 70 d5 3b
       -0.21874672 -0.35782593 0.3664539 0.006513659
000020 b8 84 0f be 62 75 08 3d c5 54 a1 be 0f a7 39 be
       -0.14015472 0.03331507 -0.31509987 -0.18130134
000030 e3 d9 b4 bd 8c 35 94 3d 29 5c 9e be 6d be 6c 3e
       -0.08830621 0.07236776 -0.30929688 0.23119517
000040 69 57 9f 3e 36 05 57 bd cc 6a 23 3d 38 54 5b 3e
       0.31121376 -0.052495204 0.03989677 0.21418846
000050 7a c4 0e be 0d a8 ac be 48 5a c0 3e 66 1c 21 be
       -0.13942137 -0.33721963 0.3756888 -0.1573349
000060 f0 1d 62 be ce 78 a6 3e fd bc 14 be 47 a2 8f be
       -0.22081733 0.32514042 -0.14525218 -0.28053495
000070 81 11 ec 3d c8 18 79 be 33 5e ab 3e 6d ec 81 3e
       0.11526776 -0.2432586 0.33470306 0.2537569
000080 f6 dd 44 bd 6b 19 9c be e6 58 66 3e 9c 9c a1 bd
       -0.04806324 -0.30488142 0.2249485 -0.07891199
000090 ff de 70 3d fe 91 02 3d 04 22 97 bd c7 7a 51 3e
       0.058806416 0.03187751 -0.07379535 0.20456992
0000a0 29 cd 94 3d 77 f9 9d be b1 be 91 bd ae 40 96 3e
       0.07265694 -0.3085439 -0.071164496 0.29346222
0000b0 46 d2 73 be 88 16 86 3e 20 fa 80 3e e1 b6 59 bc
       -0.23810682 0.26189065 0.2519083 -0.013288231
0000c0 6f 1f 05 be d2 0e d9 bd ed 06 06 3e a1 7e af 3d
       -0.13000272 -0.1059853 0.1308858 0.085690744
0000d0 31 dc 64 3e e5 1d 7a 3e f3 e6 ad 3d 61 78 e3 3c
       0.22349621 0.24425466 0.08491316 0.027767362
0000e0 2d e5 92 bd 3f 10 97 3e 12 32 b5 be b9 e4 06 bd
       -0.07172618 0.29504582 -0.35389763 -0.03293297
0000f0 d9 ba 3e be 15 7a 03 3e 01 c8 56 3e e9 6b 37 3e
       -0.18625964 0.1283954 0.20974733 0.17912258
000100 76 80 83 be c0 74 db 3d af 91 97 3c 4c 72 4d 3e
       -0.25683945 0.10715628 0.018502085 0.20063132
000110 ec 69 dd 3c cc 64 67 bd 15 37 0f 3e 2e b7 f9 bd
       0.027028047 -0.05649261 0.13985856 -0.12193142
000120 a2 02 c8 bd 8f 84 92 bd 6e 48 9d be 70 93 a7 bd
       -0.09766127 -0.0715419 -0.30719322 -0.08182418
000130 1b 84 59 be ff 02 0a 3c 99 8d 66 be 25 f0 f2 bd
       -0.212418 0.008423566 -0.22514953 -0.1186221
000140 eb cf b8 3e b7 26 bc be cd 4a 3e 3e 1a f4 90 3e
       0.3609613 -0.36748287 0.18583222 0.28311235
000150 83 74 04 3e 95 7b 07 be 25 50 4f be 30 d3 97 bd
       0.1293507 -0.13230737 -0.20245416 -0.07413328
000160 56 c4 0b 3d f4 20 df 3d 73 01 50 be 17 14 bb 3d
       0.034122787 0.10894957 -0.20313053 0.09134691
000170 8d 62 de bd ad b8 b6 be 41 e5 50 bd 92 26 e8 3d
       -0.10858641 -0.3568777 -0.050999884 0.11335482
000180 0a d2 49 ba 77 a0 b7 3e 09 8c 13 3e f8 bc ba bd
       -0.000769884 0.35864612 0.14408888 -0.09118074
000190 d4 d0 8c be e4 dc 51 be a7 71 39 be f9 5d 66 3e
       -0.27503073 -0.2049442 -0.18109761 0.22496785
0001a0 98 ae a7 3e 6c 39 a2 3e 3c df 31 bd fe fe 7b bd
       0.32750392 0.31684434 -0.043425784 -0.061522476
0001b0 46 2f d0 3e a9 f9 4f 3e 4a 1f a3 3e d1 88 b6 bd
       0.40661067 0.20310082 0.3185981 -0.089128144
0001c0 18 29 0a 3e 5e 4b b6 bd 90 f6 99 be 37 4c a4 be
       0.13492239 -0.08901094 -0.30070925 -0.32089397
0001d0 be dc 18 be 73 5b 8b bd 70 bf 67 be f3 0d b5 3e
       -0.14927956 -0.06804552 -0.22631621 0.35362205
0001e0 98 d1 98 3e c2 e1 9a 3e 89 25 d0 be ad 7e 79 be
       0.29847407 0.30250365 -0.40653637 -0.24364729
0001f0 59 29 c3 be 3b e0 c0 3d 1e d6 25 3e 46 2d 08 3e
       -0.38117483 0.094177686 0.1619496 0.1329852
000200 8b 21 3e be 5b f7 4a be e7 4e 08 3e 3b 4b 5c 3e
       -0.18567483 -0.19820921 0.13311349 0.21513073
000210 c2 35 b0 be 0b 5f 75 bc 83 a7 13 3e d8 96 d6 bd
       -0.34416014 -0.014976273 0.1441937 -0.1047799
000220 f9 42 83 3c 4e 0c 8d 3d 2a bf b3 3d b4 9b 6f bd
       0.016023146 0.068871126 0.08776696 -0.0584981
000230 90 2e 93 3e 5a 0d f7 3d 15 55 58 be a6 a4 80 3d
       0.28746462 0.120630935 -0.21126206 0.06281404
000240 d7 88 1d be b5 23 96 be f3 3c b9 3e a8 88 9b be
       -0.15384232 -0.29324117 0.36179313 -0.30377698
000250 e3 d2 ea bc b2 33 7a 3e 0e 1e ea be 4f a1 2a 3e
       -0.028665012 0.24433783 -0.45726055 0.16663097
000260 1a 00 3e 3e ca c9 43 3e e7 d0 ce bc d0 24 da 3e
       0.18554726 0.19119945 -0.025246097 0.4260621
000270 e3 5b 79 be be 3a 8b be c4 52 da 3d 13 03 7b 3e
       -0.24351458 -0.27193254 0.106603175 0.24512891
000280 88 34 c2 be af 3a d7 3d d0 3c 18 3e a5 e2 ac be
       -0.37930703 0.1050924 0.14866948 -0.33766666
000290 23 46 aa 3e c2 f6 87 bc ca 4a b7 be d8 21 f0 bc
       0.33256635 -0.016597155 -0.35799247 -0.029313013
0002a0 9f 98 85 3e da 5c b2 3d 45 b7 6c 3d ff 76 81 be
       0.26093003 0.08709116 0.057791967 -0.252861
0002b0 c3 80 65 3e f6 49 64 3e 72 78 20 be 74 86 84 be
       0.224124 0.22293839 -0.15670946 -0.2588383
0002c0 53 5a 21 3e 5c 71 3b 3c 7b 62 d9 bd 14 06 4f be
       0.15757112 0.011440601 -0.10614487 -0.20217162
0002d0 aa fa 8a 3d ff 29 82 be c1 f0 1e 3d b4 a8 5f 3e
       0.067860916 -0.25422665 0.03880382 0.21841699
0002e0 54 29 59 be 65 c6 3a be e2 4d f1 3d 9d 39 85 3e
       -0.21207172 -0.18239744 0.11782433 0.26020518
0002f0 c0 e2 84 bd 09 41 ae 3e c0 f7 74 3e 9d 70 83 be
       -0.06488562 0.34033993 0.23922634 -0.25671855
000300 71 34 93 be f0 d7 bd be 4a 41 d8 3d 1a 84 e1 3d
       -0.28750947 -0.3707881 0.10559328 0.110115245
000310 cc db d7 3d 1d 7d 14 3d 08 a7 08 3e da cd 1d 3e
       0.1053997 0.03625213 0.13344967 0.15410557
000320 5e cf b8 bd db 57 4e 3e 9c 5f ad bb 8a 60 b9 3c
       -0.09023927 0.20150702 -0.0052909385 0.022629041
000330 be 53 f6 3d e4 f8 35 3e 7f 76 42 be 50 8d 0f bd
       0.12027691 0.17770725 -0.18990515 -0.035046875
000340 d0 bf 0e bb 60 fa a1 3e ea 93 22 bc ae 27 af be
       -0.002178181 0.31636333 -0.009922961 -0.3420996
000350 85 33 21 be bd 6a bc 3d 49 bf 4e 3e 8f c4 21 be
       -0.1574231 0.09200046 0.20190157 -0.15797637
000360 76 e6 e1 3e 7b ec 6f be d4 2b 3a ba 82 b0 39 be
       0.4412114 -0.23430054 -0.0007101868 -0.18133739
000370 95 8f 9d be 15 83 22 bd 50 9f 89 bd 66 c1 d7 3b
       -0.30773607 -0.03967579 -0.067198396 0.006584334
000380 62 90 ad 3e 1b 94 27 bd 4b df a5 be aa 80 b7 3d
       0.33899218 -0.04091273 -0.32396922 0.089600876
000390 bd 2d 50 be 35 26 f5 3d 04 b6 38 be b4 c7 87 3e
       -0.20329948 0.11970178 -0.18038183 0.2651955
0003a0 e3 a1 1f 3c a9 a4 59 be d4 d3 d3 bb dc 1b c7 bd
       0.009743187 -0.21254219 -0.006464461 -0.09722111
0003b0 93 84 ff bd d8 2f 12 3d 1c 3e 0a be e7 f7 02 bc
       -0.124764584 0.03569016 -0.13500255 -0.007993675
0003c0 19 19 9f 3e 5f 0e 4e be d7 82 0a be 51 34 a1 bd
       0.31073835 -0.2012267 -0.13526474 -0.07871307
0003d0 9f 0b 46 be f1 81 78 be 3e c6 0c be 5e 51 28 3e
       -0.1934037 -0.24268319 -0.13747498 0.16437289
0003e0 d3 cb 4b be 88 fd 73 be 78 5b 6c be d5 f0 9b be
       -0.19901972 -0.23827183 -0.23081768 -0.30457178
0003f0 49 4a 1e bd 3c b9 7e bd ec d4 6c be c3 e6 91 be
       -0.038645063 -0.062188372 -0.23128098 -0.2849637

feature_extractor.0.bias f4 [32]
000000 17 71 92 3d 41 ec 5a 3e 4e 17 ca bc b9 e2 9b bd
       0.071504764 0.21379186 -0.024669316 -0.07611603
000010 df 5d 44 be b7 a4 7e be ed e9 d9 bd 4f 6c ce bd
       -0.19176434 -0.24867521 -0.10640321 -0.10079252
000020 b5 1b 2d be aa 7a b3 be 71 18 35 be 4a 74 b9 3e
       -0.169051 -0.35054523 -0.17685105 0.36221534
000030 d7 73 6b 3e b4 75 ed bd 3b 72 e5 be fe ee 3c 3d
       0.22993408 -0.11594716 -0.44813713 0.04612636
000040 53 25 8b bc 8b 47 1c be 35 01 d3 be 9a 42 ae bd
       -0.016985571 -0.15261666 -0.41211858 -0.08508797
000050 0c 2f be 3c 53 99 bd be f7 77 f8 be de 4d 66 be
       0.023215793 -0.3703104 -0.48529026 -0.22490641
000060 59 3c 20 be b2 a9 a8 bd 05 40 7b be 79 71 8b be
       -0.15648021 -0.08235492 -0.2453614 -0.2723501
000070 92 70 19 3e db 98 8c be 83 bc b3 bd ad ab bf 3d
       0.14984348 -0.2746037 -0.0877619 0.093589164

feature_extractor.1.weight f4 [32]
000000 22 db 8f 3f 25 39 89 3f 45 31 61 3f 59 fb 83 3f
       1.1238749 1.0720564 0.87965804 1.031108
000010 d0 d4 73 3f 36 c2 46 3f ca f4 6c 3f 99 d8 16 3f
       0.952466 0.7764009 0.9256102 0.5892425
000020 7e 46 a5 3f e6 85 61 3f b5 58 7e 3f 05 a7 87 3f
       1.2912138 0.8809494 0.99354106 1.0597845
000030 9b 01 95 3f cc f8 83 3f 9d 7c 6e 3f 3e 78 29 3f
       1.1641115 1.0310302 0.93158895 0.661991
000040 5d c0 90 3f d3 e0 8d 3f 72 b9 63 3f 48 f0 9f 3f
       1.1308705 1.1084236 0.8895484 1.2495203
000050 6d 1f 6c 3f ca 58 82 3f a1 1f 1e 3f 41 f0 8d 3f
       0.9223545 1.0183346 0.6176701 1.1088945
000060 5e 14 95 3f 87 14 76 3f 07 f1 88 3f 37 50 6d 3f
       1.164684 0.9612507 1.0698556 0.92700523
000070 ae cd 75 3f 9d 8b 8e 3f 83 fc 89 3f d0 ea 81 3f
       0.9601697 1.1136357 1.0780185 1.0149784

feature_extractor.1.bias f4 [32]
000000 09 d6 73 bc d7 ac 14 be e7 3c ad be d4 94 35 be
       -0.014882573 -0.14519058 -0.33835527 -0.17732555
000010 7c 35 10 be cd dd cd be 97 23 38 be 51 51 97 be
       -0.14082903 -0.40208283 -0.17982326 -0.29554227
000020 ec 1a b2 bd 45 c8 11 be 61 47 4a bd ef 8a c6 bd
       -0.08696541 -0.14236553 -0.04938448 -0.09694468
000030 e1 99 76 bd fe 4c 5f bd 0e 75 90 be 77 86 aa be
       -0.060205344 -0.054516785 -0.28214306 -0.33305714
000040 7d 3a ca bd 29 b7 17 be 8e c7 86 be 76 88 cf bd
       -0.09874437 -0.14815964 -0.26324123 -0.1013345
000050 bf 38 4c be ca 17 8b bd 18 eb 87 be f5 13 75 bd
       -0.19943522 -0.06791647 -0.2654655 -0.059833486
000060 bf ce 17 bd 20 b5 42 3c 7a d0 b8 bc 68 fd 9c 3b
       -0.037062403 0.011884004 -0.022560347 0.0047909506
000070 33 05 63 bd c0 36 02 be 37 14 85 bd 9b 11 31 be
       -0.05542488 -0.12716198 -0.06497996 -0.17291872

feature_extractor.1.running_mean f4 [32]
000000 8b b8 ef 3e 9c 57 08 3f 94 47 55 3b 12 61 72 3d
       0.46820483 0.5325868 0.0032543885 0.059174605
000010 97 f0 38 3d 52 aa d5 be 09 7e 4e 3c 8b 72 ec be
       0.04515132 -0.41731507 0.012603291 -0.4618114
000020 1d 06 a5 3e e8 62 03 be ad 1c cd 3c 8d 38 da 3e
       0.32231227 -0.12830698 0.025038088 0.4262127
000030 11 e7 b9 3e c0 7d 73 3e 8e 64 bd be ab 8d be bd
       0.36309102 0.23778439 -0.3699078 -0.09304365
000040 67 60 cd 3e b4 1a 1c bc a8 18 af be b2 fe 90 3e
       0.40112612 -0.009527851 -0.341985 0.28319317
000050 ac 74 04 3e af 9a 15 be d3 49 9e bf 50 8a 7b 3d
       0.12935132 -0.14609788 -1.2366279 0.061411202
000060 d6 3b a9 bc c0 9b 66 3e 21 46 1d 3e 63 0d 2f 3f
       -0.020658415 0.22520351 0.15358783 0.683798
000070 d8 1d d4 3e fb f2 01 3e 0e b0 7e bd 2a f6 16 3e
       0.4142902 0.12690346 -0.062179618 0.14742342

feature_extractor.1.running_var f4 [32]
000000 a7 ed fe 3d e4 04 07 3e 06 7b a4 3d 4f ea 0f 3d
       0.12447672 0.1318546 0.08031277 0.035135563
000010 d1 d6 a2 3d 2b 32 00 3e 26 d4 ed 3c 16 f6 1f 3e
       0.07951129 0.12519138 0.029031824 0.15621218
000020 0b f8 09 3e 43 3f 32 3d 8c 65 0e 3e 0f 5d 78 3d
       0.13473527 0.043517362 0.13905925 0.060635623
000030 ef 64 27 3e 81 db af 3d 0b 07 83 3d 87 70 e9 3d
       0.16347097 0.08586789 0.06397828 0.11398416
000040 da ea 91 3e 64 d7 88 3d 53 04 69 3d 59 ae 9a 3d
       0.2849949 0.066817075 0.05688889 0.075527854
000050 ee 84 70 3d 16 e6 81 3d 4e 66 fc 3e 55 79 53 3d
       0.05872052 0.063427135 0.49296802 0.051629383
000060 1d db 78 3d 3e 24 a7 3d 2e fb bc 3d 1d b0 e1 3e
       0.060755838 0.081612095 0.09227596 0.44079676
000070 cd f3 b0 3d 79 6b 4c 3e d4 3e 1a 3e b2 72 04 3e
       0.08640251 0.19962873 0.1506303 0.12934378

feature_extractor.5.weight f4 [64, 32, 3, 3]
000000 5b a3 5d 3d dd 5f 09 bd db 25 bd bd 6f 4e ba 3d
       0.054110866 -0.033538688 -0.09235736 0.09096991
000010 e7 4b 83 3d 1a a4 c6 3d 95 da 8d 3d 77 7a 55 3d
       0.064109616 0.09699269 0.06926457 0.052118745
000020 fd 63 80 3d 7a 3c 69 3d b7 4a e2 bc 54 aa 67 be
       0.06269071 0.05694244 -0.027623517 -0.22623569
000030 32 a1 f0 3d 1a 07 15 bd 1f 31 ea bc a2 1d 0f 3e
       0.117494956 -0.036383726 -0.028587876 0.13976148
000040 9f 8a 34 bd 85 0c df 3d 48 37 c3 ba ce 83 39 3d
       -0.044077512 0.1089106 -0.0014893794 0.045291714
000050 73 c9 b1 3d d8 31 53 be 1d 36 d4 bc f9 b3 83 bc
       0.086810015 -0.20624483 -0.02590471 -0.016077029
000060 ee 1b a4 3a 7e 90 79 bd dc af 3d 3c 6b 3e c7 bd
       0.0012520531 -0.060928814 0.011577573 -0.09728702
000070 29 3f 34 bd 7f 9c 5f 3d f6 63 80 bd 21 a6 cf bd
       -0.044005547 0.054592606 -0.06269066 -0.101391084
000080 f6 68 1f be 60 6f 8e 3d 1c a2 7f 3d db cb 24 3d
       -0.15567383 0.06954837 0.06241046 0.040233474
000090 79 bd 7c be dc bd 24 3d 53 9f bb 3c d9 7d d6 bd
       -0.24681653 0.040220127 0.02290312 -0.10473222
0000a0 2e d9 37 bb c6 5b 26 be 26 ef 20 3c 23 6a 6d 3c
       -0.0028053033 -0.16245946 0.009822642 0.014490637
0000b0 13 42 87 bd ce 4b a9 bd 66 15 86 3c 20 4c 3f 3d
       -0.066043995 -0.08266412 0.016367625 0.046703458
0000c0 f3 90 b2 bd f5 d2 7c 3c d3 2f 96 3c c5 0e df 3d
       -0.08719053 0.015431155 0.018333351 0.10891489
0000d0 eb 2c 86 bc 75 45 62 bb 0f ee 77 be e1 8f 06 be
       -0.01637884 -0.0034526263 -0.24211906 -0.13140823
0000e0 e1 22 6a bd e2 08 c3 bd fc c5 49 3d 0f 67 73 bd
       -0.05716217 -0.09523179 0.04926108 -0.059424456
0000f0 b9 2c c2 bd 0e 1e b1 3d 9c 1e 86 3c e9 00 2a be
       -0.094811864 0.086483106 0.016372018 -0.1660191
000100 23 e3 b0 bd 22 59 12 3d d7 86 f8 bd 02 e9 98 bd
       -0.08637073 0.035729535 -0.12135094 -0.07466318
000110 4f 19 47 3c 4b 92 8b 3d 8e e0 86 3d 61 99 d4 3c
       0.01215203 0.068150125 0.06585799 0.025952043
000120 9d 95 6a bd 75 9e 78 bd df e6 2c 3d 47 89 84 3b
       -0.05727159 -0.06069799 0.042212363 0.004044685
000130 fd 74 5c bd bb cb 6f be 29 71 04 3e d9 39 f2 3d
       -0.053822506 -0.23417561 0.12933792 0.1182744
000140 de 18 bc 3d 36 1e 0f bd 44 2a 55 3d 79 a0 d2 3d
       0.091844305 -0.03494092 0.05204226 0.10284514
000150 42 4b 9c ba f2 94 da bb d1 82 5d 3d 80 8e b1 bc
       -0.0011924284 -0.0066705877 0.054079834 -0.021674395
000160 23 3b 1c 3d bc 39 51 bd ab 35 b7 bd a5 5a 6a bd
       0.038142335 -0.05108045 -0.08945783 -0.05721535
000170 99 28 37 3d 2c fa cc 3a ed 6a 72 bd ef 5f 38 be
       0.04471645 0.0015638522 -0.059184004 -0.18005346
000180 6e d0 99 3d 60 b4 b8 3c 75 32 91 3d a9 b2 39 be
       0.07510458 0.022546947 0.07089702 -0.1813456
000190 73 78 3f be 2d 76 d9 bc 0a 59 98 3d b9 2c 6d be
       -0.18698291 -0.026545608 0.07438858 -0.23161592
0001a0 37 13 23 be d6 fa 38 3d a2 8b 55 3d 37 c3 e7 3d
       -0.15925299 0.04516109 0.052135117 0.11316531
0001b0 57 c6 02 bd 83 7e a9 bd 87 fc 44 bb 2c 8a ac bc
       -0.031927433 -0.08276083 -0.0030057745 -0.02106198
0001c0 67 5b 97 3d 2a 3d b2 3d 82 f8 44 be ae f9 67 be
       0.073904805 0.08703072 -0.19235423 -0.22653839
0001d0 73 8e 26 be 82 3d 16 be a4 4a fd bd 57 cc c7 3d
       -0.16265278 -0.14671901 -0.12367752 0.097557716
0001e0 6b 27 cb bb 45 b8 82 3d 25 7b a5 ba 51 a0 17 bc
       -0.0061997673 0.06382803 -0.0012625201 -0.009254531
0001f0 19 d4 ae bd 96 aa fb bb a9 12 f9 3d 27 cf a0 3d
       -0.08536548 -0.0076802475 0.12161762 0.07852011
000200 3c ec 6f 3d cd 0a 8e bd f3 96 d9 bc b9 5a ba bd
       0.0585749 -0.06935654 -0.026561236 -0.09099335
000210 64 fa e2 3c 6a a0 a0 3d bf 7c c6 bc 26 90 88 bd
       0.027707286 0.078430966 -0.024229405 -0.06668119
000220 6b 6a 9e 3d 9c 5b 49 3d f4 51 07 bd 26 cb 18 3d
       0.07735141 0.04915963 -0.03303714 0.037303112
000230 eb fb 2c ba 58 01 84 3c 5d 0a 93 bd 54 d9 2c bc
       -0.0006598818 0.016113922 -0.07179711 -0.010549862
000240 52 72 42 bc b4 32 4e 3e 9e 7e ba 3d 7e b1 12 bc
       -0.011868076 0.20136529 0.091061816 -0.00895345
000250 35 71 3f bd 58 fd 4e bd fb 75 a2 bc 9a 8d b1 3d
       -0.046738822 -0.050534576 -0.019831648 0.086695865
000260 64 33 69 bd 14 09 69 3d 60 36 b0 3c ba 7d 1a bd
       -0.056933776 0.056893423 0.021510303 -0.03771756
000270 68 2d 0b 3d e7 0d 6c 3d 87 74 38 3d e4 5d 66 be
       0.03397885 0.057630446 0.045033004 -0.22496754
000280 e2 4a 47 be 51 ff 28 bd 1e e8 eb bc 9a b0 25 bd
       -0.1946216 -0.041259114 -0.028797206 -0.040451623
000290 80 d4 13 bd ab 9f 9c 3d 17 4e 1e bc 49 b9 c4 3c
       -0.036091328 0.07647642 -0.009662173 0.024014132
0002a0 41 51 77 3d b9 5c b4 3c 29 39 8e 3c e2 24 9f 3d
       0.060380224 0.02201687 0.01736124 0.07770707
0002b0 a4 8a 03 3d 11 e6 83 3d 26 f6 e7 bc 06 33 2e 3e
       0.03211464 0.06440366 -0.028315615 0.17011651
0002c0 a0 df 1d 3e f3 b2 37 be 43 14 57 be 54 85 28 be
       0.15417337 -0.17939357 -0.21003823 -0.1645711
0002d0 52 4d 91 bd e8 7f 49 bd 85 02 89 bd 1b e7 bb bc
       -0.07094826 -0.049194247 -0.06689934 -0.022937348
0002e0 a0 55 e9 bc ff 31 81 bd b3 77 d3 3d dd 3e 2b 3d
       -0.028483212 -0.06308364 0.10325565 0.041807998
0002f0 82 f1 47 3d 78 3d cb bd ff bc 1e be d7 24 a9 3d
       0.048814304 -0.099238336 -0.15501784 0.0825898
000300 cf 8c 16 be 3f 44 25 be 2e cc ed 3c 33 58 9d 3d
       -0.14702152 -0.16139315 0.029028025 0.07682838
000310 de bf af bd df 13 e9 bc bc a6 68 be ca 96 a3 bc
       -0.08581518 -0.028451858 -0.22719854 -0.019969363
000320 7a f2 ef 3d 26 e6 bd bd b0 89 81 bd c5 15 d3 bb
       0.117161706 -0.09272413 -0.0632509 -0.006441804
000330 2f 94 0c 3e 21 ab 4b 3d 81 ec 0c b9 26 8c 0c 3d
       0.13728403 0.049723748 -0.00013439545 0.034313343
000340 5d 9d 99 bd 73 63 8a bb ea e3 d7 3b 79 ea 93 3d
       -0.07500718 -0.004223281 0.006588449 0.072224565
000350 bb f5 c9 3d 4b fc 04 be db 89 05 bb 42 c7 f1 bc
       0.098613225 -0.12986867 -0.0020376358 -0.029513959
000360 cb 97 c0 bd 66 17 19 be 0f df 2a 3c 87 45 46 be
       -0.09403952 -0.14950332 0.010429158 -0.1936246
000370 50 1e 51 be 39 c5 3b bd 29 58 7f bd c6 97 23 bd
       -0.2042172 -0.045842383 -0.062339935 -0.039939664
000380 4a 6a 33 3d 3c 14 a6 3c b6 9c 99 bd a2 b7 de bd
       0.043802537 0.02027332 -0.07500593 -0.10874869
000390 1a af 09 3e 79 31 61 3d 56 46 be 3d a5 a6 db 3d
       0.13445702 0.05497882 0.09290759 0.10725144
0003a0 78 9a 9b 3d 53 aa 14 3d 8e 6a 02 bd d0 f8 23 bd
       0.07597822 0.036295246 -0.0318399 -0.040032208
0003b0 73 b9 f2 3d 55 72 db 3d 6e c9 e1 bc 0a 7e 03 3d
       0.11851778 0.107151665 -0.02756187 0.032102622
0003c0 57 80 10 3e 7a 69 3e 3e b2 1f 41 3d 90 8b bf 3d
       0.14111458 0.18594924 0.047149368 0.09352791
0003d0 11 4a d0 3c d6 b6 f4 3b 02 e2 88 3d 12 98 28 3d
       0.025425943 0.007468085 0.066837326 0.04116065
0003e0 06 49 72 3d f2 05 9a bb f9 fc d6 bc 35 5f 58 3d
       0.05915167 -0.004700416 -0.026243674 0.05282517
0003f0 25 df f2 3d 16 d0 18 be 03 30 06 be 96 e8 ca 3d
       0.11858968 -0.14923128 -0.13104253 0.099076435

feature_extractor.5.bias f4 [64]
000000 1a 50 84 bd e0 51 86 bc a8 cc 64 3b f5 71 f2 bc
       -0.06460591 -0.016396463 0.0034912024 -0.029595355
000010 20 74 2f 3d 07 72 82 bd 08 26 e6 bd 5d 02 1f be
       0.042835355 -0.06369405 -0.11237723 -0.15528245
000020 c8 80 21 bd 61 3b b0 3c 84 e5 09 be ce 13 9a bd
       -0.039429456 0.02151269 -0.1346646 -0.07523309
000030 fd 07 bd bd a8 08 a1 bd 85 04 1a be 5e cc 95 bd
       -0.09230039 -0.07862979 -0.15040787 -0.073143706
000040 76 66 0f 3d ed 9a 49 3d 60 4e be bd 22 36 92 ba
       0.035009824 0.049220014 -0.092922926 -0.0011155049
000050 9c 14 db bd b6 42 98 3c 33 bc 01 bd 13 af da bd
       -0.1069729 0.018586498 -0.03167362 -0.10677924
000060 4f 89 a1 bc e3 1d 87 bd f3 d7 2d bd 87 72 eb bd
       -0.019718794 -0.06597497 -0.042442273 -0.11496454
000070 b8 b0 58 3c 1f 5c 93 bd 79 19 1f be 55 61 b2 bd
       0.013225727 -0.07195305 -0.15537061 -0.08709971
000080 93 9f 90 bd e6 ec 4b bd 36 54 b0 bb 1d f4 be bd
       -0.07061686 -0.04978647 -0.0053811325 -0.09323905
000090 28 03 a6 bc 08 39 c0 bd ad 42 f0 bd 47 66 84 bd
       -0.020265177 -0.09385878 -0.117314674 -0.0646482
0000a0 1a e3 56 bd 08 af e2 bd 35 17 a1 bc dc 53 07 be
       -0.052462675 -0.11068541 -0.019664386 -0.13215584
0000b0 e8 74 58 bc 0c 72 32 bd 96 39 0d be ec 28 8c bd
       -0.013211466 -0.043565795 -0.13791499 -0.06843743
0000c0 5c 77 29 be f5 64 95 bd 1a 3a b7 bd 04 43 aa bb
       -0.16549438 -0.07294647 -0.08946629 -0.005195977
0000d0 0a 3b 19 bb 94 ef 63 bd 4b 68 8f bd f6 c6 b0 bd
       -0.0023381137 -0.0556484 -0.07002314 -0.08631699
0000e0 3a ef 26 be ad 88 28 be 2f c3 9a bc de af a1 bc
       -0.16302195 -0.16458388 -0.018891899 -0.01973718
0000f0 0f 5b 24 bd e2 32 4a 3b d0 a3 c2 bc e7 17 4b be
       -0.040125903 0.0030853082 -0.023759753 -0.19833337

feature_extractor.6.weight f4 [64]
000000 f6 c2 89 3f 18 07 8e 3f 5f b7 82 3f ae 35 60 3f
       1.0762622 1.1095915 1.021221 0.8758191
000010 76 fe 67 3f 1a 1a 82 3f 2f cf 7c 3f 0d 0d 7c 3f
       0.9062265 1.0164216 0.9875364 0.98457414
000020 af 46 52 3f 11 bf 83 3f a9 5a 87 3f 4c a5 90 3f
       0.82139105 1.0292684 1.0574542 1.1300445
000030 18 1f 84 3f 83 9e 7c 3f 8c 38 59 3f 20 1e 8a 3f
       1.0321989 0.9867937 0.8485191 1.0790443
000040 9a 71 82 3f a5 9d 7e 3f 84 d1 63 3f 50 20 91 3f
       1.0190918 0.99459296 0.8899157 1.1337986
000050 aa c8 5d 3f 48 01 66 3f 03 80 66 3f e7 62 8a 3f
       0.86634314 0.89845705 0.9003908 1.0811433
000060 b7 ef 87 3f 1f 77 49 3f 61 12 83 3f 07 4a 7e 3f
       1.062003 0.7869739 1.0239984 0.99331707
000070 ca bf 8f 3f 8c 3f 6f 3f 6b b1 91 3f 15 4b 89 3f
       1.1230404 0.9345634 1.1382269 1.0726038
000080 9e 05 80 3f 97 c8 74 3f 7e cd 60 3f 67 fe 82 3f
       1.0001714 0.95618576 0.87813556 1.0233887
000090 db 95 88 3f 72 04 65 3f 8d 0c 6f 3f 3d d7 8c 3f
       1.0670732 0.8945991 0.93378526 1.1003186
0000a0 72 59 53 3f c7 44 65 3f e7 ef 7c 3f db 87 92 3f
       0.8255836 0.8955807 0.9880356 1.144771
0000b0 cd 4d 68 3f 9b 32 7d 3f 78 73 77 3f 9e 83 9b 3f
       0.90743715 0.9890534 0.96660566 1.2149541
0000c0 cf 12 81 3f cf 19 80 3f e3 89 75 3f 48 51 64 3f
       1.0083865 1.0007876 0.95913523 0.89186525
0000d0 35 fa 71 3f b6 08 66 3f 8a 8b 65 3f 54 88 5b 3f
       0.9452241 0.8985704 0.89666045 0.85754895
0000e0 1d 06 7b 3f 87 03 73 3f f4 07 8a 3f 50 42 98 3f
       0.98056203 0.9492726 1.0783677 1.1895237
0000f0 60 64 7e 3f 84 20 73 3f a6 19 68 3f f1 0d 63 3f
       0.9937191 0.9497149 0.90664136 0.8869315

feature_extractor.6.bias f4 [64]
000000 fd a6 91 bd 58 12 a9 bd 76 cd e7 bd 02 12 9c bd
       -0.071119286 -0.08255452 -0.113184854 -0.07620622
000010 01 0e c3 3c dd aa 4d be 2d 9e 33 be 3b ac 82 be
       0.023810389 -0.2008471 -0.17540808 -0.25522026
000020 ac e7 93 bd 09 5c f4 bd 3c 57 5e be be 82 ee bd
       -0.07221922 -0.11931617 -0.21712965 -0.11646031
000030 e4 a4 c0 bd 27 26 93 bd cb 29 12 be f8 c2 32 bc
       -0.094064504 -0.07185011 -0.14273755 -0.010910742
000040 c3 fa 03 be a4 42 fc bd 9a 47 31 be 5e 1b 25 be
       -0.12888627 -0.12317398 -0.1731247 -0.16123721
000050 c6 05 49 be fe e3 c1 bd a4 d1 b7 bd e1 50 6b be
       -0.19631109 -0.09467314 -0.08975533 -0.22980072
000060 67 c0 89 bd e4 d8 d7 bd 43 bd 55 be 08 64 6a be
       -0.06726151 -0.105394155 -0.20872979 -0.22889721
000070 d2 a7 d7 3a ad b9 cb bd 8e e7 ef bd ae da 14 be
       0.0016453213 -0.09947524 -0.117140874 -0.14536545
000080 18 f8 04 be bb 72 0a be d4 d2 90 bd 8e f8 f6 bd
       -0.12985265 -0.13520329 -0.07071462 -0.12059127
000090 90 5e 03 bd 3a 6c ed bd 75 64 2d be b8 f4 cd bd
       -0.032072604 -0.11592908 -0.16932853 -0.10056442
0000a0 a6 ae ba bd e7 22 c5 bd d1 46 b5 bd 3e 71 62 be
       -0.09115343 -0.09625798 -0.08851398 -0.22113511
0000b0 38 8b b0 bd b6 a6 1b be fa 25 1a be c2 f8 09 be
       -0.08620304 -0.15200314 -0.1505355 -0.134738
0000c0 ee 9a 05 be 19 4c 6d be e7 1e 39 be c6 ab fc bd
       -0.13047382 -0.2317356 -0.18078195 -0.12337451
0000d0 5f af 05 be 9a 18 9c bd 72 30 dc bd e9 4c f6 bd
       -0.1305518 -0.0762188 -0.10751428 -0.12026388
0000e0 d8 91 83 be 1a 50 39 be 0f 38 c6 bd c9 31 81 bd
       -0.25697207 -0.18096963 -0.09678661 -0.06308324
0000f0 fe cc 7e bd ba 43 58 bd 18 1a a0 bd 0e d4 35 be
       -0.062207215 -0.052798964 -0.07817477 -0.17756674

feature_extractor.6.running_mean f4 [64]
000000 db 65 1d be 9c d5 d5 3c 81 d4 92 bf 3f 58 77 bf
       -0.15370886 0.026102833 -1.1471101 -0.9661903
000010 84 75 cd be a6 d2 3e bf fa 7a b4 bf 09 11 06 bf
       -0.4012872 -0.74540174 -1.410003 -0.52369744
000020 8d a1 87 3d dc b5 4f bf 60 92 87 bf 9a fc 99 be
       0.0662261 -0.8113687 -1.0591545 -0.30075532
000030 90 9b 75 bf 94 35 6e bf 8b d9 4f bf d6 f0 b2 bf
       -0.95940495 -0.93050504 -0.8119132 -1.3979747
000040 84 b7 4d bf 93 70 7d bf 98 7d 86 bf c7 38 2a bf
       -0.8035815 -0.989999 -1.0507078 -0.66492885
000050 59 af 98 bf b2 81 68 bf 07 7c 4e 3f f0 35 4e bf
       -1.1928512 -0.908229 0.80658 -0.8055105
000060 f3 5c af bf c3 a3 d3 3e 8c f4 be bf 64 05 d2 bf
       -1.3700241 0.41335878 -1.491838 -1.6407895
000070 da ee 8d bf cc c2 43 be 06 ed 53 bf 5a 52 00 bf
       -1.1088517 -0.19117278 -0.82783544 -0.5012566
000080 f1 84 65 bf b4 91 6c bf fe d9 3d bf 8e 7a 9f 3d
       -0.8965598 -0.92409825 -0.74160755 0.07787047
000090 bb 20 87 bf c0 53 8a be e4 ba 5e bf 84 57 51 bf
       -1.0556864 -0.2701702 -0.8700392 -0.81774163
0000a0 9b 29 5c be b8 40 15 bf b1 f0 32 bf 54 9b 9d bf
       -0.21500246 -0.5830188 -0.69898516 -1.2313027
0000b0 ec 0d 00 bf b2 d5 3d bf f5 ce 0a 3e f6 ff 29 be
       -0.50021243 -0.741542 0.1355551 -0.16601548
0000c0 7c 1f f2 be 8a 74 89 be 92 7a b3 bf 77 37 aa 3f
       -0.47289646 -0.26846725 -1.402178 1.3298177
0000d0 7a 86 7e bf 2c c0 36 bf 2b f5 d9 bf 75 0d 81 be
       -0.99423945 -0.7138698 -1.7027944 -0.2520558
0000e0 0c 50 19 be 6a 47 47 bf f7 eb 7f 3e e8 4e 0d bf
       -0.14971942 -0.77843344 0.24992357 -0.55198526
0000f0 1e d6 39 bf 60 af e7 be 38 01 d2 bf 54 c4 5d be
       -0.7259234 -0.45250988 -1.6406622 -0.21656924

feature_extractor.6.running_var f4 [64]
000000 8e cd 12 40 f2 ef 05 40 5a 4c df 3f 2a 5e 9d 3f
       2.293796 2.09277 1.7445176 1.2294362
000010 38 0f 6e 3f ea 7a 9d 3f b0 8e 0e 40 2a 3a e5 3f
       0.9299197 1.2303135 2.227459 1.7908375
000020 b4 71 d1 3f ac 34 fb 3f 17 b5 d5 3f ce c2 b3 3f
       1.6362824 1.9625449 1.6695889 1.4043825
000030 a6 cc 14 40 b8 e6 08 40 0a ce ce 3f 4e 05 26 40
       2.3249907 2.139082 1.6156628 2.5940738
000040 4c 16 d5 3f 10 cf 7d 3f da fa 6a 3f 7d 14 ea 3f
       1.664743 0.9914408 0.9178902 1.8287503
000050 3f 29 90 3f 20 cb fb 3f 37 4f 98 3f f3 e8 d3 3f
       1.1262587 1.9671364 1.1899174 1.6555465
000060 68 c9 2c 40 4b b5 e5 3f ec e5 ba 3f 96 c3 94 3f
       2.6997929 1.7945951 1.4601417 1.1622188
000070 f3 66 f8 3f d1 db ac 3f 3a 31 0d 40 68 da c3 3f
       1.9406418 1.3504583 2.2061296 1.5301027
000080 36 8d f8 3f b9 5b cf 3f c5 ed e1 3f 17 f8 c1 3f
       1.9418094 1.6199867 1.7650687 1.5153836
000090 19 5b 29 40 40 63 ef 3f 96 ee aa 3f c5 77 fb 3f
       2.6461852 1.8702164 1.3354061 1.9645926
0000a0 50 71 d6 3f 3b e6 a6 3f ad 67 98 3f 43 39 aa 3f
       1.675333 1.3039011 1.1906639 1.3298725
0000b0 d3 0a f1 3f e0 19 1c 40 60 cc c2 3f 8c ea 1b 40
       1.8831428 2.4390793 1.521862 2.4361906
0000c0 1e d0 75 3f a7 62 d9 3f 93 06 5e 3f 8b 7f 44 3f
       0.96020687 1.6983231 0.8672878 0.76757115
0000d0 4b 88 78 3f 1e 57 dd 3f 20 46 67 3f 88 2f a5 3f
       0.97082967 1.7292211 0.9034138 1.290513
0000e0 4f fd 85 3f 44 e9 b6 3f 51 ce a9 3f 8a 00 f4 3f
       1.0467929 1.4289937 1.3266088 1.9062665
0000f0 c6 72 ed 3f 3e 6f 9a 3f e6 c1 76 3f fd 24 8c 3f
       1.8550651 1.2065198 0.96389616 1.0948788

feature_extractor.10.weight f4 [10, 64, 3, 3]
000000 b9 bd da bc 3c 73 15 3e 74 a9 6c 3d 4b 10 8c bd
       -0.026701795 0.1459474 0.05777879 -0.06839045
000010 64 39 8d 3d 40 9f 7f 3d 0e 89 63 3d 61 b5 8c bd
       0.06895712 0.062407732 0.055550627 -0.06870533
000020 41 f5 07 bd 85 0b c5 3d 27 63 85 3d d9 fc 26 be
       -0.033192877 0.09621338 0.065130524 -0.16307391
000030 d5 c9 67 3d 09 df 5b be 13 18 a7 bd 29 03 cb 3c
       0.056588966 -0.214718 -0.08158889 0.02478178
000040 7a bc 08 bd 33 b6 73 3e 87 df 24 be 68 4e 27 3d
       -0.03338287 0.23799972 -0.16100894 0.04084626
000050 08 16 e6 bd ea 8e 0c 3e 81 49 17 3d 13 0e 6c bd
       -0.11234671 0.13726392 0.036935333 -0.05763061
000060 39 c5 00 bd aa 04 2d be 85 f4 d2 3d f8 59 bb 3d
       -0.031438086 -0.1689631 0.10300545 0.091480196
000070 d5 2e d8 3d 77 8f 9d bd 56 bf b0 3c d1 d3 ad bd
       0.105558075 -0.07693379 0.021575611 -0.084876664
000080 6d da a2 bd 1e 17 11 be 4a 30 81 bd c6 e5 fb bd
       -0.07951818 -0.14168975 -0.063080385 -0.12299685
000090 60 05 3e 3d 75 ae 90 bc 93 a9 19 3d 72 d5 1a be
       0.046391845 -0.017661313 0.037515234 -0.15120485
0000a0 22 c4 3f 3c 46 89 e2 bc 26 e7 b4 ba 74 2f 9a 3d
       0.011704477 -0.027653348 -0.0013801798 0.07528582
0000b0 1f f2 c8 3d b7 d4 0a bc 31 f2 cb bc b3 2e 1b be
       0.09811806 -0.008473567 -0.02489576 -0.15154533
0000c0 e0 e8 42 be fa ac 4d bc 37 d9 19 3e 7b 2e 28 be
       -0.19034147 -0.012553448 0.15024267 -0.16423981
0000d0 01 d2 9f 3d bd bc fe 3c 17 55 a6 3d db 66 50 be
       0.07803727 0.031095857 0.08121698 -0.20351736
0000e0 53 e9 ca bd b6 81 f1 3d f0 e4 b2 3a 88 1c cb 3d
       -0.09907784 0.117923185 0.0013648551 0.09917551
0000f0 2d f9 51 bc e8 78 ee 3d 24 e0 bf bd 65 6f 51 3d
       -0.012815756 0.11644155 -0.09368923 0.051131625
000100 9a 25 db 3b 7b 94 6b bd 58 a7 b2 bd 9a 64 6d bb
       0.006687832 -0.05751465 -0.087233245 -0.0036223293
000110 e5 cd 84 3c 0e 19 ba 3c fd ac 71 3d fb e5 49 3d
       0.01621146 0.022717025 0.059002865 0.049291592
000120 ff 2c 82 3d 29 0f 75 3d 8a e3 b8 bd 76 1d 13 bb
       0.063562386 0.05982891 -0.09027775 -0.002244798
000130 06 9a 8d bd 33 85 aa bd a8 83 ab bd 57 28 0d be
       -0.06914143 -0.08326187 -0.08374721 -0.1378492
000140 08 11 66 3d 70 ab 78 bd e9 66 62 bd 43 98 8a bd
       0.056168586 -0.06071037 -0.055273924 -0.06767323
000150 4e f4 0a 3d 82 cc 2e 3c 71 16 ac bd 18 9c 99 bd
       0.033924393 0.010668876 -0.08402718 -0.07500476
000160 ec f0 e1 bd 80 92 99 3d 5b c1 12 3d 83 6b dc bd
       -0.1103228 0.07498646 0.03582893 -0.10762694
000170 74 38 ef bd 59 30 80 3d 3c 2a c6 3d 0c a6 38 3e
       -0.116806895 0.062592216 0.09676024 0.18032092
000180 ef 19 45 bd be 92 2d 3e 4e 3c 7c bc 74 db 94 3d
       -0.048120435 0.16950509 -0.015395237 0.0726842
000190 44 27 af 3d 1e 32 a9 bd 9b f8 21 3e 32 f3 9d bc
       0.08552411 -0.08261512 0.15817492 -0.019281004
0001a0 f7 79 b2 bd 7c b8 67 3c f6 84 d7 bd 00 30 e7 3d
       -0.08714669 0.014143106 -0.10523407 0.11288452
0001b0 e3 c7 6e bd 34 fd ec bd 7a 52 0f 3d 8e ff 61 3c
       -0.058296096 -0.11571732 0.034990765 0.013793839
0001c0 af e1 1b 3d 46 27 dd 3c 42 a6 14 3c 90 df 94 bc
       0.038057026 0.026996266 0.009072842 -0.01817301
0001d0 6f 46 98 3c 66 49 1c 3b 52 1f d6 bd d9 d8 48 3d
       0.018588273 0.002384746 -0.104551926 0.049034927
0001e0 f3 ba 86 3d 67 12 22 bc 7e 2b 7d bd de 81 38 bc
       0.065786265 -0.009892083 -0.061809056 -0.0112614315
0001f0 60 5d 8f 3d 5e ab 29 3d f3 24 d0 3c d4 53 b2 bc
       0.07000232 0.041423194 0.025408244 -0.021768488
000200 13 a6 ff bd 83 c9 6c bb 27 b8 9e bd d0 65 1f bb
       -0.12482848 -0.0036130853 -0.07749968 -0.002432216
000210 47 1d 98 bd b9 12 fa bc 91 e5 f7 3b 14 15 f0 bd
       -0.07427459 -0.030526506 0.0075652082 -0.1172277
000220 0c 16 08 3e 24 03 35 3d c3 b4 6f 3c 77 7f 17 be
       0.1328966 0.04419245 0.014630499 -0.14794718
000230 07 52 52 bd 19 f7 97 bd 17 91 3c bd e9 f8 24 3d
       -0.05134776 -0.07420177 -0.046036806 0.04027644
000240 2c 67 31 be 89 fd 05 bd 73 a5 3f 3e e6 f9 17 be
       -0.17324513 -0.032712493 0.18715458 -0.14841422
000250 19 ae 55 bd 5f 6c 9b 3c d6 b1 2f 3d e7 1c 2a bc
       -0.052167986 0.018972574 0.042894207 -0.010382867
000260 da eb 95 bd 00 f2 c2 3c 06 43 2d 3d d2 53 94 bd
       -0.07320376 0.023797035 0.042300247 -0.0724255
000270 78 ba c4 bd 80 4e 50 bc 1c 76 47 3e 8e 62 60 bd
       -0.096058786 -0.012714028 0.19478649 -0.05478149
000280 b2 29 9a 3d 1e b3 de 3d 3c fc e1 3d 10 cd 9b 3d
       0.07527484 0.10874008 0.11034438 0.07607472
000290 86 1e cc bd fa 23 ba bd 18 6d 72 bd d8 6d d2 3d
       -0.099667594 -0.09088893 -0.05918607 0.10274857
0002a0 e1 cb 39 3c 16 1f 4f be 6b f7 b8 bd 09 05 a5 bb
       0.011340112 -0.20226702 -0.09031566 -0.0050360006
0002b0 0f ac 8e 3d 2f bb 7e 3d 38 97 69 3d 33 15 03 3e
       0.06966411 0.06219023 0.05702898 0.12801056
0002c0 d7 a3 65 bc 15 91 4f 3d f4 c3 8e bd 7b 32 8e bc
       -0.014016113 0.05067547 -0.06970969 -0.017358055
0002d0 4d 1f b3 bd 68 95 26 3c b2 db 16 bb 7c 1b 95 bc
       -0.087462045 0.010167457 -0.0023019132 -0.018201582
0002e0 5f bc 02 bd c2 59 25 bd 17 7e cc bd 22 7a 0c 3c
       -0.031917926 -0.040368803 -0.09984987 0.008574041
0002f0 f0 3f a4 3b 6d 15 46 bc df 80 3c bd 3f 40 b6 3b
       0.0050125048 -0.012090069 -0.04602134 0.005561858
000300 09 6d 2f 3c fe 02 b8 3d bc d5 02 be 30 20 d1 3b
       0.010707148 0.08984946 -0.12776846 0.006382011
000310 1e 8e 18 bd dc fa ab bd 0d 92 98 bd 54 58 b2 3b
       -0.03724491 -0.08397457 -0.07449732 0.0054426584
000320 95 68 b8 bd b2 3a 0c bb 97 69 3d 3d 0b c0 4d bd
       -0.090043224 -0.002139729 0.046243276 -0.050231975
000330 24 2a 9c ba b1 db b9 bb d7 4b 25 3e b0 76 f9 bd
       -0.0011914414 -0.005671941 0.16142212 -0.12180841
000340 86 a9 9a bd 6f 67 27 3e 99 cb 62 bd 1b 4a 2b 3e
       -0.07551865 0.1634805 -0.055369947 0.16727488
000350 0d 53 cb 3d bf e6 93 bd 44 0b 88 3d 2d ef 1d be
       0.0992795 -0.07221746 0.06642774 -0.1542327
000360 f6 cf 0b be 83 e2 63 3b 34 6d 25 3d ab 74 e9 3d
       -0.1365355 0.0034772463 0.040387347 0.11399206
000370 2c 29 89 bb 89 5d 59 3c 0e 93 91 bc 62 e3 24 bb
       -0.0041858163 0.013266929 -0.017770316 -0.0025159945
000380 51 71 1d 3d 1c 99 0c bc 28 c9 2f bc f5 2e 09 be
       0.038438145 -0.008581426 -0.010729112 -0.13396819
000390 bd 11 c1 bc 4f b1 21 b9 27 f9 42 3c 96 39 0f 3e
       -0.023568029 -0.00015420209 0.011900223 0.13986811
0003a0 fb 7f 9e bc ce 28 31 3d f8 a3 f1 3d 4c 34 12 be
       -0.019348135 0.043251805 0.11798853 -0.14277762
0003b0 52 6e aa 3d 6c e2 a4 3b 17 38 65 bc 6a 82 b6 bc
       0.08321823 0.0050318744 -0.013990424 -0.022278983
0003c0 e0 96 fb ba 7f 7b a2 3d 3d 6d 67 be 11 c8 84 3d
       -0.0019194745 0.07933711 -0.22600265 0.06483472
0003d0 7b a6 5d 3d 9b ea cf bd 84 47 28 3c 5e d9 ab 3c
       0.054113846 -0.10152169 0.010270957 0.020977672
0003e0 cc 8b bb bd 48 f6 62 bd 14 46 2b 3e e0 23 a3 3d
       -0.091575235 -0.055410653 0.16725951 0.07965827
0003f0 e8 a3 ec 3b b6 a8 01 3e a9 94 27 be d6 8c 09 3e
       0.0072216876 0.12662014 -0.16365303 0.13432631

feature_extractor.10.bias f4 [10]
000000 5b 8f eb bd 78 2b 79 bd 82 64 8b bd d1 34 7d 3d
       -0.11501952 -0.06083247 -0.0680628 0.061817948
000010 45 80 85 bd b5 49 b8 bd 48 df f4 bc af e6 88 3d
       -0.06518606 -0.089984335 -0.029891625 0.066846244
000020 fe ab 6d bd 11 92 55 bd
       -0.058025353 -0.052141253

feature_extractor.11.weight f4 [10]
000000 47 cd 91 3f fd 94 80 3f 8c 23 8d 3f 01 42 a3 3f
       1.1390771 1.0045468 1.1026473 1.2754518
000010 8c 15 8e 3f a8 bb 9b 3f 50 4f 8a 3f 12 a8 9a 3f
       1.1100326 1.2166643 1.0805454 1.2082541
000020 32 1c 94 3f e3 13 92 3f
       1.1571105 1.1412319

feature_extractor.11.bias f4 [10]
000000 5d 2f c0 3c 13 23 64 3c 1d 85 a5 bc d0 60 6c 3d
       0.023460085 0.013924378 -0.020205075 0.057709515
000010 e5 3e db 3d b8 d3 89 3d a0 3d aa 3d a5 8a 02 3e
       0.107053556 0.06729835 0.08312535 0.12748201
000020 36 d7 2d 3d 72 70 41 bc
       0.04244157 -0.011806594

feature_extractor.11.running_mean f4 [10]
000000 f8 f9 79 3f c6 76 4e 3f e9 29 06 3f 8d 68 87 bf
       0.9764705 0.80649984 0.524077 -1.0578781
000010 84 c7 65 bf 14 0a 0d 3f 92 b3 8b be ac 34 c4 bf
       -0.8975756 0.55093503 -0.2728544 -1.5328574
000020 fe d3 6c bf b9 88 9a 3f
       -0.92510974 1.2072974

feature_extractor.11.running_var f4 [10]
000000 f7 8f 24 40 c8 6c 10 40 b0 63 1f 40 ad cc 47 40
       2.571287 2.2566395 2.4904594 3.1218674
000010 10 b3 31 40 73 e0 63 40 1d 00 23 40 e9 00 1c 40
       2.776554 3.5605743 2.546882 2.4375556
000020 6c ed 23 40 13 a5 23 40
       2.561366 2.5569503

classifier.1.weight f4 [256, 90]
000000 eb 72 e9 3c f8 a1 d9 bc c4 4d b9 bd ac 27 81 bc
       0.02849718 -0.02656649 -0.09048036 -0.015765987
000010 15 2e b3 3d e6 57 3b be a7 cc 0c 3e 63 50 ba 3d
       0.08749024 -0.1829525 0.13749944 0.09097364
000020 7c 2d 04 bc 42 da 1f bd 20 83 3e bd 86 a1 b4 3d
       -0.008067485 -0.039026506 -0.04651177 0.08819871
000030 45 d7 e3 bc 80 c2 bb bb 17 5a 41 bd 3b 11 b9 3d
       -0.02781261 -0.0057299733 -0.047205057 0.090364896
000040 2a e2 28 be 0f 8f bc bc 48 aa 6e bd c4 29 0b 3e
       -0.16492525 -0.023017434 -0.05826786 0.13590151
000050 b5 7d 24 3e 1e 0d 15 bc 85 63 6d bd 2b 4c b9 bd
       0.16063578 -0.009097366 -0.057956237 -0.09047731
000060 fc eb 3a bd 5f 5a 61 ba 61 74 5c 3e 46 cd 2b be
       -0.04563521 -0.0008596535 0.2152877 -0.16777524
000070 95 40 95 bd 6c 1a b0 bc f2 9c 20 bd f9 8e 7b be
       -0.07287709 -0.021496974 -0.039212175 -0.24566258
000080 bc 3e 15 3e 99 06 a3 bd 5b d9 31 ba 6b 5a 47 3e
       0.14574713 -0.07960243 -0.00067844026 0.19468085
000090 c1 c5 e5 3d 59 eb 83 bd 3e 6f 65 3c 8b 03 8e bc
       0.11219359 -0.064413734 0.014003573 -0.017335674
0000a0 c7 7e 0e 3e 2b 70 26 bd 18 f3 87 bd c7 5b 17 3d
       0.13915549 -0.040634315 -0.06638163 0.03695276
0000b0 31 19 d9 bd 32 b1 8c ba c2 1b 0f bc 07 ed 97 3d
       -0.10600508 -0.0010733961 -0.008734645 0.07418256
0000c0 19 d1 46 bc 5e f8 15 be 86 2a 0e 3e f5 90 29 be
       -0.012134814 -0.14645526 0.13883409 -0.16559203
0000d0 02 98 d6 3c 49 6e 6f 3e 6b 32 29 be 48 28 c7 bd
       0.02619553 0.23381914 -0.16523139 -0.0972448
0000e0 aa f9 f9 bc b2 d3 63 bd b7 6d 61 3d 8f cd 33 bc
       -0.030514557 -0.05562181 0.055036273 -0.010974302
0000f0 21 b0 9e ba 46 a6 ec 3d ed 90 56 ba 17 3d eb bd
       -0.0012106934 0.11555152 -0.0008185048 -0.11486261
000100 8e dd ec bd 6b 85 40 bd 52 fd 99 bd 42 28 ba 3d
       -0.11565696 -0.047002237 -0.0751902 0.0908971
000110 29 c9 a9 3d 27 94 eb bb b9 86 fc 3b ba 34 6f 3d
       0.082903214 -0.007189292 0.00770649 0.058399893
000120 8f 22 d7 3d 0f 40 91 3b 73 ad d1 3c c0 ce e8 bb
       0.105046384 0.004432685 0.025595402 -0.0071047246
000130 25 b0 9c bd 74 f4 c4 3c f5 7a 5b be 2a 0d ee 3b
       -0.076507844 0.024042346 -0.21433623 0.007264753
000140 93 d7 2e bd d4 e6 89 3d 13 46 02 be 6f 41 5e 3d
       -0.042686056 0.0673348 -0.12722044 0.05426162
000150 24 24 13 3e 63 34 5f 3c 28 d1 2e 3b 62 44 d1 bc
       0.14369255 0.01362333 0.002667496 -0.025545303
000160 91 bc d6 bb ee fe 25 3d 50 f4 df bd 18 98 ad 3d
       -0.0065532406 0.040526323 -0.10935271 0.08476275
000170 c0 78 ec bb d8 6e 4c bc 29 89 fb bc 88 a6 c0 bd
       -0.007216543 -0.012477599 -0.030705051 -0.09406763
000180 2b 78 6a bc da fe 53 bd c3 3d 72 3d 41 a6 02 be
       -0.014310877 -0.051756717 0.05914093 -0.12758733
000190 33 02 46 bd b0 55 5c 3d b1 45 5a 3b 09 8d 74 3d
       -0.04834194 0.053792655 0.00333057 0.059704814
0001a0 81 b9 cc bd ea c3 03 be 50 9d 7c bd 2e 8c 26 3c
       -0.099963196 -0.12867704 -0.061673462 0.010165257
0001b0 41 a6 98 3c 2f b5 16 bd 63 09 3c bd a0 d8 86 bc
       0.018633964 -0.036793884 -0.04590739 -0.016460717
0001c0 7b b5 9e bd fb 20 c5 3c 92 83 5a bd a4 7a 87 bd
       -0.077494584 0.024063578 -0.05334813 -0.06615189
0001d0 e6 62 53 bd 1a b0 39 bd 93 c0 30 3d 01 39 e5 bd
       -0.05160799 -0.04533396 0.043152403 -0.11192513
0001e0 3b 46 c2 bd a9 96 9c 3b 43 28 a3 bd 72 93 9b bc
       -0.09486052 0.0047787023 -0.07966664 -0.018991206
0001f0 9e cc dd bb ad 8c af bd b4 11 40 3d f0 e9 c7 bc
       -0.006768777 -0.08571754 0.046891883 -0.024403542
000200 e2 3a 89 bc 36 40 d0 3c f2 80 1f 3d c2 59 3b 3d
       -0.01675171 0.025421243 0.03894133 0.045739897
000210 01 cd 35 bc 73 26 c2 bd 04 b3 23 ba 9b c1 a7 bd
       -0.01109624 -0.0947999 -0.0006244632 -0.08191224
000220 78 31 aa bd ac 1b e4 bb cb b3 b0 bd 64 e8 d1 bd
       -0.08310217 -0.0069613066 -0.08628043 -0.10249403
000230 38 7a 2f 3d 22 56 61 bd e0 bc 01 3d a4 a7 37 bd
       0.042841166 -0.055013783 0.031674266 -0.04483761
000240 54 56 7b 3d 38 aa 82 bd 9f b6 2e 3d 15 45 28 3d
       0.061361626 -0.06380123 0.04265463 0.041081507
000250 d1 12 0b bb 65 c8 86 3d 8c a3 02 be 3a 26 63 bc
       -0.0021220932 0.06581191 -0.127577 -0.013864094
000260 3f 67 40 3c 2e f0 ac 3c 2f 64 d0 bd a4 91 77 ba
       0.011743366 0.02111062 -0.101753585 -0.00094440044
000270 a4 ff a0 bd 43 8e 1a bd 42 50 87 3c e6 4e e5 bd
       -0.078612596 -0.037733328 0.016517762 -0.11196689
000280 fc ab f7 bd b6 4d 4f 3d db 92 3b 3b 9a 8c a0 bd
       -0.1209335 0.05061122 0.0028621468 -0.078393176
000290 40 de 68 bd f4 54 f1 bb e8 d3 09 bd d9 f6 58 3c
       -0.05685258 -0.0073648635 -0.033649355 0.013242447
0002a0 fe 17 0f bd d7 9c 4a 3d 83 6a b0 3c 85 7a 24 bd
       -0.03493499 0.04946598 0.021535164 -0.040155906
0002b0 c5 da 5f bc 13 37 ae 3d af 56 84 3c 5c cd c6 bd
       -0.013662999 0.08506598 0.016154615 -0.09707138
0002c0 f6 46 1d bd 30 35 81 bc 7e 2f 8b 3c c4 7d 1d 3d
       -0.03839775 -0.015772432 0.01699042 0.038450018
0002d0 34 d7 c5 bc e2 ec c4 bc 8a 7e af 3c 1f f3 40 3c
       -0.024150468 -0.024038736 0.021422643 0.011776715
0002e0 2a 56 f6 3c 84 0b 6c 3d f6 80 8b 3d 64 bd c9 bd
       0.030070383 0.05762817 0.06811707 -0.098505765
0002f0 d1 02 bf bd 59 33 82 3d 8a 43 db bc 89 b5 06 3b
       -0.09326709 0.0635745 -0.026765604 0.002055498
000300 20 05 b5 bd 16 fc 23 3c 22 03 6e bd 7f d9 b3 3d
       -0.08838868 0.010008832 -0.058108456 0.087817185
000310 5c a9 58 3d b9 a3 4b bd 5f 1e 08 be 0e 04 77 bd
       0.05289589 -0.049716685 -0.13292836 -0.0603066
000320 fe 71 d7 3c ca 58 59 bd 4b 3d 19 bc 47 3d 14 bc
       0.026299473 -0.05306319 -0.009352992 -0.009047813
000330 be 4b a2 3d 73 a4 9d bd 69 b1 8e bd 0c 7f 69 3b
       0.07924603 -0.07697382 -0.06967432 0.0035628704
000340 c5 5f 56 bd af 67 15 bd 47 02 30 3d 5f e8 e5 bc
       -0.052337427 -0.036475834 0.04297092 -0.028064905
000350 c9 b3 c3 bd 3f 8e 77 bd 9e 91 b5 3c aa 8a c6 bc
       -0.09555776 -0.06043839 0.022164162 -0.024236042
000360 2c 84 e1 bc e3 7b a6 bd 1e b0 eb bc 8b 3c aa 3d
       -0.027528845 -0.08129098 -0.028770503 0.08312329
000370 3e 34 6f bd 8d 19 de bc 47 46 ed bd 90 36 85 bd
       -0.05839943 -0.027111793 -0.1158567 -0.065045476
000380 b4 42 a0 bd 1e a9 bf bd be 9a 83 3d e0 c6 c2 bd
       -0.078252226 -0.093584284 0.06425999 -0.09510589
000390 9c f8 af bd ef f2 a0 bd 29 cc 58 bd 72 65 60 3d
       -0.0859234 -0.07858836 -0.052929077 0.054784246
0003a0 f6 60 a2 bd 19 9a f1 bd 24 6b 8d 3d 57 78 9d 3d
       -0.0792865 -0.1179697 0.06905201 0.07688969
0003b0 7b 15 7f 3c ce 7e d3 3c ba 33 53 3d 50 9a 96 bd
       0.015569086 0.025817301 0.051563002 -0.073536515
0003c0 5f 66 8b bd d8 39 ba bc e4 45 4b bd 19 de 4a bd
       -0.06806635 -0.02273266 -0.0496272 -0.049528215
0003d0 14 eb d3 bd b6 d2 d6 bd 0f ae 86 bd f4 0a a0 3b
       -0.10347572 -0.10489409 -0.06576168 0.004884118
0003e0 96 bc b3 bc 23 1a ce bd ae f0 1f be 1a ee fe 3c
       -0.02194051 -0.10063579 -0.15619156 0.031119395
0003f0 61 5e f7 bd b5 85 a0 bd db 5b 4d bc 57 c9 35 bd
       -0.12078548 -0.078380026 -0.012534107 -0.044381466

classifier.1.bias f4 [256]
000000 96 84 d4 bc 7e 36 09 be 03 21 74 bd 58 34 34 3d
       -0.025942128 -0.13399693 -0.059601795 0.04399523
000010 69 94 64 3d 83 44 2f 3d 80 04 dc 3d 2c 86 ab 3d
       0.055805597 0.042789947 0.10743046 0.08375201
000020 7c 8b 58 3d 47 a0 61 3e c9 99 31 3d e8 a8 fb 3c
       0.052867398 0.22033797 0.04335955 0.03072019
000030 42 08 eb 3d a1 67 ab bd f2 84 67 3d 31 5d 5b 3e
       0.114761844 -0.08369375 0.05652327 0.21422268
000040 c0 4e 81 ba 19 fd 89 3b 2d 4b 74 3d 5a 7f 06 3d
       -0.0009865388 0.00421108 0.059642006 0.032836296
000050 a3 bc 41 bd 89 2b 4a 3d b5 d0 1c be de a8 4d 3d
       -0.04729904 0.049357925 -0.1531399 0.050209872
000060 57 56 b3 bc 52 42 57 3d bf 05 82 3b 04 95 f8 3c
       -0.021891756 0.052553482 0.00396797 0.030344494
000070 ef 63 28 bd cd a5 d1 3d 37 ba 1f be d6 43 d8 3c
       -0.04111093 0.10236702 -0.15598379 0.026399534
000080 0f 93 87 3d 48 ee d3 3c 63 2e c1 3c cc 17 d0 3d
       0.06619846 0.025870457 0.02358169 0.10160789
000090 ce 68 d7 bc 6b 4f 49 3d 44 34 1b 3e fd fd c9 3d
       -0.026295092 0.049148005 0.15156657 0.098628975
0000a0 7d bc 9a 3d 0b 10 72 bd fc 51 c5 bd 57 31 e1 3d
       0.075554825 -0.05909733 -0.09634778 0.10995739
0000b0 1d 73 61 3d e4 9f 75 bd 69 01 9f 3c c1 5f c3 3c
       0.05504142 -0.059966937 0.019409852 0.02384937
0000c0 5c 44 75 bc 54 a6 cd bd 7e b9 e3 bb 2e 8c 1b bb
       -0.014969911 -0.1004149 -0.0069496026 -0.0023734677
0000d0 a1 f1 94 bd ba 17 00 3d a5 68 50 3d 05 7d c8 bb
       -0.072726496 0.031272627 0.050881047 -0.006118419
0000e0 ba c5 19 3e 9f ce b0 3c 27 34 1c 3e 7e b6 5f bd
       0.15016833 0.0215829 0.1525427 -0.054617397
0000f0 d6 a4 dd bd 92 63 eb 3c e3 9e 01 be 44 5d d7 bd
       -0.108224556 0.028734002 -0.12658267 -0.10515836
000100 04 ec a5 3d f7 f3 c7 3d 00 54 01 be 23 12 22 3d
       0.08101657 0.097633295 -0.126297 0.039568078
000110 b1 40 25 bd 1c 90 06 3e 07 62 02 bd e4 10 11 3e
       -0.040344898 0.13140911 -0.031831767 0.141666
000120 67 8c 5f 3d 3a 91 06 3e 5d 84 16 bd 6b cf b0 bd
       0.054577257 0.13141337 -0.036747325 -0.08633312
000130 2f f7 a9 3c d2 58 e7 bd c3 e7 08 bd d8 7b a3 3c
       0.02074775 -0.11296238 -0.03342415 0.019956514
000140 ff fc 45 3d 75 47 b3 bd 83 17 ef 3c c0 e7 32 3c
       0.04833698 -0.08753864 0.029186016 0.010919511
000150 de 34 1a 3e 27 99 34 bd 5b 64 cb 3d 22 c8 cf 3d
       0.1505923 -0.04409137 0.09931251 0.10145594
000160 52 16 1b 3c b6 a3 4d 3c fe b9 93 bd 08 14 5c 3d
       0.009465771 0.012551239 -0.072132096 0.05373004
000170 4f df df 3d f1 a1 1c be 40 dd ae bd e4 a9 a5 3d
       0.109312646 -0.1529615 -0.08538294 0.08089045
000180 9e 69 91 3d c8 da 7e 3b 25 59 ad bb 41 73 b0 bd
       0.07100223 0.0038887728 -0.005290168 -0.08615733
000190 e1 92 45 bd 23 91 f7 bd 14 fc 04 3d 85 3e 2d 3d
       -0.048235778 -0.120882295 0.032466963 0.04229595
0001a0 4b a0 00 bc 4c 6a 20 bd eb 1d 73 bd ec 13 2f bd
       -0.007850717 -0.039163873 -0.059354704 -0.04274361
0001b0 b0 04 20 be f0 39 c6 bd 02 6a d1 3b de 9c be bd
       -0.15626788 -0.096790195 0.006390811 -0.09307264
0001c0 de c0 a2 ba 0e 7b 89 3b 69 47 06 be 44 b0 25 3c
       -0.0012417098 0.0041955775 -0.13113178 0.010112826
0001d0 f5 2d 22 be bb 56 80 bd 32 2b fd bd e2 2a 04 3e
       -0.15837844 -0.062665425 -0.123617545 0.12906983
0001e0 cb 26 85 bc 7a b1 da 3d bd 54 a8 bd af 12 ef 3c
       -0.01625385 0.10678382 -0.082192875 0.029183714
0001f0 01 51 ec 3d 08 c9 02 3e dd 90 de bb f1 d8 3b bd
       0.11538888 0.12772 -0.0067921714 -0.04586119
000200 21 a3 e1 bc 19 ef b2 3d 6b 87 36 bd 0e 39 6b bd
       -0.027543606 0.087370105 -0.04456274 -0.05742746
000210 95 40 bf bc e9 08 86 3d 47 07 b6 3c 70 9b 92 bd
       -0.023346225 0.06544668 0.022220267 -0.071585536
000220 7d 6f f6 3d 78 24 a2 3c 3f 04 88 3d 81 7d eb 3d
       0.120329835 0.01979278 0.06641435 0.11498547
000230 b2 8b 23 3c ae d0 68 3d 10 b3 32 3c 3a 91 8f bd
       0.009982036 0.056839637 0.01090695 -0.07010122
000240 7d f4 a2 bd 1f 4e cf 3b 68 9d 3c 3e 72 99 7c 3c
       -0.07956789 0.0063264514 0.1841942 0.015417444
000250 31 d1 34 3c f3 29 a9 3d e5 9a e5 bc b0 84 6b 3d
       0.011036203 0.08259954 -0.028027961 0.057499588
000260 cb eb 9f 3d 5e 72 86 bd 2b f2 dc 3c 7b da 6a 3d
       0.07808646 -0.065647826 0.026970943 0.057337265
000270 76 a5 45 3d a0 1c c1 3d e9 c2 e7 bc a1 42 8b 3d
       0.0482535 0.09429288 -0.028291183 0.06799818
000280 5b 34 45 bd 54 80 1e bc 9a 34 a5 bd 80 8e 29 3d
       -0.048145633 -0.0096741505 -0.080666736 0.041395664
000290 8f 3e 17 be fa d4 14 3d 72 7d 58 3e be cb f9 bc
       -0.14769958 0.036335923 0.21141604 -0.03049266
0002a0 84 c0 22 3e 62 de 90 bd 84 f0 c8 3d e9 4c 59 bd
       0.15893751 -0.07073666 0.098115 -0.053051863
0002b0 7a 1f 43 3d b5 ac 01 3e 2b ce b7 bd b0 11 63 3d
       0.04763744 0.12663539 -0.0897487 0.05543679
0002c0 32 11 4c bd c0 aa 1c 3e 13 b8 e3 bd 15 54 33 3c
       -0.049821086 0.15299511 -0.11119094 0.01094534
0002d0 6f 68 da 3d 87 51 ab 3d 13 a9 bd 3c 98 94 c9 3d
       0.106644504 0.083651595 0.02315191 0.09842795
0002e0 e4 28 56 3d e3 a5 79 3d 00 ec 19 3d 5b e6 e1 3c
       0.05228509 0.060949218 0.037578583 0.027575662
0002f0 5f 62 74 3d dd 6a a2 3c 19 8a cc bd 52 c4 9b 3c
       0.059664126 0.019826347 -0.099872775 0.019014511
000300 b2 76 9b 3c be d5 3c 3b d6 7d d3 3d 6b 3e 06 3c
       0.018977497 0.0028813924 0.10326736 0.008193593
000310 27 c2 71 bc e3 87 70 3e 6e 58 22 3d a8 95 61 3e
       -0.014755762 0.23489337 0.039635114 0.22029746
000320 e1 d7 30 3d 86 6d 5a bd aa b8 27 3e 39 fb 5d 3c
       0.04317463 -0.053327106 0.16379037 0.013548666
000330 5c 21 0b 3d 01 4f 2a 3d 70 57 b9 3d 8f 69 91 bc
       0.03396736 0.04157925 0.090498805 -0.01775053
000340 30 71 e0 3d 2a 7e 8e bd eb 30 f2 3c d7 73 17 bd
       0.10959089 -0.06957658 0.029564342 -0.036975708
000350 46 62 f0 bd 37 32 cd 3c 94 95 d1 3c 47 a9 0f bd
       -0.11737494 0.025048358 0.02558402 -0.035073545
000360 f9 06 cd bd 56 b3 15 bd d8 07 92 3c 0c d0 0d 3e
       -0.100110956 -0.03654798 0.017826006 0.13848895
000370 89 66 7f 3c 91 b6 e5 bd e3 bc 84 bd 4c f4 7d 37
       0.015588411 -0.112164624 -0.0648134 1.5136855e-05
000380 26 4f a0 bb 03 13 e2 3c c7 73 9b 3d 7e 87 05 be
       -0.0048922477 0.027596956 0.07590442 -0.13039967
000390 f0 4b 7b 3d 49 2b 0d be 6c f0 ab bd cc 1d f6 bd
       0.061351717 -0.13786043 -0.08395466 -0.12017402
0003a0 83 6e d6 3d 4b 82 d5 3c 8d 35 10 bd a7 d8 b7 3d
       0.10470297 0.026063105 -0.03520732 0.0897687
0003b0 d7 d3 ac bd 40 71 ab 3c b1 22 be bd 5a 9e 3c be
       -0.08438843 0.020928025 -0.092839606 -0.18419781
0003c0 3f 18 b2 3d e0 31 ef 3c c9 9a 87 bd 78 52 c1 3b
       0.08696031 0.029198587 -0.0662132 0.0058997236
0003d0 1c a6 ad 3d 97 c5 90 3d bd 4a 3a 3e 8e 5a 27 3e
       0.084789485 0.07068937 0.18192573 0.16343138
0003e0 18 54 b5 3d 62 78 bb bd 48 5c a7 3d 9a 26 ed 3d
       0.0885393 -0.091538206 0.08171898 0.11579628
0003f0 2b 10 30 bd aa 51 3e bb 05 03 cc 3d 9d a2 8b 3d
       -0.04298417 -0.0029040375 0.099615134 0.068181254
