project_3_inny/models/mnist_pca_mlp.pth (torch, 8832 bytes, 4 tensors)

linear_1.weight f4 [128, 2]
00000000: 074b fc3e 897f ffbe a1f9 d0bd 8145 f2be
00000010: 197a 553e 6513 86be 9b41 15bd 2d56 b23d
00000020: 20cc 263e e815 29be 9c67 94be af76 81be
00000030: d281 aa3d fdaf 16bd 25a0 2abe 1b55 ecbe
00000040: d244 e9be 5e50 e6be 35b5 fbbe 8e7a be3e
00000050: 8e81 efbe b9a0 bf3e 1703 c53c 90fc e0be
00000060: 4b79 f7be 4d2f a3be 17d4 41bc 308d 05bc
00000070: 29d9 ff3c fcdd e53e a8ca fd3e acb2 833e
00000080: ae90 e9be ece0 223f 87bb 2f3e 8169 003f
00000090: 6799 f33a 79d9 21bf 0fc8 583e fe57 02bf
000000a0: 3a7e e13e 6c09 22bf 7998 a33d 178e 263e
000000b0: 8975 f33e c57e e73c de4c a43e bd00 313e
000000c0: 1351 00bf 701b b83e bd5a f6be deb2 413e
000000d0: 7fb7 5fbe 0c2a babe 4661 883d 7561 933e
000000e0: f208 dabd 5ccc f7bd f130 813e 424d bbbe
000000f0: b94b d83e f6d1 41be 0405 f93e 23a0 d6bc
00000100: 826b bc3d c61d f83e bfc6 e6be b57f f13e
00000110: 4b06 c8be 95fd 11bf ebfe a53e 6589 e7be
00000120: 4178 05be ce2f 3fbe 0692 f03e b4ce 803e
00000130: 9a9f 803e af63 26bf 462c 523c 69b6 573e
00000140: e2b6 153e c3a8 6cbe a9bd 4bbe 5fba 4c3c
00000150: 359b 3ebe 8906 c8bd cb98 683d eefe b03e
00000160: 4b6c acbe 3be5 323e 7489 613e 68c5 89be
00000170: 6dd2 a1bc b44e ecbd 38c6 dcbe a41a 88be
00000180: ebf6 103e f5c7 cd3e 2af2 13bd a2be 8fbd
00000190: f8d7 53bd e5e2 b33e fb14 a0be 9d95 b9bc
000001a0: de0c 2abe 2b72 e93e cec8 d1be 4859 073f
000001b0: 54f6 9dbe 733e 9a3e a7aa cd3e d566 16be
000001c0: ed3b 0ebe 8ef1 ccbd 4e08 debc 36e7 ca3e
000001d0: 308b 363c f254 993d b4ef 18bf d411 133f
000001e0: a752 6fbe 924a 103f b3d8 5f3e d7ab 0c3e
000001f0: 4868 6a3e b768 0dbf e642 103f 7c55 1bbf
00000200: 91cc bebe a48a 233d ab82 f7bd a575 073e
00000210: 747c 77be 2a9b e4bc a9d9 eebc eaae bbbe
00000220: 4065 653e 852d aabe e3c0 c7be ac47 0dbf
00000230: c9dc 9cbc adfd ebbb cb84 cf3d 3382 88be
00000240: f54b bcbe a5db abbd 5e3e f8be d292 20bf
00000250: 9e2f 9d3d b5e0 663e 537d a3be a46e d03e
00000260: 9852 0ebe 875a bdbd 5750 703e 866d a63e
00000270: 0e9e 863e 3d41 023f 948d dbbe de1e 033f
00000280: ea5a 083f fe4e d33e bb68 813d 246b 10bf
00000290: eee1 c8be 2106 113f e858 aaba 156d 88bd
000002a0: 2b5e 9dbd a15a 0f3f 3722 d0be 9a90 0f3f
000002b0: dbba e4bc e09a 07bf 9ee2 983e 0bb3 b5be
000002c0: 0256 9d3d 53ba 16bf eb26 68be c717 45bd
000002d0: 534e 9bb9 36d5 083e 1484 dabe d467 9d3e
000002e0: 3486 8d3e be2f babe 1406 b6be 798f e2be
000002f0: 2846 03bf 1568 f43e 1c49 e53e 2bb2 243f
00000300: 3c4b a5be 118c f03e da76 473d d3b6 06bf
00000310: 5cbd 10bf 61cd dc3e ced8 cf3e e86b c53e
00000320: a355 adbe 12a7 323e 8f4e d43e 1d46 01bf
00000330: d284 64bd 430b c43e 7f7b 72be f635 aa3d
00000340: b081 c53e 6076 dcbe 9536 0f3f dbf3 11bf
00000350: 4f20 10bd 2d35 1bbd 1623 02be adff b7be
00000360: 5391 7f3e e7f3 8d3e 232a 9c3e 2455 5a3e
00000370: 7ffa a53e c3f9 e4be a5e0 8dbe 250c 8a3e
00000380: 6820 ea3e 7da1 0a3d 8908 4c3e 1af9 133f
00000390: 8513 7dbe b2a7 adbe 291c 3dbe f84a 52be
000003a0: bb60 283d 7744 34bd 889d 113f 9b91 5fbe
000003b0: 06b6 393c b790 77bd d814 cfbe 8c94 9e3e
000003c0: 8956 ee3e db6a 913e 70d8 2d3d 5035 023f
000003d0: 832d e13e c865 1fbf 90ae 03bf 886f 14bf
000003e0: b4c5 d23e 333e ac3e c2fb cfbe 2da6 c7be
000003f0: b5c2 c63e da14 003f ce01 193e 8869 0c3d
0.4927599 -0.4990199 -0.10203863 -0.47318652 0.20847358 -0.26186672 -0.03643952 0.08707843
0.16288805 -0.16512263 -0.28985298 -0.2528586 0.083255425 -0.03678893 -0.16662653 -0.4615868
-0.45560318 -0.4498319 -0.49161687 0.37202877 -0.4677853 0.3742731 0.024049325 -0.4394269
-0.48334727 -0.31872025 -0.011830351 -0.0081513375 0.03123148 0.44895923 0.49568677 0.25722253
-0.45618194 0.63624454 0.1716138 0.50160986 0.0018585146 -0.6322246 0.21170066 -0.50915515
0.44041616 -0.63295627 0.07988066 0.1626514 0.4755061 0.02825869 0.32089895 0.17285438
-0.5012371 0.35958433 -0.48116103 0.18915889 -0.21847342 -0.36360204 0.066591784 0.2878529
-0.106462374 -0.12099525 0.25232652 -0.3658238 0.42245272 -0.1892775 0.4863664 -0.026199406
0.09200193 0.48460215 -0.45073506 0.47167745 -0.390673 -0.5702756 0.3242105 -0.4522201
-0.13034154 -0.1867058 0.46986407 0.25157702 0.25121766 -0.64995855 0.012827938 0.21065678
0.14620546 -0.23111252 -0.19896568 0.012495606 -0.18613894 -0.097668715 0.05678634 0.34569496
-0.3367637 0.17470257 0.2202509 -0.26908422 -0.01975366 -0.11538449 -0.4311998 -0.26582825
0.14156692 0.40191618 -0.036119618 -0.07018782 -0.051719636 0.35134044 -0.31266007 -0.022654349
-0.16606471 0.45594916 -0.40973514 0.5287061 -0.30851996 0.3012577 0.4016926 -0.14687665
-0.13890047 -0.100070104 -0.02710357 0.39629525 0.011141583 0.07486905 -0.5974076 0.5744908
-0.23371373 0.56363785 0.21860008 0.13737427 0.22891343 -0.5523791 0.5635208 -0.60677314
-0.37265447 0.03992714 -0.1208547 0.13228472 -0.24168569 -0.02790602 -0.029156523 -0.36656886
0.22401905 -0.33237854 -0.39014348 -0.5518749 -0.019148247 -0.0072018714 0.1013275 -0.26661834
-0.367767 -0.08391503 -0.48485082 -0.6272403 0.07675098 0.22546656 -0.31931552 0.40709412
-0.13898695 -0.09245782 0.23468147 0.32505435 0.2629246 0.50880796 -0.42881453 0.51218975
0.53263724 0.41271204 0.06318804 -0.56413484 -0.3923487 0.56649977 -0.0012996467 -0.06661431
-0.07683977 0.55997664 -0.40651104 0.5608002 -0.02792113 -0.52970695 0.29860395 -0.3548816
0.0768242 -0.5887806 -0.22671096 -0.04811838 -0.0002962226 0.13362584 -0.42678893 0.30743277
0.2764145 -0.3636455 -0.35551512 -0.44250086 -0.51278925 0.47735658 0.4478234 0.6433436
-0.32283962 0.46981862 0.04869733 -0.5262272 -0.5653894 0.43125442 0.40595096 0.38558888
-0.33854398 0.17446545 0.41466185 -0.5049761 -0.05579073 0.38289842 -0.23679923 0.083110735
0.38575506 -0.43059063 0.5594266 -0.5701272 -0.035187062 -0.03789251 -0.12708697 -0.35937253
0.2495778 0.27725145 0.30500898 0.21321541 0.32417676 -0.44721803 -0.27710453 0.2696239
0.4572785 0.033845413 0.19925131 0.57801974 -0.24714477 -0.33917004 -0.18467773 -0.20536411
0.041107874 -0.044010606 0.56881 -0.21832888 0.011334902 -0.060440745 -0.4044559 0.30972707
0.46550396 0.28401837 0.04244274 0.508626 0.43980035 -0.6226468 -0.51438236 -0.57982683
0.4116646 0.33641204 -0.40621763 -0.3899397 0.38820425 0.50031817 0.14942095 0.03428033

linear_1.bias f4 [128]
00000000: 649a 4d3f 0549 293f e836 a8bf 31f7 1c3f
00000010: a3e1 2e3f 96f8 2e3d 4335 043f 72c9 70bf
00000020: ae98 a3bf 1ecc 3cbe 8d97 11c0 68f4 dd3e
00000030: f34f c23f 04ae dbbf 287b b7be b367 ae3d
00000040: 9b79 233e 63f9 ffbe 0de5 cc3e d173 adbe
00000050: f705 06bd fc7b d4be eca3 35bf ed2a c8be
00000060: cf2d b3bf c422 ebbe 1de5 33bd e4c3 4c3d
00000070: 89ec 443f af6f 283e e939 a43e 9ce8 acbf
00000080: ae80 63bf 5b74 35bf 3d52 9f3f af85 51bf
00000090: 9880 203f 21bd 403e 322b 1cc0 5037 25c0
000000a0: 3db7 5dbf ce84 c5be a1a7 c73f 9901 733f
000000b0: 9474 96bf 25bf c7bf a498 3ac0 5ebd 29c0
000000c0: 80a5 a1bf 3cb8 863e dd60 78bf 035e 32bf
000000d0: 8d36 5b3f 349b eebe 180e c5be f05a 623e
000000e0: 2588 803f 0cd3 f5bf 619e b9bf 632e 883f
000000f0: c183 8abf 3e8b b6bf 2e1e e73e eda7 713e
00000100: 18b5 313f 8f53 4fbf 2574 ffbe 3579 a73e
00000110: cc53 ca3f a619 c03d 4189 28c0 0a2e 7d3f
00000120: a288 afbe a277 38bf 85e8 1d3f 04e2 56bf
00000130: 6afe e1be 02d5 b73f 3bbe ac3e 8968 6e3f
00000140: f19c 213d 1dad 71be 358d 96bc 5e82 3c3f
00000150: 4269 ee3f fbd7 cbbf aaa1 98bd c62c 43bf
00000160: 51bb 00c0 25d6 acbf b1f3 c93e 0bf0 353f
00000170: 7314 36bf 6058 f33d 5485 913f 09bb 643e
00000180: 6eb6 36bf 951f 173f 8aa0 833f c3a2 52bf
00000190: 2c10 bcbf acf6 d23f f33a cdbd 8d40 de3f
000001a0: ea57 373f 6d11 6d3d d636 a23f 8139 0d3f
000001b0: f447 4fbf 322e 473f fe2b 10bf 2dbe 0040
000001c0: 25b1 a23e a4d0 b13e f810 183e f4ff 1abe
000001d0: bfee 80bf 5cd3 59be b55a c43f 5f37 c23e
000001e0: b39b 213f 470b 603f 74f5 d4be 9575 843f
000001f0: 3322 00bf eca9 21be 95cc 14bf fd3e c13f
0.80313706 0.66127044 -1.3141756 0.61314684 0.68313044 0.04271754 0.5164377 -0.9405738
-1.2780969 -0.1843724 -2.274875 0.4335053 1.5180649 -1.716248 -0.35836148 0.08515873
0.15964358 -0.49994954 0.40018502 -0.33877423 -0.032720532 -0.41500843 -0.7095325 -0.3909525
-1.3998355 -0.45924962 -0.04391967 0.049991503 0.76923424 0.16448854 0.32075432 -1.3508487
-0.88868225 -0.7088067 1.2446972 -0.8184461 0.6269622 0.18822147 -2.4401364 -2.581501
-0.86607724 -0.38577884 1.5598031 0.9492431 -1.1754327 -1.5605208 -2.9155664 -2.652183
-1.2628632 0.26312435 -0.970228 -0.696747 0.8563011 -0.46602786 -0.38487315 0.22105002
1.0041548 -1.9205031 -1.4501458 1.0639156 -1.0821458 -1.4261243 0.45140213 0.23599215
0.6941695 -0.80986875 -0.498933 0.3270966 1.5806823 0.09379892 -2.6333773 0.98898375
-0.3428393 -0.72057545 0.6168292 -0.8393862 -0.44139415 1.436188 0.33738884 0.9312826
0.03945631 -0.23601194 -0.01837788 0.73636425 1.8625872 -1.5925287 -0.0745271 -0.76240194
-2.011433 -1.3502852 0.39443734 0.710694 -0.71124953 0.118820906 1.1368814 0.22336973
-0.71372116 0.59032565 1.0283368 -0.82279605 -1.4692435 1.6481528 -0.10021009 1.7363449
0.7161852 0.057877947 1.2672985 0.5516587 -0.80969167 0.77804863 -0.56317127 2.0116074
0.31775776 0.34729493 0.14850223 -0.15136701 -1.007286 -0.21272033 1.5340182 0.3793287
0.63128203 0.8751721 -0.41593516 1.0348383 -0.50052184 -0.15787476 -0.5812467 1.5097347

linear_2.weight f4 [10, 128]
00000000: bc27 15bc a6c0 22bd f14b c43c a460 0c3d
00000010: 3cb2 53bd 1198 e8bb 2b00 053d f653 3cbd
00000020: ff4c e9bc e5ae 31bd 890e 653c c5fc 5a3d
00000030: dd93 c93b 7689 12be 81bf ee3c 2b2f cbbc
00000040: 2ee6 493d 36a7 083d 21d3 b63c b66e 8e3d
00000050: 3657 ba3c 4190 773d d270 b33d 9fe4 a73d
00000060: 3d71 873d 4fe2 a43d 3b40 2a3d cb17 12bd
00000070: 2d6e 863d 78c3 de3b 8c16 a6bc d836 323c
00000080: 841e ac3d 1c6d 853d 67a6 e73c c4b4 a33d
00000090: cc9a 183d 4c01 b0bc 67d2 403d b733 b73c
000000a0: 8b12 3dbd 1763 43bd 2ae5 713d a012 233d
000000b0: a91a 42bd 3662 7e3d 3f7c abbc 542e 473b
000000c0: d30c 463d 9713 ce3d 4e9a 8abd 02ad ee3c
000000d0: 1854 84bc f6ef 93bc c66e 99bd 0a2a 21bd
000000e0: 7173 703c ae7f 05bc 4e12 81bb 30a2 743d
000000f0: d80b 44bc 7636 9c3d 400c b1bd fada 21bd
00000100: 40e3 193d 5c1e 9e3d d236 0cbd 59b0 13bc
00000110: f35e 17bc 1b5a 1ebd a6ac 42be 78d5 6fbd
00000120: 5cc8 7ebd e1a1 ac3c 8252 563b a99c 3cbc
00000130: f526 ea3d 47da 99bd e1a0 30bd 1fde 82bc
00000140: 26be 3ebd 8b5f 26bd 3152 dd3c 049d c8bc
00000150: 6aaa e23c bcbe 62bd 909e 543c ed7f 0c3d
00000160: cafc 2c3d 65bb 6a3d f4f5 753d 7954 84bd
00000170: 6627 2b3d 2c19 3ebd ab35 8a3d 8140 8c3d
00000180: 2be4 31bd 8edf e63c 6eea fc38 445a 8c3c
00000190: a20a b83d baa3 9abd ebbf 823d b8fe 6abd
000001a0: 25c2 27bd 52a1 963d 134a cd3d 4bd6 473d
000001b0: 5e80 b33d 856b 093d 1224 443d 36df a5bc
000001c0: 815f f2bc 1543 0cbd cd80 10bc 092b 56bc
000001d0: 679b 0d3d be86 76bd 69ca 39bd c0d5 703d
000001e0: 744d 8cbd 9b2d 43bb 5785 26bd 7fa2 023d
000001f0: c287 483d a12e 82bc 42fb 52bd dd5e 67bd
00000200: 9a0d e8bc 0cd1 61bc 652c 37bd 61ce 28bc
00000210: 88cb 4a3d 0a10 e5bc cd78 1ebd 83ed 3f3d
00000220: e7b5 aa3a f436 a53c 24bd 2b3d 90d4 4cbd
00000230: 397c 29bd 3973 873d 9c3c a8bc f9ce 36bd
00000240: b298 173d 0708 febc 602a d53d a4ad de3c
00000250: 46f6 5c3c 6d24 383d eee9 5bbd 1ced 843d
00000260: 8514 353d e5a2 e23c 45dd 21bd 7281 123b
00000270: 0963 4f3c 0f49 9abd 0570 3fbd c649 45bd
00000280: 449c 973d de1d 7a3d c690 bcbc 3362 99bd
00000290: b0e1 5f3d 84b4 4a3d 828b a639 51ad 023e
000002a0: 8d4f 373d ad66 433d a795 1e3d 04c8 51bd
000002b0: 8f77 b73c 1d2e 2bbd 5caf 883d 47ba 363c
000002c0: c7c1 193d c267 b4bc ac1b 243d f3d4 8c3d
000002d0: 9a8b c4bb 7315 a1bb 653a 323d ec6a 183d
000002e0: 687a a8bd c5bc 7f3d 3c60 fd3d 3c34 66bd
000002f0: fc4f 3c3d f2dd 723d b211 21bd 15a2 b23d
00000300: 31f0 f0bc 8cff 543d b717 c93c 1a71 f43c
00000310: a265 1bbd 3e65 aa3c 9697 8c3e f980 383b
00000320: e46a 5e3d 586a 01bc 435e 12bd d078 c73d
00000330: ad7c 6a3c 6b96 75bd f4ea 713d 0125 2cbd
00000340: 24c7 4e3d 0ee8 7b3d 9287 0d3a 1808 db3a
00000350: 6ec0 7dbd 4fdb b13d ad9d 6fbc 97bd b8ba
00000360: 967c 11bd c723 d9bc e563 d7bc e096 9cbd
00000370: 334f 28bd 0249 00bd dd41 90bc 08cc 16bb
00000380: 6ee5 72bd 0268 9f3d 1e20 4d3d fbf7 b5bc
00000390: 740a c43d 7d49 59bd 664b a73b 635a 40bd
000003a0: 7cdc 373d 5f2c e5bc 9d88 a2bc 6496 243d
000003b0: ac41 9a3c e9d4 22bc 8cf8 883d 8586 6dbd
000003c0: f13a fabc 2799 f4bc fed4 0c3d ac01 3bbd
000003d0: 30fd d7ba a908 dbba 174c c1bc 7339 d4bc
000003e0: 49c7 0bbd 8f28 78bd 2ae7 56bd 4dbb 16bd
000003f0: d299 80bd 7f71 963d 393a 573d f0cb 10bd
-0.009103712 -0.039734505 0.023961993 0.03427185 -0.05168365 -0.007098206 0.032470863 -0.04597851
-0.028479097 -0.043379683 0.013980516 0.053463716 0.00615166 -0.1431025 0.02914405 -0.024802765
0.049291782 0.03336259 0.022317471 0.0695471 0.022746664 0.060440306 0.08761753 0.08197903
0.06613395 0.080509774 0.04156516 -0.035667222 0.06563983 0.006798204 -0.020274423 0.010877334
0.08404258 0.065149516 0.028277589 0.07993463 0.037257 -0.021484993 0.047075655 0.022363527
-0.046160262 -0.04770192 0.05905644 0.039812684 -0.047388706 0.06210538 -0.020933269 0.0030392604
0.048352074 0.1006233 -0.067677125 0.02913523 -0.01615338 -0.018058758 -0.074918315 -0.039346732
0.014675961 -0.008148117 -0.0039389497 0.059724987 -0.011965714 0.07627575 -0.086449146 -0.039515473
0.037570238 0.07720634 -0.03423197 -0.0090142125 -0.009238946 -0.03866015 -0.19011173 -0.05855319
-0.062202796 0.021073284 0.0032702987 -0.01151196 0.11433212 -0.07512336 -0.043122176 -0.015975056
-0.04656806 -0.04061846 0.027016731 -0.024488933 0.02766915 -0.05535768 0.012977257 0.034301687
0.042233266 0.05730762 0.060049012 -0.064614244 0.04178562 -0.046410725 0.067485176 0.06848241
-0.04343049 0.028182771 0.00012059962 0.017132886 0.08986403 -0.075507596 0.06384262 -0.057371825
-0.040956635 0.07354988 0.10023894 0.04878835 0.087647185 0.033549804 0.04788596 -0.020248037
-0.029586555 -0.034243662 -0.008819771 -0.013071784 0.03457203 -0.060187094 -0.04535905 0.058797598
-0.068507105 -0.0029781822 -0.040654507 0.03189325 0.048957594 -0.015891375 -0.05150915 -0.056486953
-0.028326798 -0.013782751 -0.044720072 -0.010303111 0.04951051 -0.02796175 -0.038689423 0.04685737
0.0013024182 0.020167805 0.041928425 -0.050007403 -0.041378234 0.06613774 -0.020536713 -0.04463098
0.037010856 -0.031009687 0.10408473 0.027182408 0.013486451 0.044956613 -0.05368989 0.064905375
0.044209022 0.027665565 -0.03951766 0.0022354987 0.012657889 -0.07533466 -0.04673769 -0.04816606
0.07402852 0.06106364 -0.023018252 -0.07489433 0.05465859 0.04948856 0.0003176593 0.12761427
0.0447536 0.04770534 0.03871694 -0.05121614 0.022395877 -0.041792024 0.06674072 0.01115281
0.037538316 -0.022022132 0.040065452 0.06876554 -0.005998087 -0.004915887 0.04351272 0.037211344
-0.08226472 0.062435884 0.12371871 -0.05620216 0.045974717 0.059293695 -0.039323516 0.08722321
-0.029411407 0.05200152 0.02454744 0.029839087 -0.03793872 0.02080023 0.274594 0.0028153046
0.054301158 -0.0078988895 -0.035734426 0.0973984 0.014311952 -0.059957903 0.05906196 -0.042027477
0.050482884 0.0615006 0.00053989247 0.0016710786 -0.061951093 0.08684408 -0.014624995 -0.0014094588
-0.035519205 -0.026506318 -0.02629275 -0.076459646 -0.041091155 -0.031319626 -0.017609531 -0.0023009796
-0.059300832 0.0778351 0.050079457 -0.022212973 0.09572306 -0.0530486 0.0051054237 -0.0469612
0.044888005 -0.02797526 -0.019840533 0.040182486 0.018830143 -0.009938457 0.066880316 -0.057989616
-0.030545684 -0.029858185 0.034382813 -0.04565589 -0.0016478654 -0.0016710955 -0.023595853 -0.0259063
-0.0341256 -0.060585555 -0.05246655 -0.036799718 -0.06279339 0.073458664 0.05254576 -0.03535074

linear_2.bias f4 [10]
00000000: e384 52bf fd53 0bc0 eaef 403f bb49 933e
00000010: a64d aebe 8afc 843f ca97 a33f eac7 6bbf
00000020: fcab 8d3f cacb 14bf
-0.8223402 -2.1770012 0.7536608 0.2876719 -0.34043616 1.0389569 1.2780697 -0.9210192
1.106811 -0.5812346
