project_3_inny/models/wine_mlp.pth (torch, 10840 bytes, 4 tensors)

linear_1.weight f4 [128, 13]
0	0x3e84f8e6	0.25971144
1	0x3e8cf3f0	0.2752986
2	0xbd82b80f	-0.06382763
3	0x3e389e6c	0.18029183
4	0x3da33ccc	0.079705805
5	0xbe877698	-0.26457667
6	0x3a96e3d0	0.0011511985
7	0x3e15cb86	0.1462842
8	0x3dbf659c	0.09345552
9	0x3e271f44	0.1632052
10	0xbd0061df	-0.031343337
11	0xbe410b07	-0.18851863
12	0xbe77e8af	-0.24209855
13	0xbd7a739d	-0.061145414
14	0xbe4dc1ff	-0.20093535
15	0x3ca77689	0.020442264
16	0xbc9eb990	-0.019375592
17	0xbb8c1b08	-0.0042756833
18	0x3dfa0efb	0.122098885
19	0x3e49f318	0.19721639
20	0x3e827987	0.25483343
21	0xbe523754	-0.20528919
22	0x3cf87e6b	0.030333718
23	0xbd23a132	-0.03994865
24	0x3e82f0cc	0.25574338
25	0xbdf7c1db	-0.12097522
26	0xbe860c3e	-0.26181215
27	0x3c04501d	0.008075741
28	0xbe172aed	-0.14762469
29	0xbe8e7a73	-0.27827796
30	0xbd198fa3	-0.0374905
31	0xbd842d37	-0.064539365
32	0x3d94c5f9	0.07264323
33	0x3d9a48dc	0.07533428
34	0xbdb2761a	-0.08713932
35	0xbdc958b4	-0.09831372
36	0x3e950bd7	0.29110596
37	0x3e085995	0.13315423
38	0x3e24a727	0.16079389
39	0x3d35f490	0.044422686
40	0x3d97f485	0.07419685
41	0xbe12efc8	-0.14349282
42	0x3d5023f8	0.050815552
43	0xbd897df5	-0.067134775
44	0x3e31c94e	0.17361948
45	0x3e0e4051	0.13891722
46	0x3e05549a	0.13020554
47	0xbd035d19	-0.032071207
48	0xbe633e80	-0.2219181
49	0x3d4d253e	0.050084345
50	0xbe586bd1	-0.21134879
51	0xbda67a0f	-0.081287496
52	0x3e5e4b0c	0.21708316
53	0x3d41047b	0.047123414
54	0xbe5de098	-0.21667707
55	0x3e913f7d	0.2836875
56	0xbe139b61	-0.14414741
57	0xbe957318	-0.29189372
58	0xbce22da6	-0.027609657
59	0xbe40de4f	-0.18834804
60	0xbdbce366	-0.0922306
61	0xbdadb945	-0.08482603
62	0xbcb15d76	-0.021651011
63	0x3d1998b2	0.037499137
64	0xbe71d9fa	-0.23618308
65	0xbd0d2280	-0.03445673
66	0xbe2608c1	-0.16214277
67	0x3d35037c	0.044192776
68	0x3d0551e7	0.03254881
69	0x3e06e240	0.13172245
70	0x3d066951	0.03281528
71	0x3cb11400	0.021615982
72	0xbe45838a	-0.1928846
73	0xbd48b0f7	-0.04899689
74	0xbd83df67	-0.06439095
75	0x3d6c9979	0.05776355
76	0x3e37e450	0.17958188
77	0xbe92c99c	-0.2866944
78	0x3e600a37	0.21878897
79	0x3d8f7174	0.07004061
80	0x3e77dfeb	0.24206512
81	0x3e777a16	0.24167666
82	0x3c9e0c14	0.019292869
83	0xbe027a60	-0.12741995
84	0xbd82c856	-0.06385867
85	0x3cf5a602	0.029986385
86	0xbdf9462d	-0.12171588
87	0x3da4f243	0.0805402
88	0xbe7cfafa	-0.24705115
89	0x3dc4cce3	0.096093915
90	0xbcaee286	-0.02134825
91	0xbe6e8de0	-0.23296309
92	0x3e3a08de	0.18167445
93	0x3deedbe4	0.116630346
94	0xbd08694d	-0.033303548
95	0xbe402c86	-0.18766984
96	0xbbb8da0a	-0.0056412267
97	0x3e7411de	0.23834941
98	0xbe7ed4e3	-0.24885897
99	0x3e8a579a	0.2701996
100	0x3e7606a9	0.24025978
101	0x3d6add8e	0.057340197
102	0x3e85a0b3	0.26099166
103	0x3e95e255	0.2927424
104	0xbe11e66e	-0.14248058
105	0x3df7985f	0.12089609
106	0x3d07056c	0.032964155
107	0x3e8ce655	0.2751948
108	0xbd824f9b	-0.0636284
109	0xbe842876	-0.2581212
110	0xbe34d5b8	-0.17659652
111	0x3e84ca79	0.25935724
112	0x3dc9d29b	0.09854623
113	0x3dafffb8	0.08593696
114	0xbd8244a0	-0.063607454
115	0xbe095b7b	-0.13413803
116	0x3e809f32	0.25121456
117	0x3e09f4ee	0.1347234
118	0xbe950a77	-0.29109547
119	0x3e322b02	0.17399219
120	0xbd8e5f66	-0.069517896
121	0x3e1f197d	0.15537067
122	0xbe85b9ac	-0.2611822
123	0x3c95f123	0.01830346
124	0xbe614468	-0.21998751
125	0xbe18e212	-0.14929989
126	0xbe631920	-0.22177553
127	0x3db9bd45	0.090693034
128	0xbd705677	-0.05867621
129	0xbdf13e39	-0.11779446
130	0x3e5d54e6	0.21614417
131	0x3e2de617	0.16982304
132	0x3e7bc261	0.24585868
133	0x3e76b3ea	0.2409207
134	0xbe97b14a	-0.29627448
135	0xbe185ddf	-0.14879559
136	0xbe3df861	-0.1855178
137	0x3d0d958a	0.03456644
138	0x3e3d6b08	0.1849786
139	0xbe601a61	-0.21885063
140	0xbde91cb9	-0.113824315
141	0x3e57df59	0.21081294
142	0xbba4cce7	-0.005029309
143	0xbc79e220	-0.015251666
144	0x3e56130d	0.20905705
145	0x3d6d55fe	0.057943337
146	0xbc0f4179	-0.008743637
147	0xbe35e124	-0.17761666
148	0x3e738d12	0.23784283
149	0x3e027ee2	0.12743714
150	0x3e21d91f	0.15805481
151	0xbdcb094b	-0.09913882
152	0x3cffb2a7	0.031213118
153	0x3e997eda	0.29979593
154	0x3dac30b8	0.0840773
155	0x3e54b2b9	0.20771302
156	0x3e0041ea	0.12525144
157	0xbe3a5890	-0.18197846
158	0x3e21006f	0.15722822
159	0xbc4deb47	-0.0125683015
160	0x3d83f4fe	0.06443213
161	0xbe783294	-0.24238044
162	0x3e3814ac	0.17976636
163	0xbd513daf	-0.051084217
164	0x3dfc905e	0.12332223
165	0x3e5524cb	0.20814817
166	0x3da33851	0.07969726
167	0xbcbde886	-0.023182165
168	0x3e4333dc	0.19062752
169	0xbe8d26de	-0.27568716
170	0xbe2c7e42	-0.16845039
171	0x3b44592e	0.0029960382
172	0x3e418575	0.18898566
173	0xbe800464	-0.2500335
174	0xbd48a81d	-0.04898845
175	0xbd765bbe	-0.060146086
176	0xbd6fa58b	-0.058507483
177	0xbe3eee0c	-0.18645495
178	0x3d458209	0.048219714
179	0x3e99ffd2	0.30077988
180	0xba851fca	-0.0010156569
181	0xbc741899	-0.014898443
182	0xbe04068e	-0.12893125
183	0xbe8f276e	-0.2795977
184	0xbe963842	-0.29339796
185	0x3e7d4809	0.2473451
186	0x3ce51642	0.027964715
187	0x3d8dbd3d	0.0692086
188	0x3c6040b0	0.013687298
189	0xbba5c1cd	-0.0050585032
190	0xbd3c85e0	-0.04602611
191	0xbcb4ae66	-0.022055816
192	0xbe78859f	-0.24269722
193	0xbe15d0cf	-0.14630435
194	0x3e77000b	0.2412111
195	0x3e569ae4	0.20957524
196	0x3e982213	0.29713497
197	0x3e75960f	0.23983024
198	0xbdb5ba07	-0.088733725
199	0xbe931dc8	-0.2873366
200	0x3dc8bdf5	0.098018564
201	0x3e723b0c	0.23655337
202	0x3d47c987	0.048776176
203	0xbe95ab07	-0.29232046
204	0x3d36c6cd	0.044623185
205	0xbc32faa6	-0.010924017
206	0xbe80920f	-0.25111434
207	0xbd559860	-0.05214727
208	0xbe0df1f6	-0.13861832
209	0x3e8394b0	0.25699377
210	0x3e43d885	0.19125564
211	0xbe39bf8e	-0.18139479
212	0x3e565e49	0.20934404
213	0x3e087f87	0.13329898
214	0xbe83286c	-0.25616777
215	0x3e816597	0.2527282
216	0x3dcd6a7e	0.100300774
217	0x3e38383b	0.179902
218	0xbe98a2bc	-0.29811656
219	0xbe8d9787	-0.2765467
220	0x3d7991c9	0.060930047
221	0x3e058e5a	0.13042584
222	0xbe528698	-0.20559156
223	0xbd42c7db	-0.04755388
224	0x3d1ee7b5	0.03879519
225	0x3e18e195	0.14929803
226	0x3e9913c4	0.29897892
227	0xbe25a1b6	-0.16174969
228	0x3da20cdd	0.0791261
229	0xbd725f8a	-0.059173144
230	0x3e38b01d	0.18035932
231	0x3d8459a4	0.0646241
232	0x3e372fea	0.17889372
233	0xbe6bed81	-0.2303982
234	0xbe416caf	-0.18889116
235	0xbe289058	-0.16461313
236	0xbdc2caaf	-0.09511315
237	0xbe00b9d1	-0.12570883
238	0xbd268f0d	-0.040663768
239	0x3e5e4f21	0.21709873
240	0xbe122153	-0.14270525
241	0xbe0ce680	-0.13759804
242	0xbe6dc5ab	-0.23219936
243	0x3e47dc1f	0.19517563
244	0x3db12306	0.08649258
245	0x3deddb03	0.11614039
246	0xbc82c388	-0.015962377
247	0x3e8ece63	0.27891836
248	0xbe30c6ff	-0.17263411
249	0xbe7b7c6b	-0.2455918
250	0xbe62900b	-0.2212526
251	0xbd1380a0	-0.03601134
252	0xbe56cf90	-0.20977616
253	0xbdf09b01	-0.11748315
254	0x3e1729aa	0.14761987
255	0xbe1cb75e	-0.15304324

linear_1.bias f4 [128]
0	0x3e732b49	0.2374698
1	0xbcd6d26a	-0.02622338
2	0x3ddcc995	0.10780636
3	0x3e88fd4a	0.26755744
4	0x3bfb095d	0.0076610283
5	0xbe252948	-0.16129029
6	0x3d95e73e	0.073194966
7	0xbe63bd74	-0.2224024
8	0xbd99bd74	-0.075068384
9	0xbdc5d9f2	-0.096607104
10	0x3ca629ae	0.020283546
11	0xbe39cb72	-0.18144014
12	0xbd8c6f64	-0.068571836
13	0x3d80e1b1	0.06293047
14	0x3e4de390	0.2010634
15	0xbe122a68	-0.14273989
16	0x3d705385	0.0586734
17	0x3dd85159	0.10562391
18	0x3d9e734a	0.077368334
19	0x3e594d02	0.21220782
20	0x3e6df130	0.23236537
21	0xbd895eb8	-0.06707519
22	0xbe48f798	-0.196257
23	0xbdf84e4e	-0.121243104
24	0xbe28bfdf	-0.16479443
25	0x3e43a2c3	0.19105057
26	0x3d85209b	0.065003596
27	0xbe276f2d	-0.16351004
28	0x3e068d04	0.1313973
29	0xbe38b729	-0.1803862
30	0xbe216fe0	-0.15765333
31	0x3c5b470e	0.01338364
32	0xbd782395	-0.06058081
33	0x3e71f06e	0.23626873
34	0xbd8fc5d2	-0.07020153
35	0x3d52c806	0.05146029
36	0xbd19d544	-0.0375569
37	0xbda104e4	-0.07862261
38	0xbc6ef6b7	-0.014585189
39	0xbe124cd3	-0.14287119
40	0x3d2bc37c	0.041934475
41	0xbd4d8ad8	-0.05018124
42	0xbd4d7e4c	-0.050169274
43	0x3dbb9156	0.0915858
44	0xbe91f63c	-0.28508174
45	0xbc940e6c	-0.018073283
46	0xbe3d9ddf	-0.18517254
47	0x3dfa24b2	0.1221403
48	0xbe69b914	-0.22824508
49	0xbd02b96b	-0.03191511
50	0xbb73395c	-0.0037113046
51	0xbdf52212	-0.11969389
52	0x3d6af053	0.057358097
53	0x3e161aee	0.1465871
54	0x3e1b00f8	0.15137088
55	0x3e58b323	0.21162085
56	0x3c2e1992	0.010626214
57	0x3d68ab2c	0.056803867
58	0xbe92860c	-0.28617895
59	0xbe6552e9	-0.22394909
60	0xbda38d21	-0.079859026
61	0x3e85ca93	0.26131114
62	0x3e25f671	0.16207291
63	0x3e878912	0.26471764
64	0x3e62b573	0.2213953
65	0xbe26bc61	-0.16282798
66	0xbd5f3c5d	-0.054500926
67	0xbd25bf60	-0.040465713
68	0x3e80b96b	0.25141463
69	0x3d86dfd8	0.065856636
70	0x3d69c0ef	0.05706876
71	0xbd45ad3a	-0.048260905
72	0xbe67f21e	-0.22650954
73	0x3e68305a	0.22674695
74	0xbe536418	-0.20643651
75	0x3dd505df	0.104015104
76	0x3e2aa78f	0.16665481
77	0x3d9d1596	0.07670133
78	0xbe4fdb84	-0.20298582
79	0xbe32ff9f	-0.17480324
80	0x3e01800f	0.12646507
81	0xbc883e82	-0.016631369
82	0xbd0538f9	-0.032525036
83	0xbb8643ae	-0.0040974235
84	0xbe74c011	-0.23901393
85	0x3e7e78d5	0.24850781
86	0x3db5c714	0.08875862
87	0x3e492195	0.19641717
88	0xbde4b37f	-0.11167049
89	0xbbe640dc	-0.007026775
90	0x3de451b6	0.111483976
91	0xbdc50b3f	-0.09621286
92	0xbe231b52	-0.1592839
93	0x3dfd55db	0.12369891
94	0x3e8d1c53	0.27560672
95	0xbe800557	-0.25004074
96	0x3b9dd03f	0.0048160846
97	0xbe95474e	-0.29155964
98	0x3d93e5f4	0.072215945
99	0xbe53fc92	-0.20701817
100	0xbaf1b8ae	-0.001844188
101	0xbe68e166	-0.22742233
102	0xbcda5b40	-0.02665484
103	0x3e4c606a	0.19958654
104	0x3d24f3ae	0.040271454
105	0xbb0b4f7e	-0.0021257098
106	0xbdd730ca	-0.10507353
107	0x3bb22bd8	0.0054373555
108	0x3d30f17d	0.04319905
109	0xbe7a82ab	-0.24463908
110	0xbe2f5ad7	-0.17124496
111	0xbd0949e3	-0.03351773
112	0xbda9449b	-0.082650386
113	0xbe45dfa6	-0.19323596
114	0xbe0e0b81	-0.13871576
115	0xbe733830	-0.23751903
116	0x3e27eed7	0.16399704
117	0xbe53feca	-0.20702663
118	0xbe3b5d12	-0.18297222
119	0x3e78970d	0.24276371
120	0xba9c67db	-0.0011932807
121	0xbe1a847b	-0.150896
122	0xbe377552	-0.17915848
123	0x3e030e04	0.12798315
124	0xbe3ed17f	-0.18634604
125	0xbe6aad4f	-0.22917674
126	0xbe93bd92	-0.28855568
127	0xbe69ea90	-0.22843385

linear_2.weight f4 [3, 128]
0	0xbda7e72c	-0.081983894
1	0x3ce9979c	0.028514676
2	0x3da04cc5	0.078271426
3	0x3d2aef3e	0.041732065
4	0xbd67a746	-0.05655601
5	0xbd31c34c	-0.04339914
6	0xbd826d07	-0.063684516
7	0x3d4d9fcc	0.050201222
8	0x3ca7240f	0.020402936
9	0x3cb6a161	0.022293748
10	0xbd0225df	-0.031774398
11	0x3cb6e9ea	0.022328336
12	0x3bdf5513	0.0068155616
13	0xbd34538a	-0.04402498
14	0x3cffc91c	0.031223826
15	0xba0c1277	-0.00053433276
16	0xbd6c5d8a	-0.057706393
17	0x3db55be1	0.08855415
18	0xbd502bee	-0.050823145
19	0xbc4afe3c	-0.012389716
20	0x3ddd88e2	0.10817124
21	0xbad08db8	-0.0015911376
22	0xbca2c746	-0.019870412
23	0xbd396542	-0.045262583
24	0x3db679ee	0.08909975
25	0x3d20ed23	0.03928865
26	0xbd4b758a	-0.04967264
27	0x3d01b74e	0.031668954
28	0xbc67f422	-0.014157327
29	0xbd0ebc0b	-0.0348473
30	0xbd508aac	-0.050913498
31	0xbdc280fb	-0.09497257
32	0xbc9dc8df	-0.019260822
33	0xbd9aba26	-0.07555036
34	0x3d707a51	0.0587104
35	0xbd021fc3	-0.03176857
36	0xbda3b670	-0.079937816
37	0x3d5ce080	0.053925037
38	0xbc1b445b	-0.009476746
39	0xbd31c593	-0.043401312
40	0xbd9c3ba2	-0.076285616
41	0x3c5576ea	0.01302884
42	0x3c14a87c	0.009073373
43	0x3b18c06b	0.002330805
44	0xbd7c1f56	-0.06155332
45	0x3d8142e0	0.063115835
46	0xbd1944aa	-0.037419
47	0xbdaad2c1	-0.08340979
48	0xbabe40bb	-0.0014515141
49	0xbc6c0221	-0.014404804
50	0x3b906f11	0.0044077714
51	0x3d91115e	0.07083391
52	0xbce1c6a5	-0.027560541
53	0x3d29318b	0.041307013
54	0xbd8e66e6	-0.0695322
55	0x3d3e1fcc	0.046417043
56	0xbd921665	-0.07133178
57	0xbdd548bc	-0.104142636
58	0xbcd9baa7	-0.02657826
59	0x3cebc6a1	0.028781237
60	0xbd67c54d	-0.056584645
61	0xbc7b76f1	-0.015348182
62	0xbd0b0045	-0.033935804
63	0xbcb9def8	-0.022689328
64	0xbd79bd0a	-0.060971297
65	0xbde2211f	-0.110414736
66	0x3b4616c0	0.0030225962
67	0xbd3e1c73	-0.04641385
68	0x3d42ca4d	0.04755621
69	0x3ca210d8	0.019783422
70	0xbc48205a	-0.012214744
71	0x3d98ea8a	0.0746661
72	0xbccb644c	-0.024828099
73	0x3dc1d8aa	0.094651535
74	0x3daa2aba	0.08308931
75	0x3c72678b	0.014795194
76	0x3dc66f69	0.096892186
77	0xbcd9b95e	-0.026577648
78	0xbdcf16a3	-0.101117395
79	0xbdb6711e	-0.08908294
80	0xbd012b75	-0.031535584
81	0x3db70150	0.08935797
82	0x3c957ede	0.018248972
83	0xbc8254de	-0.015909608
84	0xbbeb8e2e	-0.00718858
85	0xbd01d73e	-0.03169941
86	0xbdcd7901	-0.10032845
87	0x3d3a3214	0.045457914
88	0x3bbb9f19	0.005725753
89	0xbda9b0c5	-0.08285669
90	0xbd60451f	-0.05475342
91	0x3d905f3d	0.07049415
92	0xbd1c9f92	-0.038238116
93	0xbd3fc9d8	-0.046823353
94	0x3cd5cd42	0.026098851
95	0x3d42c166	0.04754772
96	0xbc91d926	-0.01780374
97	0x3cd8e370	0.026475638
98	0xbbd44c9e	-0.00647886
99	0xbbf309b7	-0.0074169296
100	0xbdb52a56	-0.088459656
101	0xbd1fe22f	-0.039034065
102	0xbcba85d6	-0.022768896
103	0x3d5e6954	0.054299667
104	0x3d903d6b	0.070429645
105	0xbc399862	-0.011327835
106	0x3d85e667	0.065380864
107	0xbbfd6c1a	-0.007733834
108	0x3d9f6c75	0.077843584
109	0x3d91e84c	0.07124385
110	0x3d6cee03	0.057844173
111	0xbcb5d155	-0.022194544
112	0x3d31c5b7	0.043401446
113	0x3c96dc74	0.018415667
114	0x3d8838b6	0.06651442
115	0xbcca1f72	-0.024673197
116	0xbcc0ca63	-0.023534006
117	0x3cb4eaf8	0.022084698
118	0xbce9a55b	-0.02852123
119	0x3c8f4e92	0.01749352
120	0x3d0d7674	0.034536794
121	0x3d2adb39	0.041712973
122	0x3d4c6f00	0.049910545
123	0x3d393371	0.045215074
124	0x3ce8a488	0.028398767
125	0xbd96a9bf	-0.07356595
126	0xbc87d613	-0.01658157
127	0xbcd779d2	-0.026303206
128	0xbc00488d	-0.007829797
129	0x3d53237c	0.051547512
130	0x3dd2d4d6	0.102945015
131	0x3dc0bf85	0.094115295
132	0xbc3b60de	-0.011436669
133	0x3db67e79	0.089108415
134	0x3cb1c374	0.021699645
135	0xbd909cd8	-0.070611656
136	0xbd3833cb	-0.04497127
137	0x3d8ae5be	0.06782101
138	0x3cefb415	0.029260674
139	0xbd1bba6d	-0.038019586
140	0xbdd190fc	-0.10232732
141	0x3d69f0f2	0.05711455
142	0x3d7731e9	0.060350332
143	0x3b69a39d	0.00356505
144	0xbd6766cb	-0.056494515
145	0xbd6b8444	-0.057499185
146	0x3d20c14a	0.039246835
147	0xbd28dbac	-0.04122512
148	0xbbc13812	-0.0058965767
149	0xbd6aa780	-0.057288647
150	0x3d8d4eed	0.068998195
151	0x3cc4a325	0.024003575
152	0xbd25f4fd	-0.040516842
153	0xbd038e56	-0.032118164
154	0x3dd6b210	0.104831815
155	0x3d8f5d90	0.070002675
156	0x3de08258	0.10962361
157	0x3c55c1a1	0.013046653
158	0xbdc0b7b1	-0.09410036
159	0xbd7beeb8	-0.061506957
160	0x3d9ab10e	0.07553302
161	0x3d4e22be	0.0503261
162	0xbd7225e8	-0.05911818
163	0x3ca422df	0.02003616
164	0xbc293bf3	-0.010329234
165	0x3d43f9d0	0.04784566
166	0x3bcc08d5	0.006226639
167	0x3d4748e1	0.048653487
168	0x3c74d9fe	0.0149445515
169	0xbd8fcf2b	-0.07021936
170	0xbb8b8ac5	-0.004258486
171	0x3d31635d	0.04330765
172	0x3d6fc447	0.058536794
173	0xbdb597a7	-0.08866816
174	0x3c5fb27a	0.013653392
175	0xbdd0be8e	-0.101925954
176	0xbb0f4678	-0.002186207
177	0xbcf3b591	-0.029749664
178	0x3d8ae55f	0.0678203
179	0x3d3c8d6d	0.04603331
180	0xbd0a3bee	-0.03374856
181	0xbd9ff701	-0.07810784
182	0x3da3c0fe	0.07995795
183	0x3c5bd0d9	0.013416492
184	0x3d36bdcf	0.04461461
185	0x3dc364d2	0.09540714
186	0x3d22b84d	0.039726544
187	0x3db73dc8	0.08947331
188	0x3d3b8c26	0.045787953
189	0x3d5e9fa3	0.05435146
190	0xbc8a06eb	-0.016849002
191	0x3d55e517	0.05222043
192	0x3b8ea1e5	0.0043527954
193	0xbdb07291	-0.08615602
194	0x3d96d88b	0.07365521
195	0x3c342679	0.010995501
196	0x3d1ca579	0.038243745
197	0x3a6a24da	0.0008931883
198	0x3de5a635	0.11213342
199	0x3dad75c4	0.08469728
200	0xbdd0e194	-0.101992756
201	0x3d65fcfc	0.056149468
202	0x3b9816a4	0.004641371
203	0x3d79e7a2	0.061011918
204	0xbdab6e32	-0.083706275
205	0x3dc53caa	0.096307114
206	0x3cc3286e	0.02382299
207	0x3d4c0698	0.049810976
208	0xbc8cad02	-0.01717234
209	0x397557dc	0.00023397751
210	0xbd819778	-0.063277185
211	0xbd0506d7	-0.032477226
212	0xbd75c962	-0.060006507
213	0x3d4a3901	0.04937077
214	0x3ddabfcb	0.10681113
215	0xbda8a548	-0.0823465
216	0xbd91b03a	-0.07113691
217	0xbd6a48b0	-0.057198226
218	0x3d4d2d35	0.05009194
219	0x3cd46013	0.025924718
220	0x3d14ac04	0.03629686
221	0xbc5dc88d	-0.013536585
222	0x3d593794	0.05303152
223	0xbd3aac23	-0.04557432
224	0xbc5a9c3c	-0.013342913
225	0xbcaf1eac	-0.02137693
226	0x3d36a4f5	0.04459091
227	0xbccf5240	-0.025307775
228	0xbd04657f	-0.032323357
229	0x3ce88a99	0.028386401
230	0xb9b247e9	-0.00034004383
231	0x3bb2b1e5	0.0054533356
232	0xbc43fc3f	-0.011961996
233	0xbc8fb4e8	-0.017542318
234	0xbd88a47f	-0.06672
235	0x3d7b08a3	0.061287533
236	0x3d4399bc	0.047754034
237	0xbd3a5379	-0.045489762
238	0xbcbe4764	-0.023227401
239	0x3d50503e	0.050857775
240	0xbd506324	-0.050875798
241	0xbd5e07c3	-0.05420662
242	0x3d208a13	0.039194178
243	0xbadf06c2	-0.0017015564
244	0xbdbf7ae7	-0.09349614
245	0xbdacd2ca	-0.08438642
246	0xbd1544a5	-0.036442418
247	0x3d783a3b	0.060602408
248	0xbc2247e2	-0.0099048335
249	0x3c39720c	0.011318695
250	0x3dd38046	0.103272006
251	0x3cfa0c5f	0.030523477
252	0xbd1df1a6	-0.038560532
253	0xbd805271	-0.062657245
254	0xbce0e19a	-0.027451325
255	0x3d7ac8a5	0.061226506

linear_2.bias f4 [3]
0	0xbd644b2f	-0.055735763
1	0x3d71c303	0.05902387
2	0x3d80bc19	0.06285877
